Models/lol_model_emb_only.pth (torch, 889939 bytes, 24 tensors)

role_embedding.weight f4 [5, 8]
-0.5375404 -0.7278343 -0.51897854 1.0137808 -1.0729618 0.005966091 -0.12744077 -0.56562155
0.3625344 -0.333146 -0.9200124 0.46551305 -1.1887525 -0.109705165 -0.28471592 0.75150335
0.20635144 2.0040932 -1.7706369 0.5659479 0.37416834 -1.3984237 0.9856939 0.1722008
-0.8919209 -1.4016972 0.42182457 -0.14245658 0.83870685 0.18894856 -0.71280605 -0.50176126
0.6222673 -0.25166607 0.18168387 0.84915966 0.2658677 0.28983715 0.016605817 1.3308669
00000000: 3f9c 09bf 5953 3abf c7db 04bf 92c3 813f
00000010: d056 89bf 337f c33b d57f 02be 93cc 10bf
00000020: 1c9e b93e 1d92 aabe ef85 6bbf ba57 ee3e
00000030: 0b29 98bf 1aad e0bd 49c6 91be 8662 403f
00000040: cb4d 533e 1043 0040 3ba4 e2bf f6e1 103f
00000050: fe92 bf3e 8cff b2bf 6f56 7c3f 6855 303e
00000060: ee54 64bf d06a b3bf 64f9 d73e 23e0 11be
00000070: 7eb5 563f bb7b 413e 757a 36bf 6d73 00bf
00000080: e94c 1f3f 60da 80be 560b 3a3e 8762 593f
00000090: d01f 883e 8965 943e ec08 883c d959 aa3f

champ_embedding.weight f4 [1000, 32]
-1.0417653 0.115997806 0.7018038 0.00014778224 -0.067759246 0.25771958 0.049008906 0.21975057
-0.07753521 -0.24173403 0.73859346 1.7123909 -0.5359803 1.2466075 -0.06704137 -0.19446768
-0.5144486 -0.75954235 -1.7744215e-18 -0.0008887736 1.4871178 -0.47677585 -0.6159502 0.2257416
-0.33382156 -0.47074533 0.010025209 0.06146277 -0.57944775 0.9061059 1.5014958 0.05411923
-0.5742653 1.0141851 -0.83885485 0.31432042 0.3815766 0.48584095 -1.8306499 1.2944034
-0.021472024 -0.025355935 0.4483085 -0.07519333 -0.78271997 -0.015799146 -0.8504009 -0.04215891
-0.08543869 -0.30323318 -0.24066457 -0.09684665 -0.7297601 0.11227299 0.9823747 -0.34453842
0.7569857 1.3598459 -0.6510615 -1.0479857 1.1534415 0.07447493 -1.1963168 -0.27570757
-1.2611384 1.0496191 -0.1613435 -0.19301721 0.06262053 -0.14771217 0.5910698 -0.7798704
-1.1577445 -0.6181321 -0.26026583 -0.5946497 -1.5046101 -1.0243052 -0.011252698 1.0580765
-0.045868702 0.10755803 -0.16805947 0.19452183 0.20472477 -0.9022144 0.13086292 0.03538223
-0.06914567 -0.7324938 -0.111141585 2.1738653 0.10213709 -0.91322756 0.17438188 0.03163651
0.47960684 0.59130925 0.32371408 3.446999 -0.60872483 -0.8000022 -0.5160424 0.2304356
-1.3591899 1.5747141 0.09509422 -1.0093747 -0.0980644 -0.37062377 1.6402075 1.3731359
-0.46598384 -0.18029384 -0.7995279 0.66449696 0.09515911 -0.99093455 -0.5075568 2.394423
-0.5602103 0.7096347 0.24347636 0.26166126 1.868041 0.40645653 0.5873807 1.6138089
-0.062357057 0.7981953 -0.98757064 1.5397698 0.57365745 -1.2712982 -0.77400196 -1.8152406
-1.3074815 -0.2506215 0.110773504 -0.31957182 1.3288257 -0.120636374 0.4271026 0.1470292
0.27809298 -0.70775753 -0.23104851 0.90149945 -0.112760596 0.7326884 1.0460151 0.8025577
0.5960325 1.8009676 -1.0427413 0.62910527 -0.21738327 -0.006936423 0.13411595 0.86376166
0.21827327 -0.28628412 0.1824772 -0.12164849 -0.010464061 0.7160263 0.4175254 -1.4508513
-0.17352164 -0.1487159 -1.4626275 -1.450469 0.5554406 -0.74007124 -0.9990076 -1.5238731
0.39314854 -0.9298547 -0.20749432 0.020904826 1.6902648 1.1689931 1.2885926 0.8157916
0.8416931 -0.595586 -1.113314 1.4168149 1.0971276 0.7295492 -0.6989768 0.25481224
-0.85376835 -0.042328883 1.673336 1.2497468 -1.431425 1.3171811 1.6006075 0.25776166
1.6718025 -0.3245258 0.57491803 0.5506644 0.6717136 -1.8905444 0.02491342 0.14102364
0.30209333 -0.14409336 -0.4590487 1.1640283 0.66547495 1.0924075 -0.49499556 -1.0750711
-1.7668048 0.7228201 -0.5718599 -1.1579255 -0.23478721 -2.0889475 0.53257114 0.5109399
1.7260411 -0.79912007 0.5374886 1.3323193 -0.21645445 0.03941775 -0.534476 -0.4279205
-0.11479972 0.37231135 0.39115646 1.5592037 0.15509635 -0.8217312 0.98148054 0.177415
-0.0077421176 1.3995527 -0.063021265 -0.7902891 1.1237159 -0.18784519 -0.70483625 0.081482574
-1.2959981 0.3822579 0.46687058 0.5810458 -0.74147856 0.11350748 0.025642572 -0.44726175
00000000: 9158 85bf 4290 ed3d 6aa9 333f fef5 1a39
00000010: 5cc5 8abd d2f3 833e 90bd 483d 4b06 613e
00000020: c8ca 9ebd 2089 77be 7614 3d3f a02f db3f
00000030: 0136 09bf d690 9f3f fc4c 89bd 8922 47be
00000040: e7b2 03bf 5e71 42bf e0ed 02a2 96fc 68ba
00000050: e059 be3f f71b f4be eaae 1dbf ce28 673e
00000060: a9ea aabe 8805 f1be c640 243c 63c0 7b3d
00000070: b056 14bf 8ef6 673f 0431 c03f 20ac 5d3d
00000080: 0d03 13bf d1d0 813f 31bf 56bf 9bee a03e
00000090: 025e c33e 25c0 f83e bc52 eabf 03af a53f
000000a0: 19e6 afbc 40b7 cfbc b188 e53e f6fe 99bd
000000b0: 5660 48bf 366d 81bc e0b3 59bf d2ae 2cbd
000000c0: 7bfa aebd 6141 9bbe c670 76be 8957 c6bd
000000d0: 8fd1 3abf 62ef e53d e97c 7b3f 5767 b0be
000000e0: d1c9 413f 6e0f ae3f f7ab 26bf 6524 86bf
000000f0: f9a3 933f 5086 983d e920 99bf 8b29 8dbe
00000100: fc6c a1bf eb59 863f 3b37 25be 4ea6 45be
00000110: 313f 803d dc41 17be 5a50 173f 96a5 47bf
00000120: f930 94bf e83d 1ebf 9041 85be f63a 18bf
00000130: 1097 c0bf 6f1c 83bf 3c5d 38bc 0d6f 873f
00000140: d2e0 3bbd 6247 dc3d c817 2cbe bb30 473e
00000150: 5fa3 513e 86f7 66bf ee00 063e f5ec 103d
00000160: 3f9c 8dbd b784 3bbf 339e e3bd 9c20 0b40
00000170: 402d d13d 48c9 69bf 2a91 323e 4995 013d
00000180: 078f f53e 0b60 173f dabd a53e a29b 5c40
00000190: 64d5 1bbf f2cc 4cbf 5b1b 04bf 4ff7 6b3e
000001a0: eff9 adbf 3b90 c93f c2c0 c23d 3133 81bf
000001b0: fdd5 c8bd 66c2 bdbe 52f2 d13f ebc2 af3f
000001c0: 6f95 eebe f39e 38be dcad 4cbf 791c 2a3f
000001d0: c8e2 c23d e3ad 7dbf 3eef 01bf 3a3e 1940
000001e0: f169 0fbf 9faa 353f de51 793e 77f8 853e
000001f0: f81b ef3f 121b d03e 955e 163f 4a91 ce3f
00000200: 1d6a 7fbd 8756 4c3f 6ed1 7cbf 2d17 c53f
00000210: 37db 123f e6b9 a2bf fe24 46bf ce59 e8bf
00000220: 8e5b a7bf 7651 80be 38dd e23d eb9e a3be
00000230: f616 aa3f 3410 f7bd 31ad da3e d38e 163e
00000240: 3462 8e3e 992f 35bf fb97 6cbe abc8 663f
00000250: 07ef e6bd 7891 3b3f d3e3 853f 6c74 4d3f
00000260: 9695 183f 1b86 e63f 8c78 85bf 0b0d 213f
00000270: b899 5ebe ef4a e3bb b155 093e 7c1f 5d3f
00000280: 0783 5f3e d593 92be 4edb 3a3e d822 f9bd
00000290: 7471 2bbc 804d 373f e4c5 d53e 7fb5 b9bf
000002a0: a8af 31be fb48 18be 6137 bbbf f8a8 b9bf
000002b0: 5b31 0e3f 4f75 3dbf f6be 7fbf 460e c3bf
000002c0: c44a c93e f50a 6ebf 6479 54be 9940 ab3c
000002d0: 995a d83f 91a1 953f 9af0 a43f b8d7 503f
000002e0: 3379 573f 5378 18bf 1381 8ebf 315a b53f
000002f0: ad6e 8c3f bdc3 3a3f 25f0 32bf c076 823e
00000300: 9090 5abf 0d61 2dbd e02f d63f b4f7 9f3f
00000310: ef38 b7bf 6499 a83f b5e0 cc3f 56f9 833e
00000320: a0fd d53f 3f28 a6be d42d 133f 58f8 0c3f
00000330: 6cf5 2b3f 5cfd f1bf 3b17 cc3c 8068 103e
00000340: faab 9a3e 368d 13be 6e08 ebbe e1fe 943f
00000350: 915c 2a3f 02d4 8b3f 0f70 fdbe ee9b 89bf
00000360: a926 e2bf bd0a 393f 6965 12bf e736 94bf
00000370: 0f6c 70be 51b1 05c0 9556 083f f5cc 023f
00000380: eaee dc3f 2293 4cbf da98 093f 7089 aa3f
00000390: 3ca6 5dbe 8274 213d 6bd3 08bf 6518 dbbe
000003a0: 1e1c ebbd 989f be3e a945 c83e fd93 c73f
000003b0: 94d1 1e3e fa5c 52bf 4f42 7b3f 47ac 353e
000003c0: 97b1 fdbb 8b24 b33f 4b11 81bd 6350 4abf
000003d0: ecd5 8f3f 7d5a 40be 2670 34bf 56e0 a63d
000003e0: 44e3 a5bf 4fb7 c33e a909 ef3e 6bbf 143f
000003f0: 8ad1 3dbf 9c76 e83d 5f10 d23c 7eff e4be

fc1.weight f4 [256, 329]
-0.020318436 -0.044341736 0.0434145 -0.011896866 -0.012507498 -0.0021566018 -0.035260476 0.0302498
-0.037444424 -0.009992457 -0.032548096 0.009504254 0.028128516 0.010282131 -0.022331038 -0.04101341
0.03366873 -0.017260833 -0.01877254 0.0018988028 0.00844835 0.019379687 0.012355404 0.005975072
-0.02171296 0.0052056373 0.027049087 0.029596854 -0.031504594 -0.03816847 0.022495376 -0.03461719
0.010140289 0.026533278 -0.01464634 0.030050693 -0.018630048 0.029684033 -0.0068684854 -0.016267924
-0.022191532 0.058766123 0.030611461 -0.0061684395 0.019347033 -0.02680792 -0.020213898 0.006232232
0.03917299 -0.025410645 -0.032340314 0.026320992 -0.02676718 0.017854381 0.036093872 -0.046729315
0.0062319282 -0.042832136 -0.015964536 0.009703256 0.010334665 -0.047497656 -0.020306388 -0.012530286
0.028697299 0.016842728 0.04094509 -0.015471715 -0.0069601233 -0.0031690635 -0.047059264 0.031307165
0.04951888 -0.020307519 0.02290864 -0.032956947 0.026500192 -0.046917938 -0.0010736218 0.040272485
-0.03302371 -0.036883436 -0.05673647 0.018456856 0.036638964 -0.036923207 0.0077620684 -0.030689774
-0.019562673 -0.03074016 -0.0029248006 -0.032616384 -0.0057949014 0.009233254 -0.026817514 -0.0045655393
0.008986904 0.044370122 -0.03558816 0.03906723 -0.013133915 -0.014460223 0.0033718122 0.023834443
-0.040254593 0.013142751 0.0078875525 -0.016163776 -0.018250786 -0.04506466 -0.045317505 0.03621535
-0.034441557 -0.012994387 -0.027704896 0.019913001 0.015478769 -0.012792211 0.02235572 0.017392633
0.008312959 -0.023994623 0.011477859 -0.008090196 -0.019203143 -0.041187536 -0.01526619 0.03397169
-0.032723438 0.05559766 0.00015463795 -0.074624516 0.008176766 -0.014511122 0.010291403 0.04415216
0.0071078003 0.05156689 -0.007960151 0.027783815 -0.01007526 0.045211054 0.0048549846 0.022159122
0.03344953 -0.0230719 0.04563055 -0.026284153 -0.06082032 0.016443938 0.002516593 -0.047821887
0.041287914 0.056859877 0.0087349815 0.0033169407 -0.00048191415 0.026710266 -0.02861393 0.010744973
0.01466174 0.009435777 -0.060328275 0.03259534 0.019630564 0.027069204 -0.025976975 0.040867083
0.03287916 -0.022910547 -0.0104014315 0.028340168 0.030789932 -0.0267369 0.0362059 0.025231015
0.049224142 -0.0043971837 -0.007131402 -0.0351981 0.027368957 0.0035758526 0.030920796 0.028463164
0.020005058 -0.0077403514 -0.040204927 0.025098994 -0.06129715 -0.020966249 -0.03592957 -0.019040765
-0.017782085 -0.032136537 0.012421041 -0.01780742 0.019243361 0.035708956 0.020880539 -0.019696096
-0.021531228 0.02509481 0.05496438 0.039268285 -0.018085575 -0.051039986 0.02959436 0.0045208945
-0.04120919 -0.017378813 0.016359966 0.02517621 0.03933469 -0.01877183 -0.013718071 0.0005832341
-0.03293858 0.043675344 -0.040848035 -0.030787658 0.013489989 0.028175741 -0.031081704 0.05026411
-0.003604702 0.04106911 0.039301053 0.036579527 -0.035916742 -0.0010303779 -0.019051956 -0.0007382711
0.021798756 -0.025739303 -0.05807609 -0.020120554 0.045280166 -0.051963557 -0.023237353 0.025791924
0.038540807 0.026558705 0.018101 0.026013752 0.021960715 0.007174972 -0.043609824 -0.04997414
0.041991796 0.0051305173 0.009172609 0.009313306 -0.024817953 0.024704566 0.009338761 -0.023796853
00000000: d972 a6bc ae9f 35bd 67d3 313d 13eb 42bc
00000010: 40ec 4cbc c655 0dbb 4a6d 10bd 6ece f73c
00000020: 535f 19bd 67b7 23bc 2751 05bd bbb7 1b3c
00000030: c66d e63c 6276 283c 95ef b6bc adfd 27bd
00000040: 39e8 093d 9766 8dbc dfc8 99bc 40e1 f83a
00000050: f36a 0a3c 26c2 9e3c 526e 4a3c 89ca c33b
00000060: 61df b1bc 0d94 aa3b 0c96 dd3c 1a75 f23c
00000070: f60a 01bd 8b56 1cbd 3948 b83c c1ca 0dbd
00000080: 7423 263c 515c d93c 34f7 6fbc df2c f63c
00000090: 0b9e 98bc ee2b f33c 0811 e1bb 4f44 85bc
000000a0: 04cb b5bc bfb4 703d e3c4 fa3c 9f20 cabb
000000b0: ab7d 9e3c 489c dbbc 9e97 a5bc c037 cc3b
000000c0: db73 203d fc29 d0bc 4777 04bd 1f9f d73c
000000d0: d846 dbbc 5a43 923c 2bd7 133d 3d67 3fbd
000000e0: 3435 cc3b c070 2fbd 0fc8 82bc 68fa 1e3c
000000f0: ba52 293c e78c 42bd 9559 a6bc d44b 4dbc
00000100: 9916 eb3c c3f9 893c 0ab6 273d 137d 7dbc
00000110: bf11 e4bb 10b0 4fbb 37c1 40bd f13b 003d
00000120: 4fd4 4a3d f45b a6bc e6aa bb3c ddfd 06bd
00000130: ee16 d93c 062d 40bd c5b8 8cba c3f4 243d
00000140: df43 07bd 1613 17bd 8064 68bd d532 973c
00000150: bd12 163d ca3c 17bd f358 fe3b 1f69 fbbc
00000160: e641 a0bc cad2 fbbc 03ae 3fbb c298 05bd
00000170: 28e3 bdbb 1347 173c 67b0 dbbc 859a 95bb
00000180: cf3d 133c 72bd 353d e4c4 11bd f604 203d
00000190: a22f 57bc 92ea 6cbc 9ff9 5c3b 7340 c33c
000001a0: 00e2 24bd b154 573c cb3a 013c e569 84bc
000001b0: ac82 95bc b995 38bd d99e 39bd 8c56 143d
000001c0: 9712 0dbd 69e6 54bc 61f5 e2bc 9720 a33c
000001d0: aa9a 7d3c 6c96 51bc 5823 b73c ff7a 8e3c
000001e0: 1433 083c 5f90 c4bc a10d 3c3c be8c 04bc
000001f0: e94f 9dbc 43b4 28bd 0b1f 7abc e625 0b3d
00000200: 0309 06bd 5fba 633d 4f26 2239 bdd4 98bd
00000210: d8f7 053c 0fc0 6dbc 469d 283c e5d8 343d
00000220: 8de8 e83b ce37 533d 4b6b 02bc e29a e33c
00000230: b412 25bc 3a2f 393d 9016 9f3b 0c87 b53c
00000240: 6002 093d 4801 bdbc 19e7 3a3d dd51 d7bc
00000250: ba1e 79bd 70b5 863c 6ded 243b e2e0 43bd
00000260: 841d 293d e7e5 683d 2b1d 0f3c 0861 593b
00000270: 6ca9 fcb9 7dcf da3c c367 eabc af0b 303c
00000280: cb37 703c 8498 1a3c c81a 77bd b182 053d
00000290: 47d0 a03c 3cc0 dd3c aacd d4bc 3e64 273d
000002a0: 4cac 063d e6ae bbbc c46a 2abc a429 e83c
000002b0: 2b3b fc3c 5807 dbbc a34c 143d 46b1 ce3c
000002c0: 419f 493d 4016 90bb 89ae e9bb e22b 10bd
000002d0: dd34 e03c da58 6a3b 9c4d fd3c 952b e93c
000002e0: a6e1 a33c c6a2 fdbb ecad 24bd 689c cd3c
000002f0: b812 7bbd 69c1 abbc e32a 13bd 61fb 9bbc
00000300: bcab 91bc 9aa1 03bd 9f81 4b3c dee0 91bc
00000310: 41a4 9d3c 8e43 123d aa0d ab3c b559 a1bc
00000320: 4262 b0bc a293 cd3c 5422 613d c8d7 203d
00000330: 3328 94bc 4e0f 51bd df6f f23c 0324 943b
00000340: f8ca 28bd 035e 8ebc 5605 863c 573e ce3c
00000350: 691d 213d 61c7 99bc c3c1 60bc 2ee4 183a
00000360: 9bea 06bd ebe4 323d 4550 27bd 6636 fcbc
00000370: 1d05 5d3c d0d0 e63c 0f9f febc bde1 4d3d
00000380: dd3c 6cbb 1538 283d 24fa 203d 6ad4 153d
00000390: 6f1d 13bd bf0d 87ba d912 9cbc 8988 41ba
000003a0: 4e93 b23c 3bdb d2bc 32e1 6dbd dcd3 a4bc
000003b0: b277 393d bdd7 54bd 435c bebc 9649 d33c
000003c0: f7dc 1d3d a491 d93c 8c48 943c cb1a d53c
000003d0: f5e6 b33c 071c eb3b 37a0 32bd afb1 4cbd
000003e0: 97ff 2b3d e61d a83b b648 163c d696 183c
000003f0: 054f cbbc 3b61 ca3c 9a01 193c 9ef1 c2bc

fc1.bias f4 [256]
2.862869e-08 3.6631187e-09 -1.6399167e-07 4.1482657e-08 -1.7142105e-08 -3.2235667e-07 1.2082569e-07 -5.720946e-09
4.2895024e-08 4.7628934e-08 -2.0413643e-07 5.418629e-07 -2.3855051e-08 1.6390352e-07 -1.2266912e-07 -5.1523324e-07
-2.7968093e-07 -5.97612e-08 -1.7400497e-08 -1.2866954e-07 -6.944488e-08 -1.3566684e-07 3.5921767e-07 -2.2376213e-08
-9.8075276e-08 -9.31153e-09 -7.1956046e-09 -4.396714e-08 -7.576095e-08 5.749115e-07 1.4911723e-07 5.087815e-08
1.0916849e-07 1.2388254e-07 1.5424429e-07 -9.926497e-08 1.102246e-07 4.5760483e-08 -3.9801475e-07 5.1678796e-07
-1.5949682e-07 7.74713e-08 -1.2186755e-06 2.3716433e-08 -1.3073421e-07 -9.312599e-08 -1.4272496e-07 -8.610688e-08
1.06681064e-07 -2.3397601e-07 2.2320673e-08 -3.2233224e-08 -8.673491e-08 9.081853e-08 -2.6863236e-07 -3.4687833e-08
-5.3694254e-07 5.19431e-07 2.82695e-07 -7.153653e-07 -3.4972604e-07 9.124586e-08 -1.5170934e-07 -6.225269e-08
-6.053582e-09 -3.2861345e-07 1.7138793e-08 -7.330681e-07 -4.157629e-08 -8.8912526e-07 9.042893e-08 -2.9172813e-07
-1.1119222e-07 1.2300394e-07 -6.687981e-08 -1.885807e-07 -7.5245524e-08 -1.3924472e-07 8.8472575e-08 5.436097e-07
9.642476e-08 5.389589e-07 8.002724e-08 -1.2410796e-07 -8.583786e-08 -1.537837e-07 -2.2349232e-08 -1.2028343e-07
-8.015241e-07 -1.0423083e-07 7.3549124e-08 -3.6048135e-07 -1.7817469e-07 8.2673965e-09 4.721427e-09 -1.0553422e-06
3.496882e-08 3.9521754e-07 -7.5918206e-07 1.7687844e-07 -1.2884482e-07 8.162814e-08 7.0017995e-07 8.88796e-08
-1.3728552e-08 1.07254166e-07 5.453479e-07 1.8662572e-08 -2.0482923e-07 1.00248236e-07 3.7032342e-07 -6.040642e-08
4.0732922e-07 1.8304928e-07 -4.2668293e-07 2.2391877e-08 -4.701215e-08 -1.1240888e-06 8.550728e-09 -1.3184987e-07
1.2924206e-08 3.9737165e-07 -6.75274e-08 -1.2348833e-07 8.890792e-07 -1.5395267e-07 6.7135474e-08 3.848242e-08
-1.4112936e-07 1.2112321e-07 -6.199179e-09 -2.2001557e-06 -1.5061492e-07 5.6806662e-08 -3.325652e-08 -7.116676e-08
-2.0443657e-08 -1.0597666e-07 4.519862e-08 -1.05943585e-07 -2.0613403e-08 6.7569204e-08 1.6128077e-07 9.4183044e-08
2.461673e-07 -2.9529128e-08 2.502266e-07 7.791263e-08 8.661521e-07 1.829702e-07 -5.467628e-07 -2.4476947e-08
-2.6064592e-07 2.8921744e-07 1.8141604e-07 9.01414e-08 2.217765e-07 -1.5897821e-07 -2.831623e-07 -3.4135857e-07
1.6718363e-07 6.44633e-07 -1.513357e-07 4.3061468e-07 -3.8831367e-08 1.1175861e-07 3.550903e-07 1.1783041e-07
2.0928864e-08 2.9398382e-07 -3.0339964e-07 -2.3737e-07 5.964524e-09 -2.8607334e-07 8.0244995e-08 -4.448815e-07
-5.852192e-08 9.3133656e-07 -2.7183847e-07 -1.2643704e-07 7.6573015e-09 -1.8861984e-07 -3.5349316e-08 1.7968283e-07
3.576496e-08 -1.4448644e-07 -2.5985008e-07 -1.4155063e-07 2.7381503e-07 -1.0420113e-07 4.2550062e-07 -1.8887107e-07
-1.6832473e-06 3.7321965e-07 1.5865231e-07 1.0140211e-07 -9.36301e-08 3.083703e-09 4.847688e-07 -1.2737103e-08
-2.8214673e-08 -1.8950583e-08 -2.6980325e-07 7.331748e-09 -1.1742305e-07 -9.8641685e-08 9.632583e-09 -5.5977404e-07
-1.6460896e-07 -5.2180003e-08 -1.624111e-07 -2.0235699e-07 5.6965803e-08 -3.8591804e-07 5.4171164e-07 7.5357875e-08
-7.190452e-08 -6.68952e-07 2.3828284e-06 1.7549179e-07 -3.2012923e-07 4.2727345e-07 -1.5272114e-07 -1.7834251e-08
-2.8351138e-08 -8.51285e-08 1.5944113e-07 -2.534738e-07 -4.9330918e-08 1.8425093e-08 2.6862747e-07 8.1113967e-07
1.0472713e-06 3.6774045e-07 -6.0299127e-10 1.8703298e-08 9.9447774e-08 2.0603615e-08 2.253012e-07 -4.00355e-08
1.0230959e-06 7.617101e-08 6.553813e-08 1.2516533e-07 1.096378e-08 -4.214556e-07 1.7276538e-07 -5.8326943e-08
-6.069405e-08 1.9933678e-07 -2.6877612e-07 -9.175327e-09 -9.0866834e-08 4.2844017e-06 -3.0936755e-07 1.4076251e-07
00000000: 28eb f532 44ba 7b31 b015 30b4 aa2a 3233
00000010: e33f 93b2 5d10 adb4 50bc 0134 f991 c4b1
00000020: 943b 3833 9190 4c33 9830 5bb4 8974 1135
00000030: d0e9 ccb2 75fd 2f34 08b7 03b4 8f4e 0ab5
00000040: 0e27 96b4 1156 80b3 1978 95b2 6a28 0ab4
00000050: ba21 95b3 d1ab 11b4 80da c034 d035 c0b2
00000060: 749d d2b3 8bf8 1fb2 353d f7b1 62d6 3cb3
00000070: 06b2 a2b3 9e53 1a35 081d 2034 1e85 5a33
00000080: 0370 ea33 9304 0534 599e 2534 7f2b d5b3
00000090: 9db4 ec33 2f8a 4433 bbae d5b4 66b9 0a35
000000a0: 2742 2bb4 4c5e a633 5f91 a3b5 fdb8 cb32
000000b0: f25f 0cb4 8efc c7b3 f03f 19b4 c2e9 b8b3
000000c0: 8918 e533 d63a 7bb4 aebb bf32 ce70 0ab3
000000d0: 0543 bab3 0408 c333 8d38 90b4 adfb 14b3
000000e0: 6922 10b5 076f 0b35 4ec5 9734 8707 40b5
000000f0: fbc1 bbb4 f1f2 c333 8ce5 22b4 c7af 85b3
00000100: dfff cfb1 4a6c b0b4 9b38 9332 0ec8 44b5
00000110: 9d91 32b3 39ac 6eb5 d431 c233 cf9e 9cb4
00000120: 92c8 eeb3 1113 0434 909f 8fb3 ab7c 4ab4
00000130: aa96 a1b3 4c83 15b4 50fe bd33 93ec 1135
00000140: 1312 cf33 f9ac 1035 71db ab33 8942 05b4
00000150: dd55 b8b3 be1f 25b4 7bfa bfb2 4227 01b4
00000160: 5128 57b5 81d5 dfb3 0ff2 9d33 2e88 c1b4
00000170: 4950 3fb4 6508 0e32 1c3a a231 48a5 8db5
00000180: a030 1633 492e d434 98ca 4bb5 faeb 3d34
00000190: 9858 0ab4 8b4b af33 00f4 3b35 14de be33
000001a0: cfda 6bb2 9a53 e633 0664 1235 6e4f a032
000001b0: 08ef 5bb4 0d48 d733 ddd0 c634 c8b8 81b3
000001c0: e7ae da34 348c 4434 db12 e5b4 4258 c032
000001d0: 68ea 49b3 66df 96b5 80e6 1232 9e92 0db4
000001e0: 4209 5e32 5856 d534 9503 91b3 3798 04b4
000001f0: 0fa9 6e35 304e 25b4 1e2c 9033 de47 2533
00000200: 5889 17b4 180e 0234 8e00 d5b1 63a6 13b6
00000210: b7b8 21b4 96fb 7333 eed5 0eb3 57d4 98b3
00000220: 149c afb2 4995 e3b3 6920 4233 1a83 e3b3
00000230: 5a11 b1b2 901a 9133 852c 2d34 ad41 ca33
00000240: fa28 8434 3da7 fdb2 e256 8634 ec50 a733
00000250: 8581 6835 7776 4434 41c5 12b5 6041 d2b2
00000260: e7ee 8bb4 be45 9b34 43cb 4234 c293 c133
00000270: 7621 6e34 99b3 2ab4 8805 98b4 f743 b7b4
00000280: 1683 3334 d80a 2d35 d77e 22b4 3b2f e734
00000290: 8ac7 26b3 f2ff ef33 3da3 be34 f409 fd33
000002a0: 0fc7 b332 d4d4 9d34 eee2 a2b4 c5df 7eb4
000002b0: 82f0 cc31 9f95 99b4 2753 ac33 0cd8 eeb4
000002c0: 8859 7bb3 f600 7a35 32f1 91b4 c0c2 07b4
000002d0: 2b8d 0332 6d87 4ab4 fcd2 17b3 d7ee 4034
000002e0: fd9b 1933 2124 1bb4 8681 8bb4 24fd 17b4
000002f0: da00 9334 2dc5 dfb3 5c70 e434 7ccc 4ab4
00000300: f0eb e1b5 eb5e c834 045a 2a34 66c2 d933
00000310: b111 c9b3 14e9 5331 0f21 0235 5fd2 5ab2
00000320: b95c f2b2 c6c8 a2b2 7ad9 90b4 bdea fb31
00000330: 012a fcb3 d7d4 d3b3 8c7c 2532 6143 16b5
00000340: 5ebf 30b4 851c 60b3 3963 2eb4 7747 59b4
00000350: 90aa 7433 2c30 cfb4 246a 1135 6ed4 a133
00000360: ee69 9ab3 0892 33b5 aee8 1f36 d16e 3c34
00000370: 3ade abb4 0464 e534 abfb 23b4 ef31 99b2
00000380: d088 f3b2 e3cf b6b3 d832 2b34 2c15 88b4
00000390: ebdf 53b3 3545 9e32 e137 9034 18bd 5935
000003a0: f88f 8c35 dd6d c534 bdbf 25b0 fda8 a032
000003b0: fe8f d533 d4fb b032 53ea 7134 7ff3 2bb3
000003c0: 4f51 8935 7593 a333 f8bd 8c33 2f65 0634
000003d0: 375b 3c32 6b44 e2b4 6381 3934 2783 7ab3
000003e0: e856 82b3 4709 5634 4f4c 90b4 84a1 1db2
000003f0: 9222 c3b3 bbc2 8f36 2717 a6b4 8124 1734

bn1.weight f4 [256]
0.9363113 0.8832965 0.9130764 0.88290614 0.93918324 0.87520266 0.92137843 0.8740132
0.89792085 0.8658209 0.95650125 0.94244415 0.8852789 0.8903618 0.892074 0.93434936
0.87995183 0.8847018 0.94167215 0.90871745 0.9066239 0.8912388 0.9469408 0.942837
0.9145613 0.88684666 0.8933379 0.89684904 0.94289553 0.95951635 0.86584914 0.95076776
0.899376 0.95506406 0.9139502 0.8888493 0.8774898 0.892487 0.94434595 0.9301392
0.9009165 0.93989915 0.94410354 0.8923774 0.93119717 0.9101733 0.9073762 0.9353491
0.9371336 0.94625574 0.8556967 0.8893823 0.91878206 0.96216226 0.9130661 0.8648326
0.9278285 0.9091635 0.8926921 0.88794976 0.8868249 0.9222367 0.9593496 0.8760487
0.9280097 0.90644294 0.94777477 0.93718463 0.8970711 0.9465968 0.9162618 0.9404976
0.91347367 0.884368 0.89327 0.941161 0.92461896 0.9524717 0.9019799 0.942593
0.9327882 0.8990302 0.9432271 0.8763587 0.9147395 0.89526683 0.9371755 0.9640648
0.9001673 0.88087714 0.8848701 0.8767643 0.91859794 0.9019205 0.87626445 0.92808354
0.92948973 0.954403 0.9123054 0.96762943 0.8925737 0.9243393 0.96267796 0.89556015
0.91413605 0.9400971 0.93535906 0.92427194 0.9082605 0.8790413 0.9722158 0.9190938
0.9127279 0.9395159 0.9206026 0.8706875 0.9124057 0.9144127 0.87221634 0.91659325
0.92171156 0.8804604 0.88281745 0.9523924 0.9262086 0.9028258 0.8978671 0.940814
0.8941227 0.90205085 0.8795381 0.89815545 0.89387864 0.9002832 0.9007998 0.88538533
0.88107586 0.89063436 0.9539977 0.89265794 0.908449 0.89325804 0.8911521 0.9024298
0.93686897 0.9431971 0.94472784 0.8759366 0.9094906 0.93150663 0.93567646 0.8789898
0.9463993 0.9241534 0.8843956 0.8872417 0.93626595 0.90305966 0.9409438 0.89117813
0.9389587 0.86919034 0.8915976 0.9309824 0.91472006 0.9212323 0.9401226 0.9325394
0.86580974 0.87591934 0.88936114 0.87244934 0.904812 0.91679627 0.8833471 0.9221521
0.8921906 0.9590974 0.8773638 0.8912867 0.9233585 0.8888725 0.8938435 0.8984676
0.8995112 0.88000166 0.9551256 0.89891106 0.9502314 0.9464041 0.88795996 0.922318
0.93661433 0.94243973 0.8881985 0.90699726 0.9623392 0.9128183 0.9011365 0.89138865
0.8748238 0.8822866 0.8948316 0.9000352 0.887337 0.8569813 0.8709597 0.9206305
0.9051436 0.9244409 0.9528754 0.919945 0.87507194 0.9387814 0.9211275 0.92569524
0.91147685 0.9298558 0.9139383 0.8965563 0.9474388 0.90337217 0.92398626 0.872982
0.9350659 0.8885924 0.91691124 0.88301915 0.8924045 0.89340496 0.9084627 0.9164611
0.9602145 0.94974625 0.8964414 0.90022826 0.91837174 0.9299605 0.89369804 0.9411722
0.96444046 0.8911297 0.9091462 0.9435705 0.8675958 0.9286344 0.9044726 0.92363906
0.9428043 0.9372296 0.9156816 0.92276984 0.92330074 0.98419243 0.87799376 0.89102095
00000000: 19b2 6f3f b81f 623f 60bf 693f 2306 623f
00000010: 506e 703f 480d 603f 75df 6b3f 54bf 5f3f
00000020: 24de 653f 70a6 5d3f 44dd 743f 0544 713f
00000030: a3a1 623f c0ee 633f f65e 643f 8531 6f3f
00000040: 8644 613f d17b 623f 6d11 713f b5a1 683f
00000050: 8118 683f 3a28 643f b66a 723f c45d 713f
00000060: b020 6a3f 6208 633f cbb1 643f e697 653f
00000070: 9a61 713f dda2 753f 4aa8 5d3f 8465 733f
00000080: 813d 663f 147f 743f a4f8 693f a18b 633f
00000090: 2ca3 603f 077a 643f a8c0 713f 9a1d 6e3f
000000a0: 77a2 663f 3b9d 703f c5b0 713f d872 643f
000000b0: f062 6e3f 1e01 693f cf49 683f 0a73 6f3f
000000c0: fde7 6f3f d13d 723f f00e 5b3f 8fae 633f
000000d0: 4d35 6b3f 4450 763f b3be 693f ab65 5d3f
000000e0: 2b86 6d3f f0be 683f 7887 643f ad50 633f
000000f0: f506 633f b417 6c3f ef97 753f ba44 603f
00000100: 0b92 6d3f a50c 683f 5ea1 723f 55eb 6f3f
00000110: 74a6 653f 2b54 723f 2290 6a3f 73c4 703f
00000120: 69d9 693f f165 623f 58ad 643f edef 703f
00000130: d4b3 6c3f 2fd5 733f 28e8 663f c64d 713f
00000140: 35cb 6e3f d826 663f 5577 713f 0b59 603f
00000150: 5e2c 6a3f 3530 653f bcea 6f3f f3cc 763f
00000160: 5d71 663f 2a81 613f d986 623f a073 603f
00000170: 3c29 6b3f 43e4 663f de52 603f e296 6d3f
00000180: 0af3 6d3f c153 743f d98c 693f 90b6 773f
00000190: b67f 643f 80a1 6c3f 1072 763f 6e43 653f
000001a0: d204 6a3f 34aa 703f b173 6f3f 169d 6c3f
000001b0: c383 683f da08 613f 22e3 783f bb49 6b3f
000001c0: 89a8 693f 1d84 703f 9dac 6b3f 60e5 5e3f
000001d0: 6c93 693f f316 6a3f 9249 5f3f dba5 6a3f
000001e0: 4af5 6b3f da65 613f 5300 623f fdcf 733f
000001f0: 021c 6d3f 971f 673f 9eda 653f 30d9 703f
00000200: 3ae5 643f ceec 663f 6929 613f 84ed 653f
00000210: 3bd5 643f f678 663f d19a 663f 9da8 623f
00000220: 308e 613f 9d00 643f 3139 743f 3b85 643f
00000230: 1d90 683f 8fac 643f 8b22 643f a405 673f
00000240: a5d6 6f3f 5d75 713f afd9 713f 623d 603f
00000250: 60d4 683f 3877 6e3f 7e88 6f3f 7a05 613f
00000260: 3947 723f 5195 6c3f c067 623f 4622 633f
00000270: 20af 6f3f eb2e 673f b1e1 703f 4024 643f
00000280: 995f 703f 4283 5e3f be3f 643f dd54 6e3f
00000290: 182b 6a3f e1d5 6b3f e0ab 703f e7ba 6e3f
000002a0: b5a5 5d3f 403c 603f 2cad 633f d758 5f3f
000002b0: c2a1 673f 29b3 6a3f 0923 623f 2912 6c3f
000002c0: 9a66 643f 6887 753f ea9a 603f 5d2b 643f
000002d0: 3961 6c3f 268d 633f edd2 643f f901 663f
000002e0: 5e46 663f ca47 613f 1c83 743f 091f 663f
000002f0: 5d42 733f 8a47 723f 5851 633f 081d 6c3f
00000300: f5c5 6f3f bb43 713f fa60 633f f930 683f
00000310: dd5b 763f 76ae 693f e2b0 663f 0c32 643f
00000320: 74f4 5f3f 89dd 613f af13 653f b568 663f
00000330: 8528 633f 2063 5b3f 37f7 5e3f 71ae 6b3f
00000340: 7eb7 673f 29a8 6c3f a4ef 733f 8481 6b3f
00000350: b704 603f fa53 703f 03cf 6b3f 5dfa 6c3f
00000360: 8c56 693f 080b 6e3f dcf7 693f b784 653f
00000370: 598b 723f 6643 673f 5d8a 6c3f c07b 5f3f
00000380: 7b60 6f3f cb7a 633f b2ba 6a3f 8b0d 623f
00000390: 9f74 643f 30b6 643f 0391 683f 329d 6a3f
000003a0: 9ed0 753f 9222 733f 2f7d 653f 5c75 663f
000003b0: 691a 6b3f e411 6e3f 65c9 643f a9f0 703f
000003c0: 92e5 763f 1321 643f cebd 683f d68d 713f
000003d0: c21a 5e3f fcba 6d3f 848b 673f 9c73 6c3f
000003e0: 9f5b 713f 47ee 6f3f 1c6a 6a3f a53a 6c3f
000003f0: 705d 6c3f 09f4 7b3f 33c4 603f f319 643f

bn1.bias f4 [256]
0.0017476818 -0.021215945 -0.015565726 -0.023172203 0.0018419119 -0.025707455 0.013958304 -0.009725611
0.0024618516 -0.01720907 0.010041755 0.008162066 -0.0153413685 -0.023274485 -0.0061527984 0.00044715358
-0.009320186 -0.010522943 -0.0016729772 -0.00417643 0.0042235963 -0.0005479775 0.001951063 0.0065066675
0.0151341 -0.0030944832 -0.013635187 -0.010654805 -0.0027526568 0.014532773 -0.010334687 0.015613019
-0.0062188082 0.014073056 0.006101672 -0.003082243 -0.018303057 -0.00023811583 -0.013190008 0.01511168
0.0011579857 0.015669884 0.01653006 -0.0041364175 -0.01252648 -0.005498908 -0.0099286 0.00037173423
0.010756147 0.011777791 -0.021465834 -0.013778566 -0.00746131 0.010899996 0.0051909145 -0.023666851
0.011519168 -0.020366289 -0.02801009 -0.0052536386 -0.008856806 -0.025039421 -0.006330862 -0.039310038
0.017954856 -0.02162043 0.025080748 0.007510238 -0.021546263 1.4959291e-05 -0.0059405654 0.0034655698
0.0021804331 -0.018605532 -0.0036650477 0.005521983 -0.00399475 0.016672451 0.009649115 0.006523657
0.008098023 0.002757317 0.014918614 -0.013357868 0.00086601527 -0.0024849928 0.005306788 0.033132084
0.0069871554 -0.002245344 -0.034467 -0.0029704005 -0.0017322695 -0.01244965 7.8405006e-05 0.0018466278
-0.0044266316 0.021764757 -0.03725198 0.025873495 -0.019439245 -0.0071675 0.005227102 -0.016235532
-0.007512856 0.04376792 0.021707509 -0.00031550165 0.0066295634 -0.01581656 0.014467643 0.0021265144
0.004979819 0.010927323 -0.005878905 -0.033975728 -0.012120572 -0.011472792 -0.034890965 0.0030845026
-0.0010996093 -0.0073741614 0.0019643123 0.004081624 0.02092955 -0.011285508 -0.013875036 0.00747022
-0.0038637752 -0.02330027 -0.008698967 -0.005747643 -0.0035195258 -0.009279246 -0.01978545 -0.0037300487
-0.009764324 0.0059680133 0.0061350986 -0.0060938788 0.00065651955 -0.011315783 -0.020698965 0.0055868207
0.0019164293 0.008034888 0.030315535 -0.017325511 0.0055415947 -0.015479937 0.020130819 -0.011622943
0.027761476 -0.005922724 -0.026573326 -0.0064228284 0.0018592167 -0.010511451 -0.0071145487 -0.018219087
-0.0027906513 -0.022033464 -0.009113904 -0.015671363 0.0055992072 0.0027290925 -0.003714335 0.012966853
-0.019316593 -0.012479602 -0.012470313 -0.015935421 -0.0016257536 0.00014241999 -0.014498537 -0.009164394
0.003945164 0.037687242 -0.019004261 -0.011774727 -0.009194907 -0.0044773854 -0.021799034 0.0015313753
-0.0024231991 -0.012241591 0.02730394 -0.0056434525 0.021046948 0.027693978 -0.006452396 0.0036776012
-0.014498519 0.012079927 -0.014345155 -0.002624877 0.011677772 -0.010486033 -0.009438221 -0.028037881
-0.010510783 -0.008608072 -0.008287442 -0.0075956937 -0.02059005 -0.029301165 -0.026693923 0.007003836
-0.0076773856 0.002934659 0.008779037 0.011098971 -0.018612465 0.011438603 -0.016331201 0.008331598
-0.009300944 -0.0064720307 0.011605859 -0.0009230518 0.010245117 -0.017399766 -0.0076092393 -0.019320186
0.0035122512 -0.010484813 -0.0051644593 -0.0019571097 -0.021284662 0.0018395483 -0.0016497927 0.0034510586
0.0040650456 0.020949537 0.00078620005 -0.010337504 -0.010421698 0.003401845 0.0069871303 0.025921429
0.014872855 -0.009653666 0.016388657 -0.0031119029 -0.028243598 0.0056408215 -0.009475344 -0.0077900076
0.00032775156 0.025200611 0.007369411 0.015281364 0.014813899 0.040913753 -0.0074618543 -0.021699348
00000000: 7812 e53a 10cd adbc 6307 7fbc a2d3 bdbc
00000010: 4f6c f13a 7198 d2bc 5fb1 643c 2b58 1fbc
00000020: 0457 213b 09fa 8cbc 2c86 243c 30ba 053c
00000030: 5d5a 7bbc 22aa bebc 6a9d c9bb f06f ea39
00000040: b2b3 18bc 6c68 2cbc cd47 dbba 6fda 88bb
00000050: 1866 8a3b 26a6 0fba d0ba ff3a e235 d53b
00000060: 04f5 773c d0cc 4abb 1f66 5fbc 7e91 2ebc
00000070: eb65 34bb de1a 6e3c d252 29bc bfcd 7f3c
00000080: 25c7 cbbb ad92 663c 89f0 c73b 75ff 49bb
00000090: 4bf0 95bc bbae 79b9 e71a 58bc fb96 773c
000000a0: 8dc7 973a 215e 803c 0c6a 873c c98a 87bb
000000b0: dd3b 4dbc 2f30 b4bb 91ab 22bc 53e5 c239
000000c0: 8d3a 303c a3f7 403c 1ed9 afbc 7fbf 61bc
000000d0: 017e f4bb e695 323c 8c18 aa3b fce0 c1bc
000000e0: e4ba 3c3c 34d7 a6bc 6b75 e5bc b726 acbb
000000f0: 231c 11bc 791f cdbc 1f73 cfbb 9003 21bd
00000100: 1016 933c 541d b1bc 2476 cd3c 7118 f63b
00000110: ca81 b0bc aaf9 7a37 13a9 c2bb 9d1e 633b
00000120: 99e5 0e3b a16a 98bc 4c31 70bb c0f1 b43b
00000130: 64e6 82bb aa94 883c 5217 1e3c 67c4 d53b
00000140: 92ad 043c 1ab4 343b 346d 743c f6da 5abc
00000150: 4d05 633a 43db 22bb 90e4 ad3b 82b5 073d
00000160: 82f4 e43b 9f26 13bb 452d 0dbd 0dab 42bb
00000170: 520d e3ba 9ef9 4bbc 5e6d a438 8c0a f23a
00000180: 470d 91bb 014c b23c 8895 18bd a7f4 d33c
00000190: 0d3f 9fbc 59dd eabb 1c48 ab3b 6100 85bc
000001a0: 672e f6bb fe45 333d f2d3 b13c ea69 a5b9
000001b0: cf3c d93b bb91 81bc b109 6d3c fe5c 0b3b
000001c0: c02d a33b 8408 333c d4a3 c0bb 222a 0bbd
000001d0: 5d95 46bc 61f8 3bbc d4e9 0ebd 5e25 4a3b
000001e0: c420 90ba f3a2 f1bb b1bb 003b 25bf 853b
000001f0: 7374 ab3c dae6 38bc 1e54 63bc bfc8 f43b
00000200: 6437 7dbb 35e0 bebc 1d86 0ebc b956 bcbb
00000210: d8a7 66bb fb07 18bc 1915 a2bc d573 74bb
00000220: 8bfa 1fbc 538f c33b f008 c93b 29af c7bb
00000230: 481a 2c3a d565 39bc e090 a9bc a611 b73b
00000240: b230 fb3a c3a4 033c 4958 f83c 3bee 8dbc
00000250: 4496 b53b 909f 7dbc 63e9 a43c 286e 3ebc
00000260: 096c e33c 6913 c2bb 4eb0 d9bc 9776 d2bb
00000270: f6b0 f33a 3938 2cbc 2921 e9bb 3240 95bc
00000280: 5ce3 36bb 867f b4bc 7c52 15bc 3b61 80bc
00000290: 8e79 b73b 93da 323b 336c 73bb ec72 543c
000002a0: d53d 9ebc 3f77 4cbc 4950 4cbc 008b 82bc
000002b0: 3d17 d5ba 9356 1539 468b 6dbc 4126 16bc
000002c0: 6f46 813b f05d 1a3d d3ae 9bbc c9ea 40bc
000002d0: 3ca6 16bc 08b7 92bb e393 b2bc 6eb8 c83a
000002e0: 89ce 1ebb f490 48bc 83ac df3c b6ec b8bb
000002f0: a66a ac3c 7bde e23c 9f6e d3bb e903 713b
00000300: 328b 6dbc e3ea 453c f107 6bbc 2106 2cbb
00000310: 2054 3f3c 9ccd 2bbc c5a2 1abc b3af e5bc
00000320: 6b35 2cbc df08 0dbc 0dc8 07bc 4ce5 f8bb
00000330: 77ac a8bc ff08 f0bc 37ad dabc 6f80 e53b
00000340: 9492 fbbb 6853 403b f3d5 0f3c 75d8 353c
00000350: 2b79 98bc fa68 3b3c 03c9 85bc 4181 083c
00000360: fd62 18bc 5413 d4bb 8026 3e3c f5f8 71ba
00000370: 23db 273c f489 8ebc ed56 f9bb 5e45 9ebc
00000380: cc2d 663b 7ec8 2bbc a03a a9bb da42 00bb
00000390: 2c5d aebc 001d f13a db3d d8ba 282b 623b
000003a0: 1334 853b 5d9e ab3c fe18 4e3a a25e 29bc
000003b0: c5bf 2abc 7df1 5e3b 4cf4 e43b 2d59 d43c
000003c0: 46ad 733c 692a 1ebc 8141 863c 11f1 4bbb
000003d0: 1e5f e7bc a4d6 b83b 793e 1bbc 5243 ffbb
000003e0: 12d6 ab39 8371 ce3c 1a7b f13b b05e 7a3c
000003f0: ffb5 723c 2e95 273d 9282 f4bb d5c2 b1bc

bn1.running_mean f4 [256]
-0.10687943 0.043611214 0.30445117 0.17987865 -0.14419173 0.10075896 0.136613 -0.06895643
-0.16315624 0.09908232 -0.06874165 0.099830404 -0.0069715837 0.0046343226 -0.11099681 -0.16829728
-0.09103419 -0.024320208 -0.16833816 0.14568926 -0.066443466 -0.05182147 0.1853579 0.043276154
-0.075005606 -0.023660444 -0.021127306 0.11852719 -0.037849423 0.17282026 0.011702337 0.15998305
-0.07470809 0.19917648 0.031208597 -0.10279597 0.14813994 0.16646928 -0.0966895 0.052321617
0.019142572 0.13612187 -0.10128101 -0.0084769735 -0.17715794 -0.18538445 -0.14464453 -0.20233475
0.008816913 0.15123613 0.03854626 0.022710614 0.11456451 0.15758668 -0.10720666 0.0022502113
0.075134575 -0.02335478 -0.06824458 0.09093677 0.16256721 0.1030936 0.1521304 0.13527602
0.09611063 -0.024572188 0.095710516 0.06002464 -0.065060794 -0.3089409 -0.10305504 -0.06563796
-0.15198283 -0.00501114 -0.11256757 0.15627836 0.29505154 0.11571676 0.1835931 -0.14577049
-0.27564475 0.1765869 0.122941285 0.19362277 -0.17556389 0.020882923 -0.12608425 0.13498715
0.01930003 -0.07200553 -0.064034246 0.01160482 -0.11210094 -0.09309234 -0.15147682 -0.11588079
-0.08913125 -0.17307177 -0.07079818 -0.12349057 0.12945004 0.205895 0.17953527 -0.17017998
-0.017113764 0.08924651 -0.07574102 0.079233535 0.13429162 0.1253857 0.1901389 0.2629723
0.29180184 -0.19279955 0.098194726 -0.03759998 0.081107564 -0.14922586 0.15922146 0.05500046
-0.055397 -0.03316777 0.0052832114 0.09851002 0.13910629 -0.18585221 -0.19748916 -0.25111997
-0.21588977 0.07082957 -0.09864653 -0.006407262 -0.1583022 -0.0775834 -0.14424963 -0.14276853
-0.05397179 0.07315418 0.14071731 0.035530306 -0.14485137 0.09112263 0.18252926 -0.14587063
-0.12755147 -0.21313821 -0.060915507 0.020095445 0.106319435 -0.16277735 -0.04276343 0.045266334
0.1671912 0.17554402 0.08265496 -0.14091894 0.21457653 -0.22622111 0.14870194 -0.051464006
0.11573834 0.04155999 0.04726208 -0.0008091087 0.13014962 0.046668477 0.06066474 0.22931883
-0.07908574 0.07368781 -0.12714413 0.11011534 0.033724595 -0.062042072 -0.0022061977 -0.11752704
0.14112177 0.23401144 -0.09074087 0.12591371 -0.21526334 0.10016193 -0.15573637 -0.065874204
0.06692202 -0.127463 0.19710648 0.06338108 0.03868079 0.11333847 -0.02140285 -0.21085474
-0.15313049 -0.31340143 0.075866945 0.019470192 -0.18443924 -0.16423216 -0.18990622 0.08360772
-0.00576309 -0.042582918 -0.0468953 0.057383195 -0.12320536 -0.0461898 0.12095262 0.1289913
-0.14478686 -0.16926204 -0.17377737 0.22675528 0.033070255 0.11575923 0.12495787 0.10932802
-0.2519003 0.1066279 0.1645971 0.07397467 -0.008014719 0.12699004 -0.19895412 0.0013184946
-0.1876547 0.103892975 0.07897664 0.117776945 0.11420446 -0.10586667 -0.11562601 0.10264871
-0.195997 0.044200283 0.06778731 -0.12884437 0.117708966 0.10608647 0.1748376 0.21788892
-0.044690948 -0.07268321 0.07220406 0.15693249 -0.07418966 0.06848221 -0.09483502 -0.08611022
-0.14216457 -0.070845164 -0.14200601 0.2689191 -0.10917408 0.10305605 0.0994869 -0.14570346
00000000: 9ae3 dabd aca1 323d 06e1 9b3e 1c32 383e
00000010: ffa6 13be b75a ce3d 47e4 0b3e 0739 8dbd
00000020: 6e12 27be aceb ca3d 6cc8 8cbd e273 cc3d
00000030: e271 e4bb 84db 973b 4c52 e3bd 1f56 2cbe
00000040: 2270 babd 2c3b c7bc d760 2cbe 912f 153e
00000050: 8313 88bd c042 54bd 76ce 3d3e 5642 313d
00000060: 8a9c 99bd 8cd3 c1bc 2c13 adbc 62be f23d
00000070: ff07 1bbd cbf7 303e 29bb 3f3c 99d2 233e
00000080: 8e00 99bd ebf4 4b3e 2ca9 ff3c b286 d2bd
00000090: ffb1 173e ec76 2a3e 2505 c6bd 314f 563d
000000a0: e2d0 9c3c 8863 0b3e 6b6c cfbd 01e3 0abc
000000b0: e468 35be 6cd5 3dbe b21d 14be d730 4fbe
000000c0: d074 103c a5dd 1a3e afe2 1d3d 9c0b ba3c
000000d0: cca0 ea3d 675e 213e 2a8f dbbd 4878 133b
000000e0: 28e0 993d 8652 bfbc d0c3 8bbd 0f3d ba3d
000000f0: 0578 263e bd22 d33d 12c8 1b3e cc85 0a3e
00000100: a6d5 c43d 9d4b c9bc e003 c43d 66dc 753d
00000110: 983e 85bd 802d 9ebe 850e d3bd 326d 86bd
00000120: 63a1 1bbe 7d34 a4bb d389 e6bd 6f07 203e
00000130: ff10 973e e9fc ec3d d4ff 3b3e dc44 15be
00000140: 4f21 8dbe 32d3 343e a4c8 fb3d 0c45 463e
00000150: 05c7 33be aa12 ab3c 3b1c 01be 123a 0a3e
00000160: 191b 9e3c a377 93bd 6324 83bd 2522 3e3c
00000170: 2d95 e5bd 32a7 bebd bd1c 1bbe e852 edbd
00000180: 728a b6bd ba39 31be a3fe 90bd a0e8 fcbd
00000190: 8d8e 043e 24d6 523e 18d8 373e a943 2ebe
000001a0: 2a32 8cbc e0c6 b63d 1c1e 9bbd 3145 a23d
000001b0: be83 093e 1c65 003e c6b3 423e 4ea4 863e
000001c0: 0d67 953e 3f6d 45be 511a c93d 7002 1abd
000001d0: b91b a63d aace 18be f30a 233e 2a48 613d
000001e0: f7e7 62bd edda 07bd ca1e ad3b 9fbf c93d
000001f0: e171 0e3e 0b50 3ebe 993a 4abe cc92 80be
00000200: 3512 5dbe 180f 913d 3107 cabd 02f4 d1bb
00000210: f919 22be 0ce4 9ebd 2db6 13be ea31 12be
00000220: 8611 5dbd dcd1 953d 3318 103e 3a88 113d
00000230: eb53 14be 809e ba3d f3e8 3a3e 1c5f 15be
00000240: da9c 02be e740 5abe 8a82 79bd 349f a43c
00000250: 01be d93d 1baf 26be b528 2fbd 3169 393d
00000260: 2c34 2b3e d0c1 333e 0147 a93d 0e4d 10be
00000270: f3b9 5b3e 82a6 67be 5245 183e eccb 52bd
00000280: 3908 ed3d cf3a 2a3d e295 413d 5e1a 54ba
00000290: f145 053e 7227 3f3d 977b 783d 8ed2 6a3e
000002a0: b4f7 a1bd a2e9 963d 1232 02be 2784 e13d
000002b0: cd22 0a3d d41f 7ebd db95 10bb 04b2 f0bd
000002c0: 3a82 103e b2a0 6f3e 59d6 b9bd 86ef 003e
000002d0: fe6d 5cbe b321 cd3d 5b79 1fbe 0ee9 86bd
000002e0: 690e 893d a985 02be 48d6 493e f1cd 813d
000002f0: c06f 1e3d 001e e83d 0855 afbc 4eea 57be
00000300: 3dce 1cbe 2776 a0be 2160 9b3d f47f 9f3c
00000310: a4dd 3cbe 7a2c 28be c776 42be 863a ab3d
00000320: 4ed8 bcbb 6d6b 2ebd 4915 40bd a40a 6b3d
00000330: 1753 fcbd 8431 3dbd 02b6 f73d 4c16 043e
00000340: 0243 14be 0753 2dbe b2f2 31be 8932 683e
00000350: ad74 073d 2d13 ed3d e9e9 ff3d 5ee7 df3d
00000360: 13f9 80be ba5f da3d 248c 283e 0880 973d
00000370: 2b50 03bc ad09 023e a1ba 4bbe 56d1 ac3a
00000380: 8e28 40be d7c5 d43d 81be a13d 0a35 f13d
00000390: 07e4 e93d a0d0 d8bd 54cd ecbd 7d39 d23d
000003a0: 70b3 48be 5b0b 353d 13d4 8a3d c7ef 03be
000003b0: 6611 f13d dd43 d93d a108 333e 461e 5f3e
000003c0: db0d 37bd efda 94bd b9df 933d e9b2 203e
000003d0: c0f0 97bd 6740 8c3d dd38 c2bd 8e5a b0bd
000003e0: 9793 11be 4517 91bd 066a 11be c4af 893e
000003f0: a996 dfbd 0d0f d33d cabf cb3d 4a33 15be

bn1.running_var f4 [256]
0.18715774 0.22129709 0.20586884 0.24063642 0.18563952 0.18675244 0.1688962 0.24658637
0.21252635 0.24894097 0.16948114 0.16250543 0.22275081 0.22498056 0.22303683 0.18619904
0.2154568 0.20865163 0.18223634 0.18855882 0.19681981 0.21090777 0.14817797 0.19304106
0.19787815 0.21458468 0.24976529 0.22433503 0.19208096 0.19357139 0.20601349 0.17449655
0.19115901 0.1913105 0.259089 0.18654844 0.19131312 0.20341805 0.21508458 0.19254844
0.20441814 0.17348273 0.18859328 0.213784 0.18384576 0.18713927 0.17506789 0.16093302
0.1633277 0.15784238 0.2266148 0.20507884 0.2324679 0.19112563 0.17418382 0.18608731
0.20865257 0.18963836 0.23406765 0.23482208 0.2574982 0.21180867 0.15371457 0.20070668
0.1809539 0.22825749 0.18162195 0.16268569 0.21432501 0.20519638 0.17976865 0.18075937
0.18254752 0.20601164 0.22849907 0.21822162 0.21587157 0.17453128 0.1934007 0.19182827
0.18887126 0.2528186 0.18370247 0.22029072 0.24067596 0.21263683 0.20084222 0.17186362
0.23099178 0.21482414 0.24617893 0.19635455 0.2114657 0.21699204 0.19827312 0.18178724
0.1811972 0.1752956 0.23219927 0.14909358 0.19405712 0.17916459 0.15822679 0.24117814
0.23691334 0.18866515 0.18789521 0.19280918 0.17974089 0.20983818 0.122153275 0.18003263
0.21890399 0.18439066 0.18554576 0.23461209 0.19413002 0.19641484 0.2412965 0.17320465
0.2073021 0.22768751 0.21774285 0.16411042 0.1962757 0.22796635 0.2214379 0.16501252
0.20700452 0.19403538 0.23263523 0.2209727 0.20297787 0.22683167 0.21465236 0.23046947
0.22100146 0.22211486 0.15459996 0.2327029 0.18222842 0.22117421 0.21053918 0.25976166
0.15863872 0.19094688 0.18106519 0.18933149 0.22310534 0.16558266 0.18449174 0.22053206
0.2012357 0.16670972 0.18671525 0.22956337 0.18360429 0.21998735 0.16266257 0.24967529
0.19542931 0.24562722 0.20964018 0.18096904 0.19315442 0.238718 0.23401186 0.17203161
0.25846434 0.22364517 0.1914719 0.2378161 0.23893204 0.2240183 0.23567475 0.19448254
0.2270791 0.16191952 0.23966317 0.23561686 0.19825016 0.18800353 0.21549164 0.1986036
0.20970368 0.21072273 0.13534999 0.21254446 0.21177672 0.17554897 0.2151796 0.17874742
0.1801313 0.19283056 0.21469808 0.18967572 0.17486358 0.21543929 0.23248014 0.23670356
0.21961015 0.21458311 0.24479254 0.20660567 0.21144658 0.21265125 0.21467239 0.17341247
0.22353998 0.20395687 0.1796859 0.1855651 0.24579118 0.1889334 0.20640025 0.18246396
0.20510948 0.18650347 0.2120728 0.19544347 0.17210622 0.20353429 0.19748369 0.23566978
0.16156255 0.21401668 0.1976298 0.23226702 0.20621778 0.21725082 0.22080001 0.2078893
0.16412763 0.17690948 0.21981448 0.21969394 0.21685396 0.18359116 0.17931464 0.17895553
0.16391157 0.21377656 0.22718628 0.18948425 0.2138128 0.18892132 0.22813469 0.16257103
0.14745371 0.18647675 0.18431538 0.19700418 0.18636975 0.13905458 0.18150906 0.20609938
00000000: 47a6 3f3e b49b 623e 48cf 523e 6569 763e
00000010: 4918 3e3e 083c 3f3e 20f3 2c3e 2381 7c3e
00000020: 82a0 593e 62ea 7e3e 778c 2d3e d367 263e
00000030: ca18 643e 4e61 663e c463 643e f6aa 3e3e
00000040: b5a0 5c3e c6a8 553e 2a9c 3a3e 9015 413e
00000050: 228b 493e 35f8 573e f7bb 173e 8eac 453e
00000060: 92a0 4a3e 16bc 5b3e 79c2 7f3e 15b8 653e
00000070: dfb0 443e 9437 463e 33f5 523e 39af 323e
00000080: 30bf 433e e6e6 433e 50a7 843e 8e06 3f3e
00000090: 96e7 433e d24c 503e 223f 5c3e 6b2b 453e
000000a0: fd52 513e 75a5 313e 991e 413e 31ea 5a3e
000000b0: 1042 3c3e 70a1 3f3e ff44 333e a0cb 243e
000000c0: 603f 273e 6fa1 213e b60d 683e 3000 523e
000000d0: 110c 6e3e 70b6 433e 3e5d 323e ac8d 3e3e
000000e0: 05a9 553e 8f30 423e 6eaf 6f3e 3375 703e
000000f0: ced6 833e 5fe4 583e 5a67 1d3e 0d86 4d3e
00000100: fb4b 393e 55bc 693e 1bfb 393e 1497 263e
00000110: 0478 5b3e 001f 523e 4615 383e fc18 393e
00000120: bded 3a3e b7f4 523e a9fb 693e 7d75 5f3e
00000130: 700d 5d3e 54b8 323e d50a 463e a16e 443e
00000140: 7867 413e 7171 813e 801c 3c3e e493 613e
00000150: c273 763e 78bd 593e 95a9 4d3e 04fd 2f3e
00000160: 1c89 6c3e dcfa 5b3e 5416 7c3e 2b11 493e
00000170: 778a 583e 2933 5e3e 1c08 4b3e 6f26 3a3e
00000180: c28b 393e b180 333e a5c5 6d3e fdab 183e
00000190: e9b6 463e ec76 373e 3406 223e 67f7 763e
000001a0: 6999 723e 7031 413e 9a67 403e c56f 453e
000001b0: ff0d 383e d2df 563e 7f2b fa3d 795a 383e
000001c0: 5e28 603e e8d0 3c3e b5ff 3d3e 273e 703e
000001d0: 05ca 463e f920 493e 6e16 773e 8f5c 313e
000001e0: 0047 543e ea26 693e fbf7 5e3e 900c 283e
000001f0: 7ffc 483e 0370 693e 9ec0 623e 0bf9 283e
00000200: fef8 533e 36b1 463e ee37 6e3e ab46 623e
00000210: 6ed9 4f3e 9046 683e d4cd 5b3e 3000 6c3e
00000220: 354e 623e 1472 633e 744f 1e3e ab49 6e3e
00000230: 169a 3a3e 7e7b 623e 9597 573e 7bff 843e
00000240: 3072 223e 9487 433e 2769 393e 1de0 413e
00000250: ba75 643e 808e 293e 67eb 3c3e 28d3 613e
00000260: bb10 4e3e f4b5 2a3e 4832 3f3e a912 6b3e
00000270: c302 3c3e 5d44 613e 0491 263e e1aa 7f3e
00000280: 9f1e 483e b485 7b3e eaab 563e f34f 393e
00000290: 46ca 453e 7e72 743e cea0 6f3e 0e29 303e
000002a0: 7055 843e 3d03 653e 3611 443e 1086 733e
000002b0: 9aaa 743e 0e65 653e b954 713e 6e26 473e
000002c0: 6c87 683e 3bce 253e 436a 753e 8c45 713e
000002d0: 1702 4b3e ff83 403e d7a9 5c3e be5e 4b3e
000002e0: 90bc 563e b3c7 573e 3099 0a3e 41a5 593e
000002f0: ffdb 583e 1cc3 333e 0b58 5c3e 9009 373e
00000300: 5774 383e 6075 453e d0d9 5b3e 5a3a 423e
00000310: 700f 333e 1e9c 5c3e 460f 6e3e 6b62 723e
00000320: 7ce1 603e adbb 5b3e e5aa 7a3e 7090 533e
00000330: 7485 583e 40c1 593e 14d3 5b3e 0a93 313e
00000340: aae7 643e 12da 503e 95ff 373e c704 3e3e
00000350: afb0 7b3e c277 413e 965a 533e d5d7 3a3e
00000360: 3808 523e c4fa 3e3e 9d29 593e 5522 483e
00000370: 9d3c 303e 4b6b 503e 2a39 4a3e 6b53 713e
00000380: a770 253e 3027 5b3e 775f 4a3e 68d7 6d3e
00000390: c12a 533e 0077 5e3e 6619 623e efe0 543e
000003a0: 1311 283e c227 353e 0c17 613e 73f7 603e
000003b0: f70e 5e3e 52ff 3b3e 429e 373e 1e40 373e
000003c0: 6fd8 273e 3ee8 5a3e 85a3 683e 2908 423e
000003d0: bef1 5a3e 9774 413e 249c 693e 0579 263e
000003e0: 1bfe 163e c3f3 3e3e 2cbd 3c3e 77bb 493e
000003f0: b6d7 3e3e 5364 0e3e 83dd 393e b70b 533e
