Models/lol_model_best.pth (torch, 655127 bytes, 22 tensors)

champ_embedding.weight f4 [1000, 32]
000000 33 49 03 be 0f ff f5 3f 94 5e 95 3f ab d1 b8 bf
       -0.12820892 1.9218463 1.1669488 -1.4438986
000010 5b 6d 15 3f 28 ef 6c 3e e9 91 b0 3f 79 8a a4 bf
       0.5836999 0.23138106 1.3794528 -1.2854759
000020 65 14 b6 3f c5 fa bc 3d 34 95 a3 3e 04 9b e0 bf
       1.4224974 0.09227518 0.3194977 -1.7547307
000030 5e 5a ad 3f 97 56 b2 3f 57 27 fd bf a0 86 26 3f
       1.3543203 1.3932675 -1.977763 0.6504917
000040 a6 83 d3 bf 99 0d 72 be 3a d6 5d 3f 75 06 8b be
       -1.6524551 -0.23638 0.8665501 -0.27153364
000050 1e 73 d2 bc b2 a5 0e bd 57 24 05 c0 dd a9 8f 3c
       -0.025689658 -0.034825988 -2.080343 0.017537052
000060 cd 3f 0d bf 1a d2 de 3d b0 14 bc bf 1c e3 63 3f
       -0.5517548 0.108799174 -1.4693813 0.89018416
000070 08 a3 45 bf 55 60 ce 3d 2f 7d 0c 3f e3 19 48 3e
       -0.7720189 0.100769676 0.54878515 0.19541125
000080 b4 8e 02 3f 81 85 4f 40 b5 7e 37 3f 7f 34 32 bf
       0.50999 3.2425234 0.71677715 -0.6961135
000090 ab e9 0e 3f c9 f4 68 bf 1d 38 bf 3f 35 25 84 3f
       0.558253 -0.9099851 1.4939 1.0323855
0000a0 44 2a 15 c0 26 08 e8 3f 96 26 6c be 77 83 60 be
       -2.3307047 1.8127487 -0.23061594 -0.2192515
0000b0 70 1d b2 3b 9d d6 86 bd 01 db aa bf ef fe 2f bf
       0.005435638 -0.06583903 -1.3348085 -0.6874837
0000c0 a1 35 85 bf 7e 80 35 bf 02 36 f6 3e d0 2c 87 3f
       -1.0406991 -0.7089919 0.4808808 1.0560551
0000d0 fd 97 56 3f e8 d6 4c bf b5 81 79 3e ce e8 75 bf
       0.83825666 -0.8001542 0.24365886 -0.96058357
0000e0 f8 f8 15 3f 80 12 02 40 03 dc 85 3f 14 41 a2 3f
       0.5858302 2.0323792 1.0457767 1.267611
0000f0 53 75 2f 3f 2f 5f c1 3e 0d e2 84 3f 56 fa 6c be
       0.685384 0.37767932 1.0381485 -0.2314237
000100 77 7b c4 3f 04 7b 5f 3f 89 8a 98 bf 43 49 e0 3f
       1.5350178 0.8729708 -1.1917278 1.7522358
000110 52 26 8e 3f 60 37 51 be 7b fc 34 bf 73 2c b0 bf
       1.1105444 -0.2043128 -0.70697755 -1.3763565
000120 4d b8 18 3e fb 71 8a bf 38 f5 c5 3f e0 b7 c7 3f
       0.14914055 -1.0816034 1.546546 1.5602989
000130 98 cf b9 be 4c f4 e4 be 44 15 97 3e a3 de d6 3e
       -0.36291194 -0.44717634 0.29508412 0.41966733
000140 52 b7 f0 bf 5c 00 9c bf 9d 64 29 3f e0 78 62 3f
       -1.8805945 -1.218761 0.6616915 0.8846569
000150 3b 54 3f 3e 54 7b 1a bf 62 16 42 bc 72 79 a8 be
       0.18684475 -0.60344434 -0.011846157 -0.32905155
000160 09 3c 83 3f 25 65 db 3e 41 04 0e be 93 b7 dd bf
       1.0252696 0.42850605 -0.1386881 -1.7321647
000170 3d 1f 60 bf 7d 73 2c 3f 4e 13 fd bf e4 50 ba bf
       -0.87547666 0.6736372 -1.9771516 -1.4555936
000180 83 e0 4e 3e fc 4f 0a 3f f7 ab 8f bf dc cb 96 3f
       0.20202832 0.54028296 -1.1224355 1.1780963
000190 40 bd 9d be 66 86 89 bf 60 ae c7 bf f9 41 74 3f
       -0.3080845 -1.074414 -1.560009 0.95413166
0001a0 16 de 89 3f 8b bc f7 3e ca 98 5f 3f e9 1f e1 bf
       1.07709 0.48386034 0.8734251 -1.7587863
0001b0 bf 11 d5 3f 29 17 35 3f 42 f1 86 3f 71 0e bf bf
       1.6646041 0.70738465 1.0542376 -1.4926282
0001c0 d5 db e8 be cb 0e a3 3f 62 47 18 3f 0c c0 f9 3e
       -0.4548022 1.273889 0.5948392 0.48779333
0001d0 99 26 ae 3f 8f 54 bd bf 3a bb ab 3f 95 99 3f bf
       1.3605529 -1.479143 1.3416512 -0.7484372
0001e0 04 26 7a 3e 00 73 ac 3e 54 85 0d bf 69 be 1c 3f
       0.24428564 0.33681488 -0.5528157 0.6122804
0001f0 db 80 d5 be 18 94 86 3f a6 34 a9 be cc 2b 76 3f
       -0.4169987 1.0513945 -0.3304798 0.9616058
000200 a1 c0 b0 bf e6 93 2e 3f f8 da 64 bc c6 a4 0a bc
       -1.3808786 0.68194425 -0.013968222 -0.008462137
000210 69 d5 d5 3d 0d 00 27 3e 54 df 7b 3f a8 52 a5 bf
       0.104410954 0.16308613 0.98387647 -1.291585
000220 82 7d cf 3c 0f dd 8c bf 34 7a 12 bf 82 01 1c bf
       0.025328401 -1.1004962 -0.5721772 -0.609398
000230 6e af 34 3e 00 ad 9d 3f 00 4e a6 3e 52 57 bb bf
       0.17645046 1.231842 0.32481384 -1.4636023
000240 6e 03 fa bd 92 97 07 bf 59 35 e0 bf f6 29 ed 3e
       -0.122076854 -0.5296565 -1.751628 0.46321076
000250 16 09 c8 3f 44 78 11 3f 66 4a 31 3f 80 49 eb be
       1.5627773 0.56824136 0.6925415 -0.45954514
000260 09 3c 8a bf 22 1f a8 3f 2b 17 51 3f df bf ba 3f
       -1.0799571 1.3134501 0.81675977 1.4589804
000270 b3 e0 bb 3f f0 0a 1b 3e b4 a6 d7 bf df 5e 39 be
       1.4677948 0.15140891 -1.6847749 -0.18102597
000280 8a 0f 4b 3e 34 f7 84 3e 4b fb af bd 04 d1 95 bf
       0.19830146 0.2596985 -0.08592852 -1.1704412
000290 d6 7e 6d 3f 4d a7 00 40 34 dd e9 3f fb b6 60 3e
       0.9277166 2.0102112 1.8270631 0.21944802
0002a0 52 e3 71 bf 99 2d b9 be bf 74 47 3e 6b 4d 00 bd
       -0.9448749 -0.361676 0.19478129 -0.03132383
0002b0 c8 6c 19 40 de fd 11 bf cd af a6 bf 7b 17 b6 bf
       2.3972645 -0.57027996 -1.30224 -1.4225916
0002c0 51 50 6a bf 69 64 8c bf 1e 4c a9 bf 45 3a 15 40
       -0.91528803 -1.0968143 -1.3226354 2.3316815
0002d0 4b 66 9f 3e ed 3b ad 3f 2a 02 50 bf 0c 35 d0 3e
       0.3113273 1.3533913 -0.812533 0.40665472
0002e0 7b 02 78 be f4 87 88 bf d2 d5 60 bf f1 77 ac 3d
       -0.24219696 -1.066649 -0.87826264 0.084213145
0002f0 95 66 b3 bf 71 1b 3c be 18 a7 dd 3f 50 fb af 3e
       -1.401568 -0.18369843 1.7316618 0.34371424
000300 d6 b4 41 3f f2 e0 aa bf 6a 00 68 3f 51 e1 e1 bd
       0.7566656 -1.3349898 0.9062563 -0.11029304
000310 d6 8d a4 3f 40 51 02 3f 9b 7e ef bd 5c 55 40 3f
       1.2855785 0.5090523 -0.1169407 0.7513025
000320 59 54 a3 bd 82 28 67 bf 8a cf 85 3f 50 b7 de 3e
       -0.079750724 -0.90296185 1.0453961 0.4349923
000330 c5 f8 20 be 91 26 44 be 5c 92 bb 3e 8a 89 e1 3e
       -0.15719898 -0.19155337 0.366351 0.44050246
000340 77 f2 d2 3e e4 0b 66 3e c5 a4 57 bf c4 48 2f 3f
       0.4120061 0.22465473 -0.84235793 0.68470407
000350 09 d3 e0 be 06 b5 3f bd a9 75 a0 bf 2f f1 5e bf
       -0.43911007 -0.046803497 -1.2535907 -0.87086767
000360 52 dc 2e be ac 75 e7 3d c3 79 ce 3e 45 65 f3 bf
       -0.17076233 0.11301741 0.40327272 -1.901528
000370 2c cb c8 be f8 03 1b 3f 95 88 da 3f fe 85 67 bf
       -0.39217508 0.6055293 1.7072932 -0.9043883
000380 e6 44 ff 3e da 06 25 c0 87 72 db 3f d7 cf 5d 3f
       0.49857253 -2.5785432 1.7144326 0.86645263
000390 11 76 07 bf 13 5f de be 71 a6 ae bf 97 d3 64 3f
       -0.5291453 -0.4343191 -1.3644544 0.8938536
0003a0 03 f4 3e bd 95 3e bc 3e 9d 54 82 bf c0 25 26 bf
       -0.046619426 0.36766496 -1.0182072 -0.6490135
0003b0 53 e4 cc be f5 22 26 40 79 0b b5 3d 05 d2 8c 3e
       -0.40017948 2.5958836 0.08840079 0.27503982
0003c0 18 8d 9f bf cc cb 77 be 1c 6f 0e 3f 19 94 4e 40
       -1.2464933 -0.24198836 0.5563829 3.2277892
0003d0 b9 6b 87 bd 78 10 f6 bf 15 f9 d5 3e 6b 42 11 3e
       -0.06612343 -1.9223776 0.41791597 0.14185493
0003e0 75 dc f6 be f0 20 b1 3f 09 33 dc bf 04 da 7e 3f
       -0.4821507 1.3838177 -1.7203075 0.99551415
0003f0 29 9b 53 3f f3 bb b0 be 97 04 07 3f b6 a5 d8 bc
       0.8265863 -0.34518394 0.5274138 -0.026446205

role_embedding.weight f4 [5, 8]
000000 3a 8f 08 be 59 18 90 bf 04 11 55 3e aa ce 4e bf
       -0.13335887 -1.125743 0.20807272 -0.80784094
000010 7f e4 85 bf 86 73 aa 3e 54 e6 14 bf ec dc e3 3d
       -1.0460356 0.33291262 -0.5816395 0.11126122
000020 43 f5 49 3f 3e 20 82 3f 84 21 54 bf 02 48 cc 3f
       0.78889865 1.016609 -0.8286364 1.5959475
000030 e5 72 b6 3f 4a d2 3c bf 37 7e f0 3f ae 3e f4 be
       1.4253813 -0.73758376 1.8788518 -0.4770407
000040 85 c6 db be a7 4c 94 3e dc 2f fb 3c d5 1f b5 bf
       -0.42924896 0.2896473 0.03066247 -1.4150339
000050 07 94 ba bf 6d 11 1b 3e 68 60 f7 be 24 7f d2 3e
       -1.4576424 0.15143366 -0.4831574 0.41112626
000060 34 91 6b bf e5 e2 39 bf 41 99 28 3e 92 de 17 bf
       -0.9201844 -0.7261184 0.16464712 -0.5932399
000070 03 c0 cb 3e 22 96 fa 3e d7 80 56 bf ec 89 ec 3e
       0.3979493 0.48942667 -0.83790344 0.46198976
000080 1f 41 fa bf a4 9f 99 bf 1b 2c f5 3f 01 be 48 bd
       -1.9551123 -1.2001843 1.9154085 -0.049009327
000090 c5 7d 1e be e2 ca 9e be 9d 6d 19 3f b7 5a 3c 3f
       -0.15477665 -0.31014162 0.5993288 0.7357592

fc1.weight f4 [256, 328]
000000 67 db 36 3d 5e 95 8b 3c bb b9 d7 bc ff a6 f0 3c
       0.044642832 0.017038997 -0.02633368 0.029376505
000010 69 5e af bb db f1 40 3d 41 ee ff 3b 44 14 a3 bc
       -0.0053518307 0.04710565 0.0078103845 -0.019907124
000020 c0 18 fb 3c 6f 8a 7b 3b 2c c9 c3 ba d1 41 14 3d
       0.03065145 0.0038382073 -0.0014937273 0.03619558
000030 4b 15 29 bd 56 73 56 3d 6f bf 27 bd 84 9f 0a 3b
       -0.041280072 0.052356087 -0.04095405 0.0021152208
000040 bd 50 69 3c 91 75 25 bc 86 b6 25 3d c4 21 36 3c
       0.014240441 -0.010098831 0.04045727 0.011116449
000050 dc 23 83 3c a0 ad 8d 3c 35 01 3f 3d eb d1 9b 3d
       0.01600831 0.017294705 0.04663201 0.07608398
000060 cb 7c 4e 3d 10 f9 6b 3d 66 ed 2a 3d ae 0f 6b bd
       0.05041198 0.05761057 0.041730307 -0.057388
000070 06 f2 6b bd 21 8b 48 3d cb 30 34 3d 28 7c 8b 3c
       -0.05760386 0.04896081 0.043991845 0.017026976
000080 48 96 33 bd c4 5d 0f 3c 74 04 b9 3c f6 00 8a 3d
       -0.04384449 0.008750383 0.022585131 0.067384645
000090 ab e2 b2 bc 69 6f 1a 3d 1f 77 78 bd 09 66 66 3c
       -0.0218366 0.037703905 -0.060660478 0.014062413
0000a0 0f a7 c1 3c 67 33 93 bc 21 4a 5c 3b a2 82 20 3c
       0.02363923 -0.017968846 0.003361352 0.00979677
0000b0 2b c6 a9 3c 69 fb 8e bc 26 67 01 3c 7e 53 7f 3d
       0.020724377 -0.017453866 0.007898128 0.062335484
0000c0 a7 34 35 bc ae 49 96 3c 64 4b f2 3c 16 da 68 3d
       -0.011059917 0.01834568 0.029576965 0.056848608
0000d0 70 a1 b4 bc 47 00 f0 bc f6 1a 4d bd ad 61 44 39
       -0.022049636 -0.029297007 -0.05007454 0.00018728404
0000e0 d8 a3 8e bd d5 5b f9 3b 34 23 ba 3c 26 27 62 bd
       -0.069648445 0.007609824 0.022721864 -0.055213116
0000f0 8a d0 5b bd 28 5a c2 bc 30 1a 7b 3d 62 20 b1 bc
       -0.053665675 -0.02372463 0.06130427 -0.021621887
000100 54 a3 ce 3b 7f a4 0f bd b3 e5 21 bc 92 e5 9f 3c
       0.0063060913 -0.035068985 -0.009881425 0.019518647
000110 8e 75 05 3d 6b 03 cf 3c 6f a4 00 bd 4d 2b c9 3c
       0.032582812 0.025270185 -0.031406816 0.02455678
000120 5b fa 90 bc b8 c0 80 3a 37 ef 86 bb 94 16 1e bd
       -0.017697504 0.000982306 -0.004117872 -0.03859575
000130 24 79 3f bd 34 e5 0c 3d 3f 22 d8 39 42 e6 49 bd
       -0.046746388 0.034398273 0.00041224246 -0.049291857
000140 ef 3e 63 3c b9 57 7f bc be d1 88 bc 48 fe 7d 3d
       0.013869985 -0.01558488 -0.016701575 0.06201008
000150 63 f4 8f 3c a1 14 bf 3b 99 ca d0 3c d9 fa a2 bb
       0.017572587 0.0058313166 0.025487231 -0.004973751
000160 ac 5c 58 bc 74 3f 54 bd 64 a6 7a bb d6 b9 28 bc
       -0.013205688 -0.051818326 -0.003824615 -0.010298213
000170 91 30 1e bd c9 38 3d 3c a0 6a d0 3c 9e c4 87 3d
       -0.038620535 0.011549183 0.025441468 0.066292986
000180 cf 0c 27 bd bc 17 20 bc 36 fe 26 bb 9e c5 65 bc
       -0.0407837 -0.009771284 -0.0025481111 -0.014024166
000190 e2 5a 44 3d 41 51 cd bc 39 6e 2b bc 14 f4 f8 3c
       0.047938235 -0.025063159 -0.010463291 0.030389823
0001a0 7d fe fc bc d3 f3 13 3d c3 7a 9e 3b 32 c4 78 3c
       -0.030883068 0.0361212 0.0048364117 0.015183495
0001b0 1f f6 2c 3d 7b bb 55 bc 31 d8 00 3d 98 af 42 3d
       0.042226907 -0.013045187 0.031456176 0.04753074
0001c0 2e 8d 5a bb 26 a2 21 bd 02 76 30 3d 5d d9 c7 3c
       -0.003334831 -0.039461277 0.04308129 0.02439564
0001d0 19 18 06 bd d6 3d 89 3d 07 89 40 3d dc aa 8b bd
       -0.032737825 0.067012474 0.04700568 -0.06819698
0001e0 aa 51 29 3b 02 da 27 bd cb ed f8 3c e1 99 2b 3d
       0.002583603 -0.040979393 0.030386826 0.041894797
0001f0 75 a8 d4 3a 00 c7 1e 3d b6 4a ff 3c 17 b0 8a ba
       0.001622452 0.038764 0.031163555 -0.0010581043
000200 ed 68 c0 3b 27 bc 5e 3c 65 c7 58 bc 4d 84 57 bd
       0.005871883 0.013594664 -0.013231133 -0.052616406
000210 4f 04 7b bd b5 90 69 3d 4e bd 19 bd 6d f5 26 3d
       -0.061283406 0.05702277 -0.03753405 0.0407614
000220 31 dd 7b bd 3b eb 17 3d 75 ad 0b 3d be c7 d2 bc
       -0.06149024 0.037089568 0.03410097 -0.02573001
000230 d5 6b 2e 3a be a1 41 3c 92 d5 0d 3d 0a b7 da 39
       0.00066536415 0.0118183475 0.034627505 0.00041716575
000240 d1 1c 1a 3b 37 b4 0a 3d 29 76 c1 bc ce b0 6f 3c
       0.002351571 0.033863273 -0.023615913 0.014629556
000250 6f 29 4c bd 35 ee bc bb 70 cb ba bc 40 4d 82 bc
       -0.0498442 -0.005765701 -0.022802085 -0.015905976
000260 61 83 0d 3d c9 fe 52 3d 41 b2 23 bb 24 cb cd bb
       0.03454912 0.051512513 -0.0024978074 -0.0062803198
000270 c4 44 0d 3c 16 54 b3 3c 0e 0a 1a 3d 99 bb 43 bd
       0.008622352 0.021890681 0.037607245 -0.04778633
000280 61 05 a8 3b 76 b5 3e 3c 29 91 79 bb bc a6 5d bd
       0.0051275943 0.011639943 -0.0038080907 -0.05411409
000290 b6 fd 06 3c 87 f4 d8 bc e0 29 03 bd fb 6e 14 bc
       0.0082392 -0.026483787 -0.032022357 -0.009059663
0002a0 b2 65 93 3c 33 9c 0d 3c 11 fe c1 bc 0f 95 0f 3c
       0.017992828 0.008643198 -0.023680719 0.008763566
0002b0 11 58 07 bd 5e 2d 43 bc 02 32 77 3c 49 4e bd 3c
       -0.03304297 -0.011912672 0.015087606 0.023108618
0002c0 94 fe cc ba b5 e9 35 bd fd fc 8b bc 49 12 a4 bc
       -0.0015639835 -0.044412334 -0.017088408 -0.02002825
0002d0 0a f1 42 3c e2 83 d4 bc 67 59 0d 3d 42 01 b9 bc
       0.0118982885 -0.025941793 0.03450909 -0.022583608
0002e0 af 0c 42 bd 91 df 91 3c b2 71 73 bd 5d 76 1d 3b
       -0.047375377 0.0178068 -0.0594346 0.002402685
0002f0 80 7c 82 ba 64 50 dc 3c 7f 7d 0b bd 84 7c 7e bd
       -0.0009955317 0.026893802 -0.03405523 -0.062130466
000300 07 0d 28 3c ba 6c 31 bc 38 3d 41 3c 01 80 b2 bc
       0.010257012 -0.010829145 0.011794381 -0.021789553
000310 26 27 c0 bb 83 85 a1 bc 74 36 f7 3c 08 01 08 bd
       -0.005864042 -0.019716984 0.030177332 -0.03320411
000320 4c 95 3e bc 61 0e 3e 3d 38 bb 0f 3d b7 6d 5b bd
       -0.011632275 0.04640043 0.035090655 -0.05357143
000330 db 85 0a 3c 9f a4 0b bd f5 b7 bf bb b5 5e 36 3d
       0.008454765 -0.03409254 -0.005850787 0.044523913
000340 0f 7e 5a 3d 2b 47 4c bd 77 49 8c bd fe 9f 73 3d
       0.053342875 -0.04987256 -0.0684995 0.059478752
000350 50 bc 05 bd c3 39 b9 3b aa 9f 0a bd 28 47 23 bd
       -0.032650292 0.0056526377 -0.033843674 -0.03986278
000360 21 06 79 bd f7 34 f7 bc e1 00 3e bd ce 71 ef bc
       -0.06079686 -0.030176623 -0.046387557 -0.029229071
000370 de 48 15 3d da e8 51 3d 61 03 99 3d ee 25 3f 3c
       0.036446445 0.051247455 0.074713476 0.011666758
000380 bd 04 a7 3c 59 cd bf bc 5b 60 54 bb 62 87 1f 3d
       0.020388002 -0.023413347 -0.0032406065 0.03894747
000390 ee 40 34 bd 13 ba fe 3c 04 2a a6 3c 0d b7 7a 3c
       -0.044007234 0.031094586 0.020283706 0.015302432
0003a0 92 71 84 bd 8f ae 10 3d 11 be 71 bc d5 e5 bf 3c
       -0.06466974 0.035322722 -0.014754788 0.023425022
0003b0 30 49 43 3d 66 de a9 3d 1f e7 58 3b c7 4a 81 3b
       0.04767722 0.08294372 0.0033096743 0.0039456817
0003c0 c9 89 33 bd 71 53 96 3c ce d3 94 bc 17 f7 a4 bc
       -0.043832574 0.018350335 -0.018167403 -0.020137353
0003d0 4f 33 81 bd 6c c8 ca bc 21 75 08 3b 37 5e 94 3d
       -0.063086145 -0.024753772 0.0020821767 0.072445326
0003e0 1f 13 d0 3d 2a 2a a3 bc 22 31 f9 bc 36 70 83 bd
       0.10159897 -0.019917566 -0.030418936 -0.06417887
0003f0 ae ec 24 3d f4 0d a1 bd c5 72 1a 3d 8a d1 c2 3c
       0.040264778 -0.078639895 0.03770711 0.023781557

fc1.bias f4 [256]
000000 89 7a 4a 3d df cc 06 3d 2d 5f 4d 3d 10 7a 3c b8
       0.049433265 0.032910224 0.050139595 -4.4936372e-05
000010 01 28 49 bd 1e 7b 91 bb 20 9d d5 3c ef 2d 30 bd
       -0.049110416 -0.0044397255 0.0260759 -0.043012556
000020 45 e7 09 bd f1 be 15 3d c0 33 0b 3d cf 88 a3 3c
       -0.03366782 0.03655905 0.0339849 0.019962696
000030 e5 df 66 3b b2 95 56 3d ff 10 1b 3d e0 ce 5a bc
       0.0035228666 0.052388854 0.037858006 -0.013354987
000040 4d 5b fc 3c 66 07 01 bd 04 3d b3 3a 8c 89 d0 3b
       0.030805254 -0.031501196 0.00136748 0.006364053
000050 a0 50 ba bc 9e 66 3a bd 00 53 26 bd ef c8 08 3d
       -0.022743523 -0.04550802 -0.0406065 0.03339475
000060 21 0c 05 3b 4c ce d2 3c bc 1b 92 bc f5 7b 4d 3c
       0.002030142 0.025733136 -0.01783549 0.012541761
000070 3c a6 0a 3d eb a3 4c 3d 35 bb 4e bd dd 62 20 bc
       0.03384994 0.04996101 -0.050471503 -0.009789196
000080 94 2c e1 bb a0 dd 49 3c f0 59 25 bd 6b 23 12 bd
       -0.006871769 0.012320906 -0.040368974 -0.03567831
000090 de 60 ef bc 2f 4d b2 3c 19 f1 ff 3b 1c 9e 9f bc
       -0.029220995 0.02176532 0.0078107235 -0.019484572
0000a0 fb cd 9a 3c 9f aa eb 3c 0f 35 29 3d dd a3 0f bc
       0.018897047 0.028767882 0.041310366 -0.008767095
0000b0 53 2b 34 bd 83 5e 48 3d ae a3 97 3c ef a0 4b 3c
       -0.04398663 0.04891826 0.018510666 0.012428506
0000c0 d9 cc 49 3d 0a a7 1a 3d 50 e0 e9 3b 6d 20 3b 3d
       0.049267624 0.037756957 0.007137336 0.04568522
0000d0 4d e8 2c 3d 01 b0 14 bd da 36 b2 bb c3 58 9b 3a
       0.042213727 -0.036300663 -0.0054386677 0.0011852015
0000e0 a1 19 f5 3c 3a 1e f0 3b 89 bd 28 bd 77 63 95 bc
       0.029919447 0.007327822 -0.04119638 -0.018235905
0000f0 ea af 54 3c b1 df 12 3d 2e 6a 96 3b ed 6e 2b bd
       0.012981394 0.03585786 0.0045902943 -0.041853834
000100 8b 0d a5 3c f4 f5 60 bd 9e 91 2c bd 29 5b 3b 3c
       0.02014806 -0.05492206 -0.04213106 0.0114353085
000110 03 3e 3d 3d af 3f 95 3c 79 4d 5c 3d 94 5b 8a bc
       0.046201717 0.018218843 0.05378482 -0.016889371
000120 ef 0f 4f 3c 9a 66 77 bb 72 7d 49 bd 50 62 16 bd
       0.012638076 -0.0037750364 -0.0491919 -0.03671485
000130 74 af 05 3d 7b 62 84 3c 82 8f ec bb b9 ee 0f 3d
       0.03263803 0.01616024 -0.007219256 0.035139773
000140 d7 23 e0 bc d4 88 c2 bc 0d 08 1a bd ab 5d 04 bd
       -0.02736084 -0.023746885 -0.037605334 -0.03231589
000150 1a a8 1c bd b8 f1 3c 3d 51 0d 0c bd e2 5b ec bc
       -0.03824625 0.04612896 -0.034192387 -0.028852407
000160 75 40 5c bc ee 92 c5 bc 3d 0a 4f bd 51 b2 2b 3d
       -0.013443102 -0.024117913 -0.050546873 0.041918103
000170 e6 61 ae bc a0 10 14 3d 83 94 38 bc 69 df 18 39
       -0.021286916 0.036148667 -0.011265877 0.00014579076
000180 1e 55 d1 bc fb 4e b4 3b ac ca e6 ba e4 16 fa bb
       -0.025553282 0.0055025793 -0.0017608008 -0.0076321233
000190 2d d0 aa 3c 26 0c c5 bc 95 86 5f 3d 23 43 51 3d
       0.02085122 -0.024053644 0.054571707 0.051089417
0001a0 da 2d 70 3c 1d 81 00 bd 83 a3 50 bc 74 ab 29 3c
       0.014659369 -0.031373132 -0.012734297 0.010355819
0001b0 37 75 38 3d 46 29 d1 3c fc 21 cc bb a3 5f 86 bc
       0.04503366 0.025532376 -0.006229637 -0.016403025
0001c0 04 d5 47 bd 92 3b 49 3c 29 0d d7 bb e2 d4 14 bc
       -0.048787132 0.012282269 -0.006562848 -0.009083958
0001d0 7d 66 05 bd 81 2a 36 ba 88 62 f9 bc 79 9d 36 bd
       -0.032568444 -0.00069490826 -0.030442491 -0.04458377
0001e0 7d d8 a6 3c 67 73 bf 3c 1f 72 89 3c 33 65 8b 3c
       0.020366902 0.023370458 0.01677805 0.017016029
0001f0 be 9b 43 3d 7b 49 30 3c 8c 18 8a 3c 73 6a 96 bc
       0.04775595 0.010759707 0.016857408 -0.018361306
000200 14 93 2b 3c c6 76 e0 3c 7c aa 43 bd 59 e5 e3 bc
       0.010472078 0.027400386 -0.04777001 -0.027819322
000210 7e 98 e6 3c 5d 82 43 3d 07 97 1b bc 8e df f2 3c
       0.028148886 0.047731746 -0.009496457 0.029647615
000220 be 0d ff 3c e9 39 fb bc 0d 1c 29 3d 74 1c 2f 3c
       0.031134482 -0.030667262 0.041286517 0.010687936
000230 60 0b 35 bd d2 39 0e 3d 53 72 55 bd 5f 1d ff bc
       -0.0442003 0.03472311 -0.05211098 -0.031141935
000240 61 9f 54 bd d7 9b 27 3d 85 3c 73 3b 9b 16 71 bc
       -0.051909808 0.040920105 0.003711493 -0.014714862
000250 3c 95 43 bd 92 25 f8 bc 86 e4 ca 3c 45 a4 5c bc
       -0.047749743 -0.030291352 0.024767172 -0.013466899
000260 12 13 fc bc 55 39 4d bd f6 6a 4a bd 9e db e1 3c
       -0.030770812 -0.050103504 -0.049418412 0.027570542
000270 e9 33 26 3d 47 87 91 bc c4 e3 3a 3c 78 c6 ec 3b
       0.04057685 -0.0177647 0.011406843 0.0072258078
000280 ae ce 59 3d 9a 96 c8 bc 17 27 4f 3d 58 92 3e ba
       0.05317562 -0.024485875 0.05057439 -0.0007269732
000290 f8 ef 1c 3d 6e ee f8 3b ab 18 ae 3c 96 8f aa bc
       0.03831479 0.0075967824 0.021251997 -0.02082042
0002a0 44 de 3d 3d 73 5a 07 bd 2f 46 8e bc cc 7c 0c 3d
       0.046354547 -0.033045243 -0.01736745 0.034298703
0002b0 a7 5c 0d 3d 58 f5 18 bc a4 4b 59 bd 44 b0 7d 3c
       0.03451219 -0.009335838 -0.053050652 0.0154839195
0002c0 36 ed b9 3c 61 e5 a1 3c 91 0a 32 bd ce d1 82 3c
       0.022696119 0.019762697 -0.04346711 0.015969183
0002d0 84 e3 be 3b c9 f8 22 3d e0 93 1a bc 04 1d 47 bd
       0.005825462 0.03978804 -0.00943467 -0.048611656
0002e0 2c b1 2e 3d 40 e5 46 bc 23 6a 08 3d f2 e5 46 3d
       0.042649433 -0.012139618 0.033304345 0.048559137
0002f0 85 6e f4 bc 0c a4 3c 3d d8 0f a0 3c fa f3 d8 bc
       -0.029837856 0.046054885 0.019538805 -0.026483525
000300 20 dd a4 bc f1 32 95 bc 93 63 fe bb 18 e5 21 3d
       -0.020124972 -0.018212767 -0.007763335 0.03952512
000310 53 ae 39 bc 32 90 d0 bc aa 44 a0 3c 77 cf 80 3c
       -0.011333066 -0.025459383 0.019563992 0.015723927
000320 72 d4 da 3c 25 de 97 bc 76 a4 b9 3c 98 a2 7f 3a
       0.02671263 -0.018538544 0.022661429 0.00097517064
000330 d7 e3 04 3d 35 43 e3 bc 91 27 e0 bc 32 b4 2a 3d
       0.032443848 -0.027742008 -0.027362617 0.041675754
000340 af d8 d7 3c bd 75 15 bd 6e 75 b2 bc f8 dc 45 bd
       0.02634844 -0.036489237 -0.02178451 -0.048306435
000350 74 b5 61 bd 81 6e 1f 3d 03 88 6a bc 40 19 6c 3c
       -0.055104688 0.038923744 -0.014314654 0.014410317
000360 98 ff e1 3c 8f 5a 21 bd 28 3a 17 3d e3 3b 27 3b
       0.027587697 -0.039393004 0.036920696 0.0025517873
000370 d2 90 0b bd c6 10 65 3c d2 2d 34 bd 5a 01 4b bd
       -0.03407366 0.01398105 -0.04398901 -0.049561836
000380 36 88 a6 bc 16 1f 92 bc 8d ae 74 bc d3 44 61 3d
       -0.020328622 -0.017837089 -0.014934194 0.054997277
000390 77 02 57 bb 03 dc a3 3b 2b 60 18 3d e6 67 83 bc
       -0.0032807866 0.0050005927 0.037201088 -0.016040754
0003a0 4b 93 21 3b bb 93 96 bc fe 72 ce bc 59 92 8f bc
       0.0024654444 -0.01838099 -0.025201317 -0.017525839
0003b0 70 6b 4a 3d 4b 83 5f 3c a6 05 4d 3d 4a ec 51 3d
       0.049418867 0.0136421425 0.050054215 0.051250733
0003c0 94 89 4c 3d dd e2 11 bd b0 b6 8c 3b f8 8b d5 3c
       0.049935892 -0.035616744 0.004294239 0.026067719
0003d0 c9 bc e6 3c c5 b4 1a bd 1a 4d 02 3d b8 58 c7 bc
       0.028166192 -0.03777005 0.03181181 -0.024334297
0003e0 a3 81 09 bd 51 03 d0 bc 9f 1c ef bc a4 c5 03 bd
       -0.033570897 -0.025392206 -0.029188452 -0.032170907
0003f0 78 41 3e 3d af e0 28 3d 7b 4d 6e 3c 73 50 69 3b
       0.046449155 0.0412299 0.01454484 0.003560093

bn1.weight f4 [256]
000000 55 69 7f 3f 4c d2 78 3f d1 bd 7a 3f 3f f0 7f 3f
       0.997701 0.9719589 0.97945887 0.9997596
000010 34 e6 81 3f 46 9f 80 3f 13 ca 78 3f 79 d5 82 3f
       1.0148377 1.0048606 0.9718334 1.0221397
000020 c6 f8 80 3f 34 31 7d 3f 4b 6b 7e 3f 62 64 81 3f
       1.007592 0.98903203 0.99382466 1.0108759
000030 f2 7c 80 3f 65 8b 77 3f 34 7e 74 3f 59 f5 7c 3f
       1.003813 0.96697074 0.9550507 0.9881187
000040 a7 fa 77 3f 73 82 81 3f e5 99 7f 3f ce 46 80 3f
       0.9686684 1.0117935 0.998442 1.0021608
000050 30 5e 87 3f fe ec 7e 3f b5 58 83 3f cf 28 6d 3f
       1.0575619 0.9958037 1.0261446 0.92640394
000060 14 05 7d 3f 00 a4 7f 3f 78 96 88 3f 59 8c 82 3f
       0.98835874 0.9985962 1.067092 1.0199081
000070 e4 d2 75 3f 6f 82 82 3f cc 6a 6f 3f 7e a4 7f 3f
       0.9602492 1.0196055 0.93522334 0.9986037
000080 3c 72 7d 3f 08 08 7c 3f 0f 14 7b 3f c2 d9 71 3f
       0.9900243 0.98449755 0.9807748 0.944729
000090 99 d8 7d 3f 2d e1 7b 3f 24 05 82 3f 95 46 84 3f
       0.99158627 0.98390466 1.0157819 1.033404
0000a0 ac 2a 84 3f 0f 2f 80 3f 68 85 89 3f a7 8a 81 3f
       1.0325522 1.0014361 1.0743837 1.0120438
0000b0 4d 4d 7b 3f 6e f8 81 3f d6 8e 8a 3f 20 cf 7e 3f
       0.98164827 1.015394 1.082484 0.995348
0000c0 30 bf 87 3f 64 92 87 3f e0 4a 81 3f a6 c4 83 3f
       1.0605221 1.059155 1.0100975 1.0294387
0000d0 a8 89 84 3f db 01 82 3f 41 7a 75 3f bf 1c 80 3f
       1.0354509 1.0156816 0.9588967 1.0008773
0000e0 ab 4e 84 3f eb fa 7e 3f 1b 59 81 3f 08 9a 78 3f
       1.0336508 0.9960162 1.0105318 0.97110033
0000f0 e5 c5 73 3f 49 cb 81 3f 80 4b 81 3f 21 b5 86 3f
       0.9522384 1.0140163 1.0101166 1.0524026
000100 f2 57 80 3f aa 2c 80 3f c3 07 80 3f 02 f5 84 3f
       1.0026839 1.001363 1.0002369 1.038727
000110 3f d2 77 3f b1 fa 7f 3f e5 cf 81 3f 1c 23 7d 3f
       0.96805185 0.999919 1.0141569 0.988817
000120 2f d6 82 3f 63 4c 77 3f 96 50 81 3f c7 97 77 3f
       1.0221614 0.9660093 1.0102718 0.9671597
000130 b6 65 76 3f dd dc 82 3f 83 54 7d 3f fb f7 80 3f
       0.9624895 1.0223652 0.9895708 1.0075678
000140 ed 56 89 3f 98 6a 75 3f 2f 67 81 3f 9c 52 88 3f
       1.0729653 0.95865774 1.0109614 1.065021
000150 42 00 76 3f fe 02 76 3f 43 81 7a 3f ec 20 83 3f
       0.96094143 0.96098316 0.9785349 1.0244422
000160 22 80 7b 3f d0 55 7d 3f 85 9a 83 3f e3 a4 7b 3f
       0.9824239 0.98959064 1.0281531 0.9829847
000170 98 6f 86 3f d1 db 79 3f 70 4f 81 3f 2b d6 81 3f
       1.0502806 0.9760104 1.0102367 1.0143484
000180 56 7c 81 3f 7a c5 83 3f 16 db 79 3f cb 28 75 3f
       1.0116069 1.029464 0.97599924 0.9576537
000190 da 4b 7b 3f 8a 42 76 3f 29 8e 86 3f 32 55 81 3f
       0.98162615 0.9619528 1.0512134 1.0104125
0001a0 cd f4 76 3f b3 d0 6e 3f 1c fb 7b 3f c6 93 78 3f
       0.96467286 0.932872 0.9843004 0.97100484
0001b0 78 47 85 3f 81 0f 79 3f b9 14 85 3f 95 19 81 3f
       1.0412436 0.9728928 1.0396949 1.0085932
0001c0 86 01 86 3f 37 ae 84 3f 2c e6 80 3f 81 f4 78 3f
       1.0469215 1.0365666 1.0070243 0.97248083
0001d0 86 09 76 3f 1d 54 76 3f 68 68 81 3f 47 64 7a 3f
       0.9610828 0.96222097 1.0109987 0.9780926
0001e0 93 a6 7c 3f 9d 8e 7a 3f 83 eb 79 3f 22 c1 80 3f
       0.9869167 0.9787386 0.9762499 1.005894
0001f0 b0 6b 73 3f 3f 03 80 3f 01 ca 82 3f 74 71 80 3f
       0.95086193 1.0000991 1.0217897 1.0034623
000200 b9 1f 82 3f 8e 83 7f 3f 26 55 7f 3f 54 53 85 3f
       1.0165931 0.9981011 0.997393 1.0416055
000210 3c ac 7e 3f cf 8c 80 3f d4 5c 86 3f 35 04 81 3f
       0.9948156 1.0042971 1.0497079 1.0079409
000220 de 21 7f 3f 19 a4 7f 3f 3e 9d 80 3f b3 56 85 3f
       0.9966105 0.9985977 1.0047987 1.0417084
000230 56 9a 83 3f e4 37 83 3f e3 79 81 3f b8 87 79 3f
       1.0281475 1.0251431 1.0115322 0.97472715
000240 70 51 7e 3f 22 d3 78 3f ea 39 7b 3f a4 7d 80 3f
       0.99343014 0.97197163 0.98135245 1.0038342
000250 8c 45 87 3f 6b b8 87 3f 42 08 84 3f 79 a1 7e 3f
       1.0568099 1.0603155 1.031502 0.9946514
000260 d9 00 83 3f ab 05 75 3f 99 97 78 3f b4 92 83 3f
       1.0234634 0.95711774 0.9710632 1.0279145
000270 5a 28 86 3f 61 cf 77 3f cc 74 87 3f 37 a5 7d 3f
       1.0481064 0.9680081 1.0582519 0.9908022
000280 bc c7 7d 3f a3 5d 80 3f 8c 11 80 3f 2b 2c 86 3f
       0.99132895 1.0028576 1.0005355 1.0482229
000290 f5 fe 76 3f 16 5a 82 3f f7 44 7b 3f f1 54 6e 3f
       0.96482784 1.0183742 0.98152107 0.9309836
0002a0 2c c0 7c 3f 1b 97 81 3f 16 21 75 3f 49 0f 81 3f
       0.9873073 1.0124239 0.9575361 1.008279
0002b0 da 6c 7f 3f ce da 6f 3f af cb 80 3f c4 0c 79 3f
       0.9977547 0.93693244 1.0062159 0.97285104
0002c0 b5 0d 79 3f ce f7 7a 3f ea 6d 89 3f 79 b4 7b 3f
       0.9728654 0.9803437 1.0736668 0.98322254
0002d0 77 91 83 3f a5 6a 84 3f 76 b9 80 3f e6 56 77 3f
       1.0278767 1.0345045 1.0056598 0.9661697
0002e0 84 5d 85 3f 77 45 76 3f 0b e7 7c 3f 30 04 83 3f
       1.0419164 0.96199745 0.98790044 1.0235653
0002f0 a2 02 88 3f 99 db 81 3f 86 42 80 3f 1d c5 7e 3f
       1.0625803 1.0145141 1.0020301 0.9951952
000300 7c 9d 74 3f c5 9b 87 3f c4 c6 73 3f 95 38 7c 3f
       0.955528 1.0594412 0.9522517 0.9852384
000310 97 0a 79 3f c4 b0 7e 3f 3e 38 83 3f bb 3c 79 3f
       0.97281784 0.9948847 1.0251539 0.9735829
000320 71 4d 7a 3f b9 4f 83 3f bc 8a 78 3f 3f 45 7f 3f
       0.97774416 1.0258704 0.9708669 0.99715036
000330 0d e4 76 3f 6d eb 80 3f c8 15 7e 3f 34 f3 82 3f
       0.9644173 1.0071846 0.99251986 1.023047
000340 5e 1a 7e 3f b5 b2 80 3f 5e a3 7f 3f e3 0b 85 3f
       0.99258983 1.0054537 0.99858654 1.0394253
000350 e1 d6 75 3f f6 47 7f 3f fb ec 77 3f 5c eb 7d 3f
       0.96031004 0.9971918 0.9684598 0.99187255
000360 c9 9d 79 3f 26 12 7b 3f ad c6 80 3f fa af 81 3f
       0.97506386 0.9807457 1.0060631 1.0131829
000370 2f a2 76 3f 76 53 7e 3f fc 3e 76 3f c2 60 75 3f
       0.9634122 0.993461 0.96189857 0.95850766
000380 35 8e 82 3f 82 19 79 3f 30 87 83 3f 8a 05 7f 3f
       1.0199648 0.97304547 1.0275631 0.99617827
000390 b3 d1 80 3f 80 19 84 3f cf 09 7e 3f 32 55 75 3f
       1.0063995 1.0320282 0.99233717 0.9583312
0003a0 d6 ca 7c 3f 6a 29 81 3f 51 27 71 3f f4 6f 7e 3f
       0.98747003 1.0090764 0.9420062 0.99389577
0003b0 f9 d3 7a 3f 90 b4 75 3f 93 ff 7a 3f 8a 6f 79 3f
       0.97979695 0.9597864 0.98046225 0.9743582
0003c0 e2 78 81 3f 53 5f 7a 3f 9f 75 81 3f ec 8c 81 3f
       1.0115016 0.97801703 1.011402 1.0121131
0003d0 7a a3 7f 3f 1d b2 7c 3f 5e c3 83 3f 74 2c 80 3f
       0.9985882 0.9870928 1.0293996 1.0013566
0003e0 3a 36 7c 3f 71 ac 83 3f 18 74 87 3f 51 74 80 3f
       0.98520243 1.0287 1.0582304 1.0035497
0003f0 ae 40 73 3f 67 a2 86 3f a3 40 7b 3f e8 06 73 3f
       0.9502057 1.0518311 0.981455 0.94932413

bn1.bias f4 [256]
000000 e9 e9 e9 bc 28 41 8a bd ac 13 a0 bc be e7 d2 bc
       -0.02855392 -0.06750709 -0.01954063 -0.025745269
000010 5b 9f 1f bc db a7 1a bd aa 93 53 b9 d6 15 17 3d
       -0.009742583 -0.037757736 -0.00020177537 0.03688606
000020 e6 a8 b5 bc 64 31 c8 bc 66 59 2a bd cd 1e 09 3a
       -0.022175264 -0.024437614 -0.041589163 0.0005230725
000030 06 19 08 bc ba 65 21 bd c8 4c 97 bd 8b 09 75 3b
       -0.008306747 -0.039403655 -0.07387692 0.0037389721
000040 9e bd c5 bb 97 c6 19 3b 0f 23 59 bc 85 14 9d bc
       -0.006034567 0.0023464316 -0.0132529875 -0.019174824
000050 1d 5f a8 3b 2c 65 55 3c 86 c4 8d 3c 9c b3 83 bd
       0.0051382915 0.01302461 0.017305624 -0.06430742
000060 d6 73 07 bd 2d 43 a9 bc 53 69 b0 3d 23 e5 d4 3c
       -0.033069454 -0.020661915 0.08613839 0.025988167
000070 40 e9 c6 bc 50 b5 14 bb ad e0 2e bc 9c 6e 60 bb
       -0.024281144 -0.0022691078 -0.010673684 -0.0034245616
000080 bc 23 29 3c 91 c5 80 bc 1b e7 03 bd 75 0b ca bc
       0.010323461 -0.015719207 -0.03220282 -0.024663666
000090 28 15 cf bc af c9 d0 bc d4 56 0d 3d 96 c5 12 bc
       -0.025278643 -0.025486795 0.034506634 -0.008958241
0000a0 18 69 0c bd c5 ff 3a ba bf 96 d2 3c cc 7a 89 bb
       -0.034279913 -0.00071334495 0.025706647 -0.0041955467
0000b0 b0 b1 db 3b c6 b3 2b 3c 1f 6c 0f 3d 1e 02 d9 bb
       0.0067045316 0.010479873 0.03501522 -0.006622567
0000c0 4b 9e 37 3d b9 53 87 3d 4c a6 96 ba fc f9 00 3d
       0.044828694 0.06607766 -0.0011493652 0.031488404
0000d0 b1 c3 35 3c 65 7d cb bc b2 8e 41 bd 71 5d 68 3d
       0.01109402 -0.024840066 -0.047255225 0.056729738
0000e0 62 2e 27 3d 07 56 a5 3c 65 d6 66 3c 43 ee 6d bd
       0.04081572 0.020182623 0.014089202 -0.058088552
0000f0 be 33 2f bd e5 d5 77 bc 4e 82 a4 bc 91 8f ad 3c
       -0.042773955 -0.01512668 -0.020081665 0.021186622
000100 42 7b 63 3d 14 1a c7 bc 2b c1 8b bc f3 2a 2d bc
       0.05553747 -0.024304427 -0.017059883 -0.010569322
000110 5f 6d 43 bd d1 82 e8 bc 92 ac 04 3d cc 4f ef bc
       -0.047711726 -0.02838269 0.03239114 -0.029212855
000120 2a 71 c9 3c 2b c3 2b bd 5c 26 bd 3c 59 b1 69 bd
       0.024590094 -0.041934174 0.02308958 -0.057053898
000130 a4 75 47 bd ac 34 15 bc 52 ed b0 bc 2b 17 7a 3a
       -0.048696175 -0.009106796 -0.021597538 0.00095401955
000140 3f 48 f0 3c 5f 16 29 bd 14 78 f0 3a df 8e 0a 3d
       0.029331325 -0.0412811 0.0018346333 0.03382766
000150 6e 94 42 bd c7 02 57 bc 57 4f ce bb 43 55 85 3c
       -0.047504835 -0.013123221 -0.006296079 0.016276008
000160 77 2e 0f ba 4e 0c 3d bd 85 92 27 3c 71 02 89 bb
       -0.0005461941 -0.046154313 0.010227804 -0.0041811992
000170 b0 45 6c 3c c7 f2 73 bc 9b ac 05 3b 44 0a 14 3d
       0.014420912 -0.014889426 0.002039707 0.036142603
000180 62 2a 76 3c ca 81 00 bd e0 67 25 bd 46 48 a0 bc
       0.015024753 -0.031373776 -0.040382266 -0.019565713
000190 2f 85 16 bd 02 fa 9d bc 24 4c 6c 3b 99 b3 9c bb
       -0.036748108 -0.019284252 0.0036056126 -0.004782152
0001a0 62 32 45 3b 07 f8 87 bd d6 3c 60 bb 75 ed 54 3b
       0.0030089845 -0.06639104 -0.0034215949 0.0032490168
0001b0 c8 3a bc bc b3 91 4a ba c1 a5 fb 3c 0d 2d 87 bc
       -0.022977248 -0.00077273994 0.030718686 -0.016500974
0001c0 ad 84 bb 3c fc 1f 68 3d dc 5c 35 bc ce 55 9d bc
       0.022890413 0.056671128 -0.011069503 -0.019205954
0001d0 39 61 24 bc 04 76 f5 bc f2 6f da bc 17 0f e6 bc
       -0.010032945 -0.0299635 -0.026664708 -0.028083367
0001e0 c8 7a 0d bd 26 0d 03 bd aa 5e a5 bc b7 b5 30 bc
       -0.03454092 -0.03199496 -0.02018674 -0.010785512
0001f0 7a 26 35 bd 08 46 44 3c fd ee a3 bb db 02 80 bd
       -0.044226147 0.011979587 -0.005002855 -0.06250545
000200 6d ce db 3c b4 f0 da bc 66 5c c4 ba 8a 71 a0 bc
       0.02683183 -0.026726104 -0.001498115 -0.01958539
000210 b2 78 27 3c 75 f1 67 3b ff 3f 81 bc 88 a0 02 3d
       0.010221647 0.0035391722 -0.015777586 0.031891376
000220 c1 9e 46 bb fd 21 8d 3a 2d 0e 9e 3c 2e 5a 39 3d
       -0.0030307027 0.0010767576 0.019293869 0.045252018
000230 eb 0b 4b bb 9a f6 ae 3c b2 59 28 bd 80 04 0e bc
       -0.0030982445 0.021357823 -0.041101165 -0.008668065
000240 8f 24 8d bc f1 7a 35 bc a0 64 6b 3b ac 78 23 3b
       -0.017229347 -0.011076675 0.0035918131 0.0024943752
000250 98 1a 39 bc d7 b7 73 3d 72 ae c3 3c 4e 65 59 3c
       -0.011297844 0.059501495 0.023886893 0.013268782
000260 d3 a6 d8 3c 8c 54 79 bd f1 15 d8 bc 82 6d 92 bc
       0.026446735 -0.060871646 -0.02637765 -0.017874483
000270 ec 2d a5 bc 3f 10 61 bc b6 59 fe 3b a4 7c 81 bc
       -0.020163499 -0.0137367835 0.007762159 -0.015806504
000280 e2 b8 59 bb e3 d8 56 3b f2 9c b4 3c 4d 40 05 3d
       -0.003322177 0.0032783083 0.022047494 0.032532025
000290 1f 44 52 bd 45 f0 a0 3b 9c 73 43 bd c3 05 82 bd
       -0.051334497 0.004911455 -0.047717676 -0.06348755
0002a0 b1 82 40 bc 47 6c 87 3a 68 ea 33 bd 33 cb 34 bd
       -0.011749909 0.0010331952 -0.04392472 -0.0441391
0002b0 a6 93 ae 3b c9 7e f7 bc 27 88 05 3c b5 c5 c1 bb
       0.0053276597 -0.030211823 0.008150137 -0.005913461
0002c0 b6 75 00 bd d9 81 84 3c ec 2b 04 3d 2f 72 57 3c
       -0.031362258 0.016175197 0.03226845 0.013149782
0002d0 55 28 17 3d e9 8d 02 bc 45 42 d5 3a 09 e7 a5 bd
       0.036903698 -0.007968404 0.001627036 -0.08100707
0002e0 6d a3 91 3d 64 2d 01 bd 9c 99 09 bc 62 ae 50 bc
       0.07111249 -0.03153743 -0.00839844 -0.012736889
0002f0 3a 76 8b 3b ce b6 d5 bc 75 de 68 3c bf 4e b1 3c
       0.004256037 -0.026088145 0.014213194 0.021643994
000300 32 06 79 bc b8 98 b3 3c 7d 00 02 bd 7d 92 e5 bc
       -0.015199231 0.021923408 -0.031738747 -0.028023953
000310 38 c1 bc bc d3 75 36 bc c2 42 46 3c a0 c7 96 bb
       -0.023041353 -0.01113649 0.012100877 -0.004601434
000320 f1 09 c7 bc cc 06 03 3d 31 f2 a6 bc a0 8b 62 bc
       -0.024296733 0.031988904 -0.020379158 -0.0138272345
000330 86 d3 32 3c 87 c1 85 bd 7e a7 7e bb 5d 4e 24 3d
       0.010914689 -0.06531053 -0.0038857157 0.040113796
000340 59 96 bb 3c c1 c4 00 bd 36 1d 72 3c b6 2f 61 3d
       0.02289884 -0.03143764 0.014777472 0.05497714
000350 ff 7b 2d bd ce c5 a3 bb f7 3d a1 bc d1 be 04 bd
       -0.04235458 -0.0049979454 -0.019682867 -0.03240854
000360 02 17 29 bd 5a 8d 02 bd 36 45 9d bc 89 cb ac 3c
       -0.041281708 -0.031873085 -0.019198041 0.021093147
000370 02 cb 1c bd a0 a9 2f bc a8 a1 a1 bd 71 c6 d1 bb
       -0.03827954 -0.010721594 -0.078921616 -0.00640183
000380 e4 d3 47 bc c9 76 ac bd ee d9 24 bb ed 3c 1b bd
       -0.012196515 -0.08421094 -0.002515431 -0.0378999
000390 44 de c8 bc 5e df a2 bc 11 99 18 bd 46 68 44 bd
       -0.024520047 -0.0198819 -0.03725535 -0.047951005
0003a0 e6 0b 85 bc a3 6c a9 3c e0 aa 56 bd e6 7e 1a bd
       -0.016241025 0.020681685 -0.052409053 -0.037718676
0003b0 14 82 02 bc 6f 54 1b bd 4c d1 b2 bc c1 69 12 bb
       -0.007965583 -0.03792232 -0.021828316 -0.0022340866
0003c0 d5 71 00 3d 1e 8f 70 bc ec eb 09 bc 48 f6 8b 3c
       0.03135856 -0.014682559 -0.008418065 0.01708521
0003d0 77 d0 c4 bb ca 05 77 3b b3 84 c1 3c 6f 25 19 bd
       -0.0060062963 0.003769266 0.023622846 -0.037389215
0003e0 b6 65 07 bd 64 97 69 ba af 79 9f 3c d4 20 87 bc
       -0.033055983 -0.00089108036 0.019467203 -0.016495146
0003f0 59 ec d7 bb 08 9d 56 3b bc 9e 21 bc 9e fb 3c bd
       -0.006589454 0.0032747407 -0.009864505 -0.0461384

bn1.running_mean f4 [256]
000000 de 87 7b bd ad 68 9d 3d 31 a9 06 bd ca e3 fe 3d
       -0.06140887 0.07685981 -0.032876197 0.12445791
000010 e7 04 32 be 63 09 2e 3e e1 1c 9f 3c 6c 3a 4d be
       -0.17384683 0.16995768 0.01942295 -0.20041817
000020 19 d9 78 be 36 ab c0 3d 2a 69 6d 3d b6 e7 ad bd
       -0.24301566 0.09407656 0.05796162 -0.08491461
000030 9b 1d 51 bd bb ed 23 3e cf 52 d8 3d a3 db 56 be
       -0.051053625 0.16008656 0.105626695 -0.20982222
000040 14 57 ca 3c 88 1b c3 3d 41 b0 90 bd 1f 93 82 3d
       0.024699725 0.095267355 -0.07064868 0.06375717
000050 e7 fe 88 be f4 cc 17 be d6 a8 85 bd dc 41 75 3d
       -0.26756975 -0.14824277 -0.065263435 0.05987726
000060 37 8d 0c bd f7 26 ed bd aa 61 ba bd 03 38 86 bd
       -0.03431436 -0.115796976 -0.09100659 -0.06553652
000070 97 e0 ee 3d e3 19 be 3d 01 3d b7 3d 36 1c d0 3d
       0.11663931 0.09282281 0.089471824 0.10161631
000080 ae 36 ef 3d f2 ca 9b 3d 0b bf 89 be f8 08 cd 3d
       0.11680351 0.07607068 -0.26903567 0.10011476
000090 62 99 97 3e de 91 34 3e 2b a6 71 3d 11 ef e7 bd
       0.2960921 0.17633769 0.05899636 -0.11324895
0000a0 bf 99 b6 bd 75 57 03 3e aa e1 59 3e 84 e6 f9 bc
       -0.089160435 0.12826331 0.2127749 -0.030505426
0000b0 1e 9a 45 3e 0b e4 72 be b5 b5 8e be 5a 2d 0d 3e
       0.19297072 -0.23719804 -0.27873006 0.13786831
0000c0 fa dd 87 3c ca dd 21 be 9b 86 1a 3d ae 73 93 3e
       0.016585339 -0.15807262 0.037726026 0.28799194
0000d0 fc 94 ba 3d 29 ba 56 3e 22 b2 ff bd 89 95 e5 3d
       0.09110448 0.20969452 -0.12485148 0.11210162
0000e0 1c 16 9e be 16 6f 05 3f da d6 41 be 9b 5c bb 3c
       -0.30876243 0.5212263 -0.18929616 0.022871306
0000f0 12 fb ca bd c3 84 5f 3e 50 c3 28 be a4 a8 7b 3d
       -0.09911169 0.21827988 -0.16480756 0.061440125
000100 e3 25 b2 3d 53 2f 76 be b0 8b 03 bd 3e df d7 bd
       0.086986326 -0.2404149 -0.03211564 -0.10540627
000110 80 e4 30 bd 5e 45 14 3d ef f7 da bd f9 3a 6f 3d
       -0.043186665 0.036198966 -0.10691821 0.05840585
000120 f6 7b 04 3e 82 80 ac be 49 b1 52 be da 64 42 bb
       0.12937912 -0.33691794 -0.20575441 -0.0029662163
000130 39 b1 51 3e 49 ee 13 be a5 cd 15 3d 87 d7 a8 bd
       0.20477761 -0.14446367 0.03657307 -0.082442336
000140 a3 4e 71 be 56 a4 89 3d 4a ab 17 be 98 7b a8 be
       -0.23565154 0.06720798 -0.14811435 -0.32906795
000150 d1 56 21 3e 34 4c 0e bd 0c b2 95 bd 85 40 02 3e
       0.15755774 -0.03474064 -0.0730935 0.12719925
000160 ff d2 e7 be 18 cd 0f be 8c c8 1c be 19 7d 6d be
       -0.45278165 -0.14043081 -0.15310878 -0.23192252
000170 e6 cc cc 3d ba 6b f4 bb 18 2d aa 3c 9b d3 93 be
       0.10000019 -0.007459131 0.020773456 -0.2887238
000180 8f 3e c2 bd b9 49 05 3e 47 52 fe 3b 0a a6 f8 3d
       -0.09484588 0.13016404 0.007761273 0.121410444
000190 99 7a 72 bb d6 5b 4d be 38 5b ce bd 97 6c a3 bd
       -0.0036999343 -0.20054564 -0.10075992 -0.07979696
0001a0 5d a4 3e 3e 9b e8 d5 ba 77 57 c1 3d d7 4f f9 3d
       0.18617387 -0.0016319932 0.09440511 0.12173431
0001b0 de 3e 3a be 34 7b 5b bd f3 c0 11 be 18 db a4 bc
       -0.18188044 -0.053584293 -0.1423376 -0.020124003
0001c0 5a 94 b0 be 8c 58 37 be 74 83 70 be cf 7e 2a 3e
       -0.34488183 -0.17904872 -0.23487645 0.16649936
0001d0 dc dc 04 3c 3c b0 40 3e 66 c1 b5 be a1 3e b0 3d
       0.008109298 0.18817228 -0.35499114 0.086056955
0001e0 8a 5a 54 be bb ea 58 3c 6a c6 3f 3e 45 cd a0 3c
       -0.20737663 0.013239558 0.18728033 0.01962913
0001f0 70 19 45 3d 21 96 78 3d 58 d0 f1 3b c8 ea 50 be
       0.048119962 0.06069005 0.007379573 -0.20402062
000200 ea b4 c3 bd 82 24 3d 3e 64 6a 2f be f5 2d cd 3d
       -0.09555991 0.18470958 -0.17130429 0.10018531
000210 8e f2 31 3e 4e aa 2b be 60 03 ca bd be 3c 96 3e
       0.17377684 -0.16764185 -0.09863925 0.29343218
000220 60 79 ae 3e a2 b5 a7 be fe 99 0b 3d c0 cd 1f bd
       0.34076977 -0.32755762 0.034082405 -0.039014578
000230 13 3f 88 be dd 7c bb 3b c8 1a 4a bd 19 15 6e ba
       -0.26610622 0.005721672 -0.049341947 -0.0009082123
000240 83 75 6f 3c fc ee 67 bd 71 37 da bd 6f a4 72 3e
       0.014615419 -0.056624398 -0.10655106 0.23695539
000250 99 17 e0 bd 90 1c ae be 59 d4 5c 3d 4e b7 84 bd
       -0.10942001 -0.34006166 0.053913448 -0.06480275
000260 13 dd 1e 3e 03 cc 1e be 26 83 c3 bd e5 f0 1f be
       0.1551402 -0.15507512 -0.09546499 -0.15619238
000270 93 3f 02 3d b5 81 01 3e a0 13 44 be aa 34 72 3b
       0.03179891 0.12647136 -0.19148111 0.003695766
000280 20 6e 24 bd 52 2c 0f 3e c0 02 88 bd a3 d9 21 be
       -0.040144086 0.1398175 -0.066411495 -0.15805678
000290 0e 8b 58 3e 61 28 c2 bd d1 0d d7 3d 34 40 ad bd
       0.21146795 -0.09480358 0.10500682 -0.084595114
0002a0 f1 57 cf 3e 9b e6 af be ca 46 00 be c4 91 15 bb
       0.4049678 -0.34355626 -0.12527004 -0.0022822479
0002b0 06 30 04 be 41 87 99 bd 03 c2 6b bd b3 3d aa 3d
       -0.12908944 -0.07496501 -0.05755807 0.083125494
0002c0 96 e7 e3 bb a8 c4 52 3c 2a 32 01 bd 2a 80 17 bd
       -0.0069550974 0.012864269 -0.03154198 -0.03698746
0002d0 a5 e5 3e bd 39 25 31 be 01 01 a3 3d cb 4c 81 be
       -0.046605725 -0.17299356 0.07959176 -0.252539
0002e0 1d b7 ad 3e 61 7d cf bd 32 b6 b5 3e 67 01 bb 3d
       0.33928767 -0.10131336 0.35490566 0.09131127
0002f0 b6 f0 e4 bc 60 04 c9 bd 73 13 2a bc 7a e8 80 3e
       -0.027946811 -0.098152876 -0.010380614 0.25177366
000300 51 d1 ba bd 86 8d e4 bd c6 bc 8f 3d 03 e0 64 3e
       -0.09121955 -0.11159806 0.070184276 0.22351079
000310 ad a3 c9 bb 79 10 35 be 84 6c e7 bc bc b9 08 3d
       -0.006153545 -0.17682065 -0.028249986 0.033380255
000320 12 b3 6c 3e 09 db 82 bd e1 4c eb 3d 04 99 54 bd
       0.23115185 -0.06389434 0.11489273 -0.05190374
000330 ea 65 8a be fc 8d 29 3e b0 af e8 bc 75 fe 40 be
       -0.2703088 0.16558069 -0.028404087 -0.18847068
000340 2f dd 64 3e 57 7b 8d be 98 0a 21 be bf 02 5b 3e
       0.2235 -0.27633163 -0.15726697 0.21387766
000350 c5 e8 2d be 8f 63 20 3d 23 ad b9 3e 2d 80 14 3d
       -0.16983326 0.039157446 0.36264905 0.03625505
000360 07 8b 9c bd 56 d5 02 3e 58 20 c5 3d 46 ef c6 3d
       -0.07643705 0.12776694 0.0962531 0.097136065
000370 ab b4 40 bd b9 3c 8e 3e 3e 22 a9 3d 4e df 5d 3d
       -0.0470473 0.27780703 0.08258484 0.054168038
000380 64 ba a2 be 01 b3 d0 3d 4c 71 01 bf fe 88 1b 3e
       -0.3178283 0.10190392 -0.505635 0.15188977
000390 a5 c7 a6 bd 96 54 b9 bd 0b 3c 98 3c 94 42 95 3c
       -0.08143548 -0.090493366 0.018583318 0.018220223
0003a0 60 63 0b 3e ed 5b 04 be 0d 73 65 be 42 66 3c 3d
       0.13612127 -0.12925692 -0.2240717 0.04599596
0003b0 16 4c 85 3e e4 b3 90 3e 7b ce c6 bd c4 4a 19 3e
       0.2603461 0.28262246 -0.09707352 0.14969927
0003c0 60 be 28 3e 34 59 1e be 72 10 9e 3d cc a6 c2 3d
       0.16478872 -0.15463716 0.077179804 0.0950447
0003d0 58 8c 57 bd 70 1e da 3c 47 8d 80 be 25 68 65 3e
       -0.052624077 0.026625842 -0.25107786 0.22403009
0003e0 64 5c 46 bd 3b b7 15 3d 0d 77 d6 be 84 f9 58 3d
       -0.048427954 0.036551695 -0.41887704 0.05297233
0003f0 ab 32 24 3e 02 e0 7f be db 04 5a 3e 8b f0 1f bd
       0.16034953 -0.24987796 0.21290915 -0.03904776

bn1.running_var f4 [256]
000000 b1 6e 32 3f b4 37 31 3f 32 fc 40 3f ef 94 20 3f
       0.6970015 0.6922562 0.7538482 0.62727255
000010 52 e8 52 3f 43 9e 12 3f 35 11 17 3f 85 ad 0e 3f
       0.8238574 0.5727274 0.5901063 0.5573352
000020 6d 9c 40 3f 85 1a 32 3f d0 b2 54 3f d7 13 35 3f
       0.75238687 0.69571716 0.83085346 0.707334
000030 b8 e7 3d 3f 4a 4e 19 3f ee d0 2e 3f 63 93 5e 3f
       0.741817 0.59885085 0.6828755 0.86943644
000040 3a e6 1d 3f 13 d6 27 3f 47 80 2e 3f c7 1e 39 3f
       0.6167942 0.65561026 0.68164486 0.7231259
000050 cf ff 73 3f 85 be 17 3f d6 96 64 3f 75 aa 35 3f
       0.9531221 0.59275085 0.8929266 0.7096322
000060 2d 89 03 3f d5 dc 34 3f db ed 42 3f 34 81 53 3f
       0.5138119 0.7064946 0.7614419 0.82619023
000070 3c bd 17 3f d1 cd 2c 3f 07 51 26 3f dc cc 14 3f
       0.59273124 0.6750155 0.6496739 0.5812509
000080 cf 33 71 3f 15 8d 16 3f 5f fc 24 3f e0 f9 12 3f
       0.9421968 0.58809024 0.6444759 0.5741253
000090 dc 67 0a 3f 85 ce 37 3f ae c1 43 3f d4 87 2d 3f
       0.54064727 0.717995 0.76467407 0.6778538
0000a0 c5 ea 50 3f c8 08 2d 3f 5b 36 69 3f b9 b6 66 3f
       0.8160823 0.67591524 0.91098565 0.9012256
0000b0 33 3e 50 3f 79 4c 4e 3f e4 f6 58 3f fc 3c 3a 3f
       0.8134491 0.8058544 0.84751725 0.72749305
0000c0 99 c2 2a 3f 7c 14 50 3f d8 ef 27 3f 26 75 5a 3f
       0.6670318 0.81281257 0.6560035 0.85335004
0000d0 62 af 5e 3f 64 f3 60 3f b0 d1 38 3f f2 bd 22 3f
       0.8698636 0.87871385 0.7219496 0.63571084
0000e0 37 99 52 3f 9a ac 3b 3f 3f a7 53 3f 62 e7 29 3f
       0.8226504 0.73310244 0.8267707 0.6636869
0000f0 24 80 11 3f 8e df 2c 3f d9 42 62 3f 65 1f 16 3f
       0.5683615 0.6752862 0.8838325 0.58641654
000100 bd b1 3f 3f ec 6e 06 3f ca 6e 26 3f a4 b1 51 3f
       0.7488058 0.52513003 0.650128 0.81911683
000110 12 ad 24 3f 81 5a 62 3f 2b 31 4b 3f ca ec 2a 3f
       0.64326584 0.8841935 0.793719 0.6676756
000120 f7 35 5d 3f 90 70 2f 3f 6f 98 38 3f 67 ea 1a 3f
       0.8641047 0.6853113 0.72107595 0.6051392
000130 ec 15 2b 3f a6 54 62 3f 95 38 38 3f 1c d5 3a 3f
       0.66830325 0.88410413 0.7196134 0.7298143
000140 2a 14 4d 3f 3b 8a 0f 3f 66 09 1f 3f e1 b9 46 3f
       0.8010889 0.560703 0.62123716 0.7762738
000150 48 d4 23 3f 3b c0 0d 3f 88 46 fb 3e 79 53 15 3f
       0.6399579 0.55371445 0.4907725 0.58330494
000160 89 af 15 3f 50 47 1f 3f 66 15 27 3f 7f ab 18 3f
       0.5847097 0.6221819 0.65267026 0.5963668
000170 fd 02 41 3f 7c 08 37 3f 2c 90 26 3f 6b b8 54 3f
       0.75395185 0.7149732 0.6506374 0.830939
000180 5f b8 32 3f 50 e1 30 3f 2a 77 27 3f 9b eb 04 3f
       0.6981258 0.690938 0.65416205 0.51922005
000190 11 6a 2b 3f 20 d5 21 3f 45 53 4f 3f 60 d6 2a 3f
       0.6695872 0.6321583 0.80986434 0.6673336
0001a0 86 eb 1f 3f 84 eb 0a 3f 06 95 0a 3f 7a 5d 1f 3f
       0.62468755 0.5426562 0.5413364 0.6225201
0001b0 22 cc 74 3f 53 e5 37 3f 64 7c 6b 3f 08 86 34 3f
       0.9562398 0.71834296 0.9198668 0.70517015
0001c0 92 e8 43 3f c4 b9 26 3f 06 cb 15 3f a4 c2 05 3f
       0.7652675 0.65127206 0.58512914 0.52250123
0001d0 40 bb 2b 3f f8 fd 03 3f ae a5 27 3f e1 26 25 3f
       0.67082596 0.515594 0.6548718 0.6451245
0001e0 b1 75 1a 3f 12 ab 1b 3f 1f 5e 65 3f d4 f2 2d 3f
       0.6033583 0.6080791 0.8959674 0.6794865
0001f0 13 5c 10 3f d6 48 03 3f 78 1c 3f 3f 33 6d 29 3f
       0.56390494 0.51283014 0.74652815 0.6618225
000200 f2 4e 3b 3f 6c c7 3b 3f 55 1a 2e 3f 47 af 3e 3f
       0.73167336 0.7335117 0.6800893 0.744862
000210 c8 ab 3f 3f 22 7d 1a 3f 58 bd 81 3f 88 88 09 3f
       0.7487149 0.6034719 1.0135908 0.53723955
000220 fb 22 25 3f 2c 8a 18 3f 7b 5d 21 3f 4f fd 29 3f
       0.645065 0.59585834 0.63033265 0.66402143
000230 2f 00 3d 3f 38 a3 49 3f 47 58 20 3f ff 97 27 3f
       0.73828405 0.7876468 0.626347 0.654663
000240 b7 db 63 3f 60 fb 42 3f 13 b1 27 3f 91 62 42 3f
       0.89007133 0.7616482 0.6550457 0.7593165
000250 d5 fd 7f 3f 7c 13 6e 3f 31 07 22 3f ec fa 5e 3f
       0.9999669 0.9299848 0.63292223 0.87101626
000260 3c 99 39 3f 6e c8 33 3f bc 4c 40 3f 1a b7 66 3f
       0.7249944 0.70227706 0.7511709 0.9012314
000270 4f 8e 65 3f 58 8c 36 3f 20 af 48 3f 49 f5 0d 3f
       0.8967027 0.713079 0.7839222 0.554524
000280 cb 46 36 3f 7c c1 0b 3f b2 98 74 3f 31 87 50 3f
       0.7120177 0.5459211 0.95545495 0.81456286
000290 56 49 11 3f c0 97 37 3f 89 32 1e 3f c7 d7 14 3f
       0.56752527 0.7171593 0.6179586 0.5814175
0002a0 b5 c1 15 3f 9c c3 51 3f 28 7d 18 3f 80 88 4d 3f
       0.584987 0.819391 0.59565973 0.8028641
0002b0 4e 09 4d 3f b1 2a 03 3f d9 d6 3c 3f 89 2e 1d 3f
       0.8009232 0.51237017 0.7376533 0.6139913
0002c0 86 0c 1a 3f 9d 3e 2c 3f 7f 48 64 3f 58 06 12 3f
       0.6017536 0.6728304 0.8917312 0.5704093
0002d0 eb 98 39 3f 7b b1 41 3f ac 59 f1 3e a2 77 2e 3f
       0.7249896 0.7566144 0.47138727 0.68151295
0002e0 5c 9b 4f 3f 08 4f 35 3f 11 5c 3a 3f b7 b8 24 3f
       0.81096435 0.7082372 0.7279673 0.6434435
0002f0 7f e1 57 3f 9b 5e 26 3f 52 a1 16 3f 35 7d 3a 3f
       0.84328455 0.64988106 0.58839905 0.728473
000300 cb 27 0f 3f df be 70 3f 80 a7 07 3f 76 40 f9 3e
       0.55920094 0.94041246 0.5298996 0.48681992
000310 c2 a9 05 3f e5 28 60 3f a8 12 31 3f cc 07 3f 3f
       0.52212155 0.875624 0.6916909 0.7462127
000320 ae ad 2d 3f e6 cf 32 3f 1f c3 45 3f db 53 5b 3f
       0.6784314 0.6984848 0.77250856 0.8567483
000330 a4 55 25 3f 60 23 3d 3f 85 9f 18 3f 57 e8 21 3f
       0.645838 0.738821 0.5961841 0.6324515
000340 fa 79 15 3f ef cd 4a 3f e8 d6 33 3f a4 99 49 3f
       0.58389246 0.7922048 0.70249796 0.7875006
000350 fa 4f 1c 3f 6b 2e 58 3f fd d9 19 3f 80 29 38 3f
       0.61059535 0.8444583 0.6009825 0.71938324
000360 6f eb 49 3f 0b fa 32 3f c1 3f 33 3f f3 5c 29 3f
       0.7887487 0.69912785 0.70019156 0.66157454
000370 bd c9 09 3f 64 92 15 3f b9 f9 2b 3f 96 1e 55 3f
       0.53823453 0.584265 0.6717792 0.83249795
000380 bc eb 12 3f 05 19 27 3f 7e 85 5c 3f 31 ec 1c 3f
       0.5739095 0.6527255 0.8614119 0.612979
000390 f1 13 38 3f 67 d6 24 3f d6 b1 38 3f 26 fd 26 3f
       0.7190543 0.6438965 0.72146356 0.65230024
0003a0 86 05 2d 3f c8 fd 1e 3f e1 59 03 3f 25 85 02 3f
       0.67586553 0.6210599 0.5130902 0.5098441
0003b0 b6 91 15 3f ac 31 18 3f af 0b 20 3f d4 d7 1e 3f
       0.5842546 0.59450793 0.6251783 0.6204808
0003c0 6d 9a 2a 3f a8 41 22 3f cd c2 5a 3f c4 df 3f 3f
       0.66641885 0.63381433 0.8545349 0.74950814
0003d0 01 a4 07 3f 46 d9 0c 3f fb a7 25 3f c0 b4 01 3f
       0.52984625 0.5501903 0.6470944 0.5066643
0003e0 70 bf 2a 3f 45 32 27 3f 34 ca 51 3f b1 f5 44 3f
       0.6669836 0.6531108 0.8194916 0.76937395
0003f0 1f a6 56 3f c2 4f 52 3f c1 ed 3a 3f 96 c8 1c 3f
       0.8384723 0.8215295 0.73019034 0.6124357
