Models/lol_model_best.pth (torch, 655127 bytes, 22 tensors)

champ_embedding.weight f4 [1000, 32]
000000 62 6f 2c 3f 43 13 1c 3f 76 f4 82 bf 13 0f 82 be
       0.67357457 0.6096689 -1.0230854 -0.25402126
000010 53 0b 91 3f a4 e5 83 3f db 95 a9 bd ac 80 b3 3e
       1.1331581 1.0304456 -0.08280536 0.35059106
000020 ab b7 5b 3f f3 c1 f6 3f 57 7a d6 3f 5f dd d1 3f
       0.8582713 1.9277939 1.6756085 1.6395682
000030 f1 13 9d 3f e6 1d b2 3e f1 3c ca 3f 2e d5 eb 3e
       1.2271711 0.34788436 1.5799848 0.4606108
000040 6b bf d4 bd 39 0c 7e be be ef 44 bd 6f 5d 44 bf
       -0.103880726 -0.2480935 -0.0480802 -0.7670507
000050 26 ad 0b 3f 1f 2b 17 3f 7c 64 57 3f 36 3f 53 bf
       0.5456108 0.5905017 0.841377 -0.8251833
000060 89 b1 01 bf f8 24 57 be c9 a7 02 c0 7a e6 48 3e
       -0.5066152 -0.21010196 -2.0414908 0.1961917
000070 70 50 ba be e5 79 76 bf 06 35 87 bf f2 08 cb bf
       -0.36389494 -0.96279746 -1.0563056 -1.5862105
000080 fc 8b af bf ba b0 28 3f 68 89 8b 3f 0f 7b dd 3e
       -1.3714595 0.65894663 1.0901308 0.4325795
000090 6f 4c ec be 41 94 63 be c1 2f ee 3e cf 8f 07 c0
       -0.46152064 -0.22224523 0.46520808 -2.1181524
0000a0 25 68 ab bf e5 6f 3c 3f b1 03 79 3f 2a 81 1b 40
       -1.3391157 0.7360824 0.9727126 2.4297585
0000b0 4b 78 8d 3f d0 44 57 3f 59 2c 69 bf 72 06 9c 3e
       1.1052336 0.84089375 -0.91083294 0.30473667
0000c0 60 4c 07 3e 29 25 69 3f 9d db 39 3f 72 b7 96 3e
       0.13212729 0.91072327 0.7260073 0.29436833
0000d0 86 05 9d 3f 77 85 45 bf 24 03 02 40 e7 79 47 3f
       1.2267311 -0.77156776 2.0314417 0.77920383
0000e0 6a c4 f5 3e 8d 2b e7 3f a7 b3 dd 3f a8 1c f2 be
       0.48001415 1.8060166 1.732045 -0.47287488
0000f0 89 9b 2d 3f 0b d6 18 3f ff fb 80 3e 67 f3 3b c0
       0.6781545 0.59701604 0.25192258 -2.936731
000100 41 db 3f bf 87 58 e0 3e 52 63 e0 be f9 6f d9 3e
       -0.7494393 0.4381754 -0.43825775 0.4246824
000110 07 31 f1 be de f6 d2 be bd 23 56 bf 21 38 4e bf
       -0.47107717 -0.4120397 -0.8364828 -0.80554396
000120 ae 8d 6d bf 67 29 91 be ae 92 98 3f 40 0c 8d 3f
       -0.9279431 -0.283519 1.1919763 1.1019363
000130 14 6c 3b bf 4d f3 26 bf a5 41 ac bf f6 4e b3 be
       -0.7321179 -0.65215 -1.3457533 -0.3502118
000140 57 e8 e1 3e bf 5c 1b 3e f2 15 4d 3f 5d 1c f9 be
       0.44122574 0.15172099 0.8011161 -0.48654452
000150 69 62 93 bf 7b 64 fb be ad 1d 8a bf 90 fc ee bf
       -1.1514407 -0.49100098 -1.0790306 -1.8670826
000160 17 a6 82 bf 8f 8b a8 bf 13 1b 7e bf 82 cf 0e 3d
       -1.0206937 -1.316759 -0.9926006 0.034865864
000170 c6 03 01 bf 41 ec 2b 40 c9 ad 9e be c3 b5 7e 3d
       -0.5039638 2.6862948 -0.30991963 0.06218506
000180 6e 15 22 bf c1 0a 8a bf e0 4e 1f be 8e ed a0 bf
       -0.6331395 -1.0784532 -0.15557432 -1.2572496
000190 94 3a 1f bf a3 92 b7 3e 79 1b 80 bc 72 a1 8f bf
       -0.6219876 0.35854062 -0.0156381 -1.1221144
0001a0 78 02 f0 3e 28 14 8a bf 81 e1 bc 3f 36 68 d6 bd
       0.46876884 -1.0787401 1.4756318 -0.104690954
0001b0 56 fa 24 3f fa b6 b5 3f 81 ea 8b 3f a3 a6 ad bf
       0.6444448 1.4196465 1.093094 -1.3566478
0001c0 14 c9 82 3f 61 42 d0 bd 77 d8 f0 be 7a ef 42 bf
       1.0217614 -0.10168911 -0.4704015 -0.7614666
0001d0 94 35 33 3f 32 30 cd bf b6 d2 93 3f d0 fb 18 bf
       0.7000363 -1.6030333 1.1548679 -0.59759235
0001e0 18 a3 3c be d7 74 c1 bf b7 3d 76 3f 8f 19 e5 bf
       -0.1842159 -1.5113782 0.9618792 -1.7898425
0001f0 6e 99 91 bf 91 c9 a6 3e 4b b2 da bf 25 9e 99 bf
       -1.1374948 0.32575658 -1.7085661 -1.2001387
000200 c3 de 41 bf dd af 99 3f e7 63 9c 3f 63 a6 3b 3f
       -0.7573053 1.2006794 1.2217988 0.7330076
000210 e6 43 6e 3e a8 f5 6f be 85 36 b5 3e 58 7f 8d bf
       0.23268089 -0.23433554 0.35393158 -1.1054487
000220 34 79 07 bf d6 13 8e 3f f4 0a c7 3e cb 76 00 bc
       -0.52919316 1.1099803 0.38875544 -0.007840822
000230 af 76 e7 3e 72 c3 8a 3f af 3b 1d 3e 16 8d 95 3f
       0.45207736 1.0840895 0.15354799 1.1683681
000240 1b 11 cb 3f 71 02 d6 3d 26 dc 06 3e 4e 17 42 3f
       1.5864595 0.104496844 0.13169917 0.7581681
000250 46 e0 dc bd 2f e7 a8 bd 8f 0e 50 3f 85 ce 5c 3e
       -0.10784964 -0.0824722 0.81272215 0.21563156
000260 c4 1c 23 bf 10 be 66 3c 14 58 07 3e a1 4f 82 3c
       -0.6371577 0.0140834 0.13217193 0.01590711
000270 22 2e 5a bf 01 15 63 3f 98 86 ce 3f 9d 8d 12 be
       -0.85226643 0.88703924 1.6134825 -0.14311834
000280 17 89 03 bf 5b 01 5d 3d 68 be 52 3e 09 4e f5 3e
       -0.5138106 0.05395637 0.20580447 0.479111
000290 29 e1 c5 be 3a 6d e2 bf db 3e 9a 3f 7d 4a 11 40
       -0.38648346 -1.7689583 1.2050432 2.2701714
0002a0 b9 eb d3 bf f4 5e 8c bf 91 f2 7b 3e bc 41 b8 3f
       -1.6556312 -1.0966477 0.2460425 1.439506
0002b0 02 3f d9 bf 7a 21 c0 3f b5 03 77 be a4 dd 8e bf
       -1.6972353 1.5010216 -0.24122508 -1.1161389
0002c0 4f a0 f2 3e ed 01 0e 3f 02 6f 5e 3e 06 7d 2f 3f
       0.4738793 0.5547169 0.21722034 0.68550146
0002d0 2e 1c 85 be b8 87 ea 3d 38 5e 0c 3e ce 67 bc be
       -0.25998062 0.114516675 0.13707817 -0.36797947
0002e0 44 8e d5 bf 20 69 9c bf 2c 6b 9d bf 3f 17 04 3f
       -1.6684041 -1.2219582 -1.2298331 0.5159797
0002f0 08 a4 3e 3f eb d7 4a bf cd 16 b4 3f d1 36 1e bf
       0.7446904 -0.79235715 1.4069458 -0.61802393
000300 47 14 98 3a 96 12 5a bf 61 f9 bb bf 93 47 65 be
       0.0011602723 -0.8518461 -1.4685479 -0.22390585
000310 c7 b7 86 bf a6 ba 1b be 4b e0 26 bf ca 11 52 3e
       -1.0524834 -0.1520792 -0.65185994 0.20514598
000320 40 27 b0 be 71 66 a6 3f 23 46 b0 3e c1 2a b6 be
       -0.34404945 1.3000013 0.3442851 -0.35579494
000330 06 95 87 bf 48 ff a9 bf c3 84 35 3e 3e dc bc 3f
       -1.0592353 -1.3281031 0.17726426 1.4754713
000340 20 73 0b 3f 44 68 a6 3f 9a b0 79 bf 74 9d 3f be
       0.5447254 1.3000569 -0.975351 -0.18712407
000350 82 35 72 bf 54 7f ac 3f 0b 16 bc bf e4 f7 a4 3f
       -0.94612896 1.3476357 -1.4694227 1.288815
000360 60 94 96 3f 68 f2 4d bb 65 23 92 3d dd dd 98 bf
       1.176403 -0.0031425003 0.07135657 -1.1942707
000370 cc 67 c4 3e 04 8b 24 3f 6a 3e 61 bf b5 3d 5e 3e
       0.3836044 0.6427462 -0.8798586 0.21703227
000380 4d 1e 47 bf 3b 5c 60 bf 62 61 76 bd e7 67 f2 bf
       -0.7778061 -0.8764073 -0.060151465 -1.8937958
000390 6f 05 52 3f db dd 89 3e 35 6a c7 3e 6a e8 02 bf
       0.8203954 0.26927075 0.38948217 -0.51135886
0003a0 f6 3f 7a bf 46 0c f7 bf 15 23 a3 3f bb f9 09 3f
       -0.97753847 -1.930062 1.2745081 0.53896683
0003b0 a5 5a 5e 3e 25 1b 10 be 47 57 28 3f 19 55 24 3e
       0.21714266 -0.14072855 0.65758175 0.16048087
0003c0 f8 84 ed be 49 2c 1c 3f 7f 6f ce 3d cd 00 6c bf
       -0.4639051 0.61005074 0.1007986 -0.9218872
0003d0 ab 5c 59 3e 3a a8 3f 3f 12 f5 9f 3f 4e 60 b1 3f
       0.21226756 0.7486607 1.2496665 1.3857515
0003e0 1f 63 65 bf 3c 9e f4 3e 9d ea b0 3e ce e8 35 3f
       -0.8960437 0.47776973 0.34553996 0.71058357
0003f0 bd 0e c3 be d3 70 88 bf dd 5e 2a 3f 0b a9 fc bd
       -0.38097182 -1.0659431 0.66551 -0.1233693

role_embedding.weight f4 [5, 8]
000000 74 ab b4 3e 11 c8 06 3e 06 5e 61 3d ec 01 c1 3f
       0.35287058 0.13162257 0.05502131 1.5078712
000010 90 9f ba bf 7c 8f 13 c0 bd 2c 85 3f 16 dc 76 be
       -1.4579945 -2.3056326 1.0404278 -0.24107394
000020 9c 20 93 bf 0b 85 55 bf a7 1a 3d 3e 97 d2 38 3e
       -1.1494327 -0.8340613 0.18467198 0.18049084
000030 4b a8 97 be 06 49 99 3f d8 92 bb 3e 02 b8 c3 bf
       -0.29620585 1.197541 0.3663547 -1.529053
000040 57 65 aa 3f 0a 02 44 3f 8d ab 80 3f a2 26 34 3d
       1.3312176 0.7656561 1.0052353 0.043982156
000050 78 46 00 3f b4 4a 85 bf d0 a0 bd be 4b 2f 1b be
       0.50107527 -1.0413423 -0.37036753 -0.1515476
000060 44 3f c5 3f 32 bb ad be f8 3c 6e bf f2 e6 35 c0
       1.5409932 -0.3393188 -0.9306178 -2.8422208
000070 f3 5a 72 bf b2 b9 8d 3d 38 d7 d3 3e 49 cf a6 3d
       -0.9467003 0.06920184 0.41375136 0.08145005
000080 de 79 17 bf 6b a8 30 bf cc 81 75 3e 3b fe 00 c0
       -0.5917033 -0.69006985 0.23975295 -2.015517
000090 34 72 2b c0 d0 f6 a7 bf 95 39 90 3d cc 27 87 3d
       -2.6788454 -1.3122196 0.07042233 0.065993875

fc1.weight f4 [256, 328]
000000 95 8f 83 3c 75 85 05 bd 86 d0 f0 3c 06 44 73 bd
       0.016059676 -0.032597978 0.029396307 -0.059391044
000010 5f 76 58 3d 86 82 0c 3d 08 65 68 3d d7 76 0d bc
       0.052847262 0.034304164 0.056736976 -0.008634291
000020 ab f2 4d ba 5b b3 1b 3d 3e 38 11 3d f6 01 54 bd
       -0.000785629 0.038012844 0.035454027 -0.051759683
000030 c7 4f 23 3d b3 8c 67 3d 75 9d 67 bd 5e ef 11 3d
       0.039871003 0.056530666 -0.056546647 0.03562867
000040 63 92 02 3d a7 34 a4 3c d8 e7 6a bc 17 0c 43 3c
       0.031877887 0.020044638 -0.014337502 0.011904738
000050 df e7 7f bd 10 0a 1a 3d c4 c0 6d bd 4f a8 0d bd
       -0.06247699 0.037607253 -0.058045164 -0.03458434
000060 6b 48 f2 3c 12 1c 1e bd 6f a8 25 3d a5 7c 25 3d
       0.029575547 -0.03860099 0.040443834 0.040402073
000070 02 fa 00 bd aa 49 02 3d f9 7b 02 3d 12 5c 22 3d
       -0.031488426 0.031808533 0.03185651 0.039638586
000080 57 cd 8e 3d 6e ae 57 bd 2a 76 7b bb e1 eb 9a bc
       0.06972759 -0.052656583 -0.0038369992 -0.018911304
000090 96 8e 04 bd 98 50 50 bd ce f5 33 3d 30 6d 03 3d
       -0.032362543 -0.05085811 0.04393559 0.03208655
0000a0 ee 6c 3b bd dc 9b ed bc 4e 4d e4 3c b8 78 34 bd
       -0.04575818 -0.029004984 0.027868893 -0.04406044
0000b0 89 68 3a bc c9 e7 88 3c 30 c9 2c 3d 69 c7 14 bd
       -0.011377462 0.016712086 0.042184055 -0.036322985
0000c0 03 d6 33 3d fb 93 6a 3d 1e b2 91 3c fd 70 42 bd
       0.04390527 0.05727003 0.017785128 -0.047471035
0000d0 8e d6 48 bd 79 db d9 3c 71 da ee ba 72 82 43 bd
       -0.04903274 0.02659391 -0.001822306 -0.047731824
0000e0 bc 68 36 3d d0 47 3a 3d b4 7d bf bc ed ed 32 3d
       0.044533476 0.045478642 -0.02337537 0.043683935
0000f0 6f cf f1 3b 85 db 91 3c 46 c6 11 3d d8 c9 18 3d
       0.0073794643 0.01780487 0.03558948 0.03730187
000100 aa 56 cf bc 4b da 6a 3d ac 02 78 3c de ae 2e 3d
       -0.02530988 0.057337087 0.015137356 0.042647235
000110 a3 b3 2b 3d 60 d0 8e bb 9f 8a 2a 3d 68 ee bc bc
       0.04191936 -0.0043583363 0.041636106 -0.0230629
000120 88 81 55 3c fe 27 27 bd 7a f6 5b 3d 46 95 ef bc
       0.013031371 -0.040809624 0.053701855 -0.029245984
000130 6a 76 86 bc d8 a5 77 3d 57 32 59 3d 9f 88 5b 3d
       -0.016413886 0.060460895 0.053026523 0.05359709
000140 df d5 92 3c ff 92 45 bd a7 7d 5e 3d 35 cb a9 bb
       0.017924247 -0.04823589 0.05431905 -0.005181695
000150 d3 de 36 bd fd 6a 28 3d 96 f9 04 bd 7d 47 0b 3d
       -0.044646095 0.041117657 -0.032464586 0.034003723
000160 80 63 db 3a a6 c8 82 3d 68 a4 3c bd 37 da 2a bd
       0.0016738027 0.06385927 -0.046055228 -0.041712012
000170 4b 10 02 bd 50 83 c7 bc dc 5c 86 bc d7 2c 33 3d
       -0.03175382 -0.024354607 -0.0164017 0.043743934
000180 43 a6 ae 3c 7c da 05 bd 5b 68 6c 3a 16 29 7e bc
       0.021319514 -0.032679066 0.0009018236 -0.015512725
000190 78 ba c4 3c b2 11 73 bd 4e a1 8f 3a 30 fc 2f 3b
       0.024014696 -0.059343047 0.0010958107 0.0026853196
0001a0 43 94 65 bd 07 35 e2 bc 0a 2f c7 ba cc 3f 4e bc
       -0.056049597 -0.027613176 -0.0015196514 -0.012588453
0001b0 2c 03 e1 3c 7d db 9f bc 40 9c 3e bd 6f 23 fe bc
       0.027467333 -0.01951384 -0.04653573 -0.031022755
0001c0 d6 c7 ee bc 53 dd ad bc bb d5 c5 3c f8 d7 06 bd
       -0.029148024 -0.0212237 0.024149766 -0.032920808
0001d0 f3 a6 29 bd b0 66 05 3d 95 fe 7a bd d1 13 89 3d
       -0.04141898 0.032568634 -0.061277945 0.06693233
0001e0 35 69 5f bc 58 ba b3 3c 63 82 b6 3c f4 5c 1d 3d
       -0.013635923 0.021939442 0.02227897 0.038418725
0001f0 dd 77 03 39 a9 69 9c bc 18 db 88 bb 45 c8 4c 3c
       0.00012537786 -0.019093351 -0.0041765086 0.01249892
000200 80 97 e0 bc c1 7d 1b 3d 70 b4 29 bd f1 c9 1e bd
       -0.02741599 0.037961725 -0.041431844 -0.038766805
000210 dc 5c a6 bc 03 6c 84 bd 17 53 fe 3c f5 1c 4f 3d
       -0.02030795 -0.06465914 0.03104548 0.050564725
000220 4c de ff bc 75 db 5a bd e8 de 2e bd 41 9f 2b bc
       -0.03123393 -0.053431947 -0.04269305 -0.010474981
000230 9c a3 9d bc b1 c6 c1 bc f9 0b 8f bc 92 51 fa bc
       -0.019243054 -0.023654314 -0.017461764 -0.030556474
000240 33 e6 12 3d 2b 26 94 3c 64 53 2c 3d 11 b0 cd 39
       0.035864066 0.018084606 0.042071715 0.00039231827
000250 3d b5 25 bd 1d dc bb 3b dd f0 31 bd a2 ec 10 3c
       -0.040456045 0.0057330267 -0.043442596 0.00884548
000260 2b 9a 17 3d 9f 35 c0 bc 23 5d bb 3c c6 ef 0e 3d
       0.03701226 -0.023463069 0.02287156 0.034896635
000270 ac a9 40 bd 3c 25 7f 3d be fc 76 3d a5 8c 35 3d
       -0.04703681 0.06229137 0.060299627 0.044323582
000280 ea 15 b7 bb 56 fe b2 3b 60 ee fb bc 0f e4 22 3c
       -0.005587329 0.005462448 -0.030753314 0.009942069
000290 6a 62 44 3c b9 30 1c 3d 67 a5 db 3c c4 62 c0 3c
       0.011986354 0.038132403 0.026812268 0.023484595
0002a0 00 52 99 3c e1 6c 1f 3d b3 6e dc bc 31 ce d5 3c
       0.018715858 0.038922194 -0.026908254 0.026099296
0002b0 80 38 55 3d 01 4c 2a 3d fe b4 1a bd c8 4d f4 3c
       0.052055836 0.04157639 -0.037770264 0.029822245
0002c0 97 a6 ad 3c 1a e7 08 3d 0c e0 5c 3d db 4d 6a 3d
       0.0211976 0.03342352 0.053924605 0.057203155
0002d0 69 a1 10 bd 5b 93 be 3a 17 a4 4b 3c de eb 49 bb
       -0.035310183 0.0014539765 0.012429259 -0.0030810754
0002e0 45 fe 56 3d 77 76 50 3d ae 47 3c bd a7 9f 26 bc
       0.052488584 0.050894227 -0.045966797 -0.0101699
0002f0 20 c8 e6 bb f6 ea 3f bc a1 af fa bc 17 76 51 3b
       -0.0070428997 -0.011713734 -0.030601325 0.0031961256
000300 81 fa 9c 3c 78 6f 9c bc 3b 4f 70 3c 5c 06 29 bd
       0.019162418 -0.019096121 0.0146673275 -0.04126583
000310 21 6e ac 3c 2c 0e 5b bd de 6d d2 b9 4d 56 1d bd
       0.021048607 -0.053480312 -0.0004013618 -0.03841238
000320 f3 a1 e0 bc 90 cc e0 3c 7b ff df 3b 01 4a 51 bb
       -0.027420973 0.027441293 0.0068358756 -0.003193498
000330 a9 67 f7 bb 44 30 7b bd 67 98 4e bc 17 ce 99 3c
       -0.007550199 -0.061325327 -0.012609578 0.01877503
000340 a3 4c 3e 3d b0 5d ca 3c da 0f ce 3c 44 64 e6 bc
       0.046459805 0.024702877 0.025154043 -0.028123982
000350 5d 86 24 3d 31 be 7a bc 9c 41 66 bd 93 96 8a 3d
       0.0401672 -0.015304134 -0.056214914 0.06767001
000360 1b 3b 1d bc 92 a3 3d 3c c1 0f b4 bc 97 a3 d3 3c
       -0.009596611 0.011574643 -0.021980168 0.025834842
000370 42 52 7b bd d1 8a 14 bc 6b 7c de 3c 1e cd 00 3c
       -0.061357744 -0.0090663 0.027158936 0.007861404
000380 4b ac 56 3c 9f 4d 16 bd 5e 99 2c bd e8 03 9d bc
       0.013102601 -0.03669512 -0.04213845 -0.019166902
000390 a5 33 2a bc 12 15 14 3c 30 8c 79 bd 77 5e 2a 3d
       -0.01038829 0.009038227 -0.06092471 0.041593995
0003a0 bf 4b 0c 3d da cb 75 bd 92 a5 b7 bc 67 ec c3 bc
       0.034251925 -0.06000886 -0.022417817 -0.023916436
0003b0 df 17 25 bc 8d 6f 9f 3c a3 be 98 3c 1c b4 58 3d
       -0.010076492 0.019462371 0.01864559 0.05290614
0003c0 b3 63 2d bd c3 47 aa bc 45 96 ff 3c 08 43 23 bd
       -0.04233141 -0.020786172 0.031199584 -0.039858848
0003d0 e4 d7 40 3d f6 74 f8 3c da c7 d0 bc 82 4d cb 3c
       0.04708089 0.030329209 -0.025485922 0.024817232
0003e0 10 05 2f bd 1a 34 13 3c 96 1e ac bc 99 89 21 3d
       -0.042729437 0.00898459 -0.021010678 0.039437864
0003f0 bd c8 4b bd 1b cd b6 3b 41 19 48 bc ed e9 0d 3d
       -0.049751986 0.0055786497 -0.012213052 0.034646917

fc1.bias f4 [256]
000000 fb 7e 3a 3d d1 b0 66 bc f2 74 3c bc 23 5a ad bc
       0.045531254 -0.014080242 -0.011502491 -0.021161145
000010 c3 50 f9 bc 41 83 0a 3c 75 bd f4 bc e9 66 21 3d
       -0.030434018 0.008454145 -0.029875496 0.039404783
000020 76 3a 85 3b 58 65 a8 3c e8 7c 5b 3d 67 54 05 bd
       0.004065807 0.020556137 0.053585917 -0.032551195
000030 e1 d1 7f 3b 22 6a 3b bd b5 b2 1d bd 18 9a d1 3c
       0.003903501 -0.045755513 -0.038500506 0.025586173
000040 f3 ba 1f 3d 7f f0 18 bd a5 e9 d8 bc d3 c2 48 bc
       0.038996648 -0.03733873 -0.026478598 -0.012253481
000050 ad 96 28 3b 9b df da bc 58 e0 2f bd 1c a8 73 3c
       0.0025724575 -0.026717952 -0.04293856 0.014871623
000060 15 0a 44 3d a6 8e 17 bd 42 6e 40 bd 3c a6 2f 3d
       0.047861177 -0.037001275 -0.04698015 0.042883143
000070 30 45 45 3d 32 0f 9a 3a 9e f1 2f bd 61 fb a7 bb
       0.048161685 0.0011753796 -0.042955033 -0.0051264022
000080 85 4a 0c bd d2 4f f5 3b 71 5e 28 bd e3 ff 47 bd
       -0.034250755 0.007486322 -0.04110569 -0.048828017
000090 e0 0b e4 bc 4b af 05 3d 9c 3e b0 bc 2f 9b f1 bc
       -0.027837694 0.032637876 -0.02151423 -0.029492943
0000a0 69 af 39 3b e4 dc d3 bb 15 41 4e 3d 4d 4b 4a 3c
       0.0028333312 -0.006465541 0.050355036 0.012347055
0000b0 16 3d c3 bc 0d 8d d6 3c b5 41 03 bd 13 b3 d6 3c
       -0.023832839 0.026190305 -0.032045085 0.026208436
0000c0 62 16 2e bd 91 3f 44 bd 61 b3 4e bd 56 2a e2 3b
       -0.042501815 -0.047912184 -0.050464038 0.0069020195
0000d0 ee 8f 29 bb 9d 88 3a 3d a3 7f 66 3c 04 7c 61 3d
       -0.0025873142 0.04554044 0.014068517 0.05504991
0000e0 d1 d7 1d bd 33 a9 1b bd 3c 4a 4b bd 5c 67 42 3d
       -0.038535897 -0.038003158 -0.049631342 0.047461852
0000f0 f3 83 fb 3c c5 94 03 3d 99 ac 54 3d 4e 81 4e 3d
       0.030702567 0.0321243 0.051922414 0.050416283
000100 fd 6d 13 bd c3 0c da bc bd b4 b3 3c 7d 9a 19 bd
       -0.035993565 -0.026617413 0.021936769 -0.037500847
000110 66 0f d8 bc e9 3d 3c bc 58 43 fc 3c 4a 78 3f bb
       -0.02637453 -0.01148937 0.03079383 -0.0029215985
000120 d8 80 a7 3c 7a 50 c2 bc db 60 17 bd 93 82 10 3c
       0.02044718 -0.023720015 -0.036957603 0.008820194
000130 d2 17 61 bd 78 6a 20 3d e5 4a 32 bd 5f 0b 1c 3d
       -0.054954357 0.039164037 -0.043528456 0.03809678
000140 8e f7 f2 bc 99 e4 d8 3c 1f 6f c2 bb 46 2d 5d bd
       -0.029659059 0.026476191 -0.005933657 -0.053998254
000150 6d ea 09 bd eb a6 99 3c 81 2c a1 3c d7 f8 05 3d
       -0.03367083 0.01875635 0.019674541 0.032708015
000160 84 f1 05 bd 90 9c d2 bc 4e 74 0e bd 04 af 47 3d
       -0.03270103 -0.02570942 -0.034778886 0.048750892
000170 9b 94 ef bc d0 e1 53 3c 80 fb a5 3b 45 40 51 bd
       -0.029245665 0.012932256 0.0050653815 -0.051086683
000180 67 81 6e bc 8b c0 a7 ba 5d 87 fe bb b8 8c 21 3c
       -0.014557219 -0.0012798471 -0.0077676014 0.00986021
000190 bd cd 42 bd de 53 50 bc 24 24 2a 3d 2e 41 22 bd
       -0.04755949 -0.012715308 0.041538373 -0.03961294
0001a0 8c a8 5b bd 98 64 40 bd 59 1f 27 3d 3e 14 3c bd
       -0.053627536 -0.046970934 0.04080138 -0.045917742
0001b0 e7 92 c7 3c 54 88 0b 3d f2 fc 2d 3d 4e 4a cd bc
       0.02436204 0.03406556 0.042477556 -0.025059845
0001c0 8c b7 8c bc 01 6d d3 bc d6 a0 51 bd 5f 02 d1 bc
       -0.017177366 -0.025808813 -0.051178776 -0.025513826
0001d0 56 ac 02 3d 65 cc 07 3d ba 55 2f 3d d0 ce 14 bd
       0.031902634 0.03315391 0.042806365 -0.036330044
0001e0 eb a3 44 3d 3b 01 58 bc 0c 2f 17 bc 6d 76 03 3d
       0.048007887 -0.013183887 -0.009227525 0.03209536
0001f0 23 30 f6 bc 3b 7b 03 bd 16 2f 08 3d e3 6a 15 3d
       -0.03005225 -0.032099944 0.03324803 0.03647889
000200 ca a1 53 bc 9b 19 41 bd 27 39 3c 3c 3b 3d 37 3d
       -0.0129169915 -0.04714356 0.011488236 0.04473613
000210 dc 59 0f bd ad e8 fc 3c 06 ba e7 3c 87 a5 2c 3d
       -0.034997806 0.030872667 0.028286945 0.042150047
000220 96 f6 55 3d 7e 24 0c bd 6e c5 2d bd f7 53 ba 3c
       0.052237116 -0.03421449 -0.04242461 0.022745116
000230 5e 66 1e 3c ce 17 44 3d 54 42 cc bc fc 30 9f bc
       0.009667961 0.047874264 -0.024933971 -0.019432537
000240 e0 30 3b bd 71 ec 57 bd e9 4b 54 3d 0b 00 11 3d
       -0.045700908 -0.052715722 0.051830206 0.03540043
000250 74 1d 16 bd a4 bf 5b bd 8c 5b af bc 00 ee 1f bb
       -0.036649182 -0.05364956 -0.021405958 -0.0024403334
000260 d9 5b 5e bd fa 19 23 3d 82 cd 50 bd c0 c6 1a bd
       -0.05428681 0.039819695 -0.050977238 -0.0377872
000270 b5 27 11 bd ad 12 28 3d 7d a4 1c bd 07 24 08 bd
       -0.03543826 0.041033436 -0.038242806 -0.033237483
000280 c4 ff 2e 3d 06 41 38 3d 27 7b 50 bd e8 a7 30 3d
       0.042724386 0.044983886 -0.050898697 0.043128878
000290 ee 02 de 3c 70 2c f2 bc 44 fd 41 bc 59 e9 d6 3c
       0.027101006 -0.029562205 -0.011840168 0.026234316
0002a0 00 bc 13 3d 40 1e 48 bd 47 04 81 bb e6 e3 0e bc
       0.036067963 -0.048856974 -0.0039372775 -0.008721327
0002b0 a6 b3 3a 3d e0 8a 02 bd f0 19 cc 3c 28 17 9e bc
       0.045581482 -0.031870723 0.024914712 -0.019298151
0002c0 66 9a d7 3c 7d c6 b7 bc 64 a3 42 bb 37 eb cf bc
       0.02631874 -0.022433514 -0.002969944 -0.025380714
0002d0 99 4b 0f 3d 89 ec 56 bd fd 89 82 3c dc 55 3d 3c
       0.034984205 -0.05247167 0.015934939 0.011556115
0002e0 6b 27 03 3d 9a 71 4c bc 27 df 07 3c fa be 20 bc
       0.032020014 -0.012478257 0.00829295 -0.009811157
0002f0 83 2f e4 3c 5c da a6 bc 80 0d 46 bd bb d0 06 3d
       0.027854687 -0.020367794 -0.04835272 0.032913905
000300 76 d2 00 bd c9 52 00 bc 0d 6c 0b 3d bf 00 de 3c
       -0.03145071 -0.0078322375 0.034038592 0.027099965
000310 83 d5 1f bd b2 af 3a 3d b0 c6 92 3b ab 5c 0d 3d
       -0.03902198 0.045577712 0.004479252 0.034512203
000320 b2 f9 86 3c 55 78 91 bc 65 60 a3 3c 18 33 2d 3d
       0.016476486 -0.017757574 0.019943425 0.042285055
000330 e4 6d 48 3c 89 b1 2b 3d 68 d6 5a bd f4 fd 02 3d
       0.012233231 0.041917358 -0.05342713 0.03198047
000340 d6 19 51 3d 20 9d f4 bb 46 cf d5 3b 2e 2a 25 3d
       0.05105003 -0.00746502 0.006524953 0.04032343
000350 da 8c bb bc 58 fc 2e 3d 48 54 5b bd 08 f7 1e bc
       -0.022894312 0.042721123 -0.053547174 -0.0097024515
000360 d6 65 2b bd d3 46 c5 b9 ed d8 d8 bc a2 f7 9a bc
       -0.041845165 -0.00037627536 -0.026470626 -0.018916909
000370 77 6a 82 bb f1 c0 17 3d 7f be 69 3c b2 4a 26 bd
       -0.0039799768 0.037049238 0.014266609 -0.04059858
000380 7c 85 48 3d 6f e0 10 3d 7b fb 12 3d 55 d9 07 bd
       0.048955426 0.035370287 0.03588436 -0.03316625
000390 5f a2 41 3d a1 08 09 bd 97 fe f5 bc 98 85 0f bd
       0.04727399 -0.033455495 -0.030028624 -0.035039514
0003a0 d9 7d dd bc 65 7d 33 3d 2f cc 16 3d b9 b9 25 bd
       -0.027037548 0.043820757 0.03681582 -0.040460322
0003b0 5f 7a 14 bc 0b aa 5b 3d 05 84 40 bd 2f 1b 15 3d
       -0.009062379 0.053628962 -0.047000904 0.036402877
0003c0 ee f5 26 3d 4f 9f 27 3d 8e 3a 98 3c 10 04 b1 bc
       0.04076188 0.040923413 0.018582609 -0.021608382
0003d0 5a 24 d1 3c bf 7e 25 bd a6 d8 47 bc 9e e0 47 bd
       0.02553003 -0.040404078 -0.012197649 -0.048798196
0003e0 23 d6 98 bc 70 ff 32 3d 1b dd 88 3c c3 63 58 bd
       -0.018656796 0.043700635 0.016706994 -0.052829515
0003f0 85 ea 00 bd 90 79 a5 3c 85 2a 27 bd 72 71 51 bd
       -0.031473655 0.020199567 -0.040812034 -0.05113358

bn1.weight f4 [256]
000000 da 1d 7e 3f cd 01 7f 3f d8 61 83 3f 5d 7f 88 3f
       0.992643 0.9961212 1.0264235 1.0663868
000010 4b 4b 7c 3f 6c 3e 82 3f 0a d1 7c 3f 0e 91 84 3f
       0.9855239 1.01753 0.9875647 1.0356767
000020 45 45 80 3f aa b4 78 3f 2f cb 80 3f 44 06 7e 3f
       1.0021139 0.9715067 1.0062007 0.9922831
000030 07 7a 81 3f f7 52 7a 3f e9 7c 84 3f c7 86 83 3f
       1.0115365 0.97782844 1.035062 1.0275506
000040 d2 7c 77 3f 9b f6 75 3f ba 63 81 3f c4 f0 7b 3f
       0.96674836 0.96079415 1.0108559 0.98414254
000050 d5 75 80 3f 2a eb 82 3f 0e 81 7f 3f 5c 6b 81 3f
       1.003596 1.0228016 0.99806297 1.0110888
000060 15 9f 81 3f b9 8b 7a 3f 85 2b 80 3f 4a 97 80 3f
       1.0126673 0.9786945 1.0013281 1.004617
000070 9c 2e 82 3f 0a c4 7c 3f e8 c9 77 3f a9 01 81 3f
       1.0170474 0.9873663 0.9679246 1.0078632
000080 4e 3b 77 3f a5 59 82 3f 0e a3 78 3f 49 a8 83 3f
       0.96574867 1.0183607 0.971238 1.0285732
000090 ff 75 7c 3f c4 53 82 3f be 7f 80 3f ea f9 82 3f
       0.9861755 1.0181813 1.0038984 1.0232518
0000a0 9a 79 7d 3f d9 12 7b 3f 93 5c 7e 3f cd 94 80 3f
       0.99013674 0.98075634 0.9936001 1.004541
0000b0 e7 39 7f 3f fe 5c 80 3f 82 cb 86 3f 20 39 82 3f
       0.99697727 1.0028379 1.0530856 1.0173683
0000c0 da 3a 7d 3f 9f 39 75 3f 75 d9 82 3f c8 01 81 3f
       0.98917925 0.9579105 1.0222613 1.0078669
0000d0 dc 33 7b 3f 5a 49 7d 3f c9 38 7b 3f de 97 77 3f
       0.98126006 0.9894005 0.9813352 0.96716106
0000e0 d2 9c 79 3f 17 78 80 3f f8 39 83 3f 3d fe 7a 3f
       0.97504914 1.0036649 1.0252066 0.98044187
0000f0 48 13 85 3f 60 d0 81 3f 70 f4 7e 3f 14 9c 80 3f
       1.0396509 1.0141716 0.9959173 1.0047631
000100 02 af 80 3f 51 46 81 3f 33 41 80 3f 16 eb 78 3f
       1.0053408 1.0099584 1.0019897 0.9723371
000110 aa 15 76 3f 11 cf 80 3f 78 cb 7a 3f c0 ad 7e 3f
       0.96126807 1.0063192 0.9796672 0.9948387
000120 f4 1f 7b 3f 11 f3 7f 3f 1e 50 7f 3f ca 97 7d 3f
       0.9809563 0.99980265 0.99731624 0.99059737
000130 97 6b 80 3f b0 cb 7a 3f 7a 13 81 3f aa 5f 7f 3f
       1.0032834 0.9796705 1.0084069 0.99755347
000140 eb 42 82 3f 42 60 7c 3f 2f 76 82 3f 41 70 80 3f
       1.0176672 0.9858438 1.0192317 1.0034257
000150 bf e3 77 3f f4 44 81 3f 07 5f 7d 3f 79 aa 84 3f
       0.9683189 1.0099168 0.98973125 1.0364524
000160 0f 09 7b 3f bb 7c 78 3f 34 bd 7c 3f b1 55 7d 3f
       0.980607 0.97065324 0.987262 0.9895888
000170 6a 64 80 3f a4 43 7d 3f e0 7c 76 3f 49 4b 7e 3f
       1.0030644 0.98931336 0.96284294 0.99333626
000180 a1 57 80 3f 26 62 7f 3f 29 0e 82 3f 88 15 7a 3f
       1.0026742 0.9975914 1.0160571 0.97689104
000190 63 f8 7b 3f 14 20 83 3f 4a 44 82 3f c9 c9 80 3f
       0.98425883 1.0244164 1.017709 1.006158
0001a0 6a 51 80 3f a1 65 83 3f 66 f6 80 3f 73 87 7d 3f
       1.0024846 1.026539 1.0075195 0.99034804
0001b0 e4 37 81 3f 01 63 7f 3f c8 9f 7f 3f 4b 96 80 3f
       1.0095181 0.9976044 0.9985318 1.0045866
0001c0 c4 05 82 3f 02 2f 7a 3f 33 f8 7e 3f dd e2 75 3f
       1.015801 0.9772798 0.9959747 0.9604929
0001d0 3d b2 82 3f 70 a9 7b 3f 8b cd 7a 3f e7 d6 78 3f
       1.0210644 0.98305416 0.97969884 0.97202915
0001e0 25 ae 81 3f ab d1 84 3f ed 03 7b 3f 6d 29 7c 3f
       1.013127 1.0376486 0.98052865 0.9850071
0001f0 32 9c 7e 3f 88 39 7a 3f 5a 9d 75 3f 9d 5d 80 3f
       0.99457085 0.97744036 0.95943224 1.0028569
000200 b2 73 85 3f fb a2 82 3f 9f 14 7f 3f 1e 27 80 3f
       1.0425932 1.0205988 0.9964084 1.0011938
000210 0e fc 7b 3f 02 4b 85 3f 73 e5 75 3f 62 fd 72 3f
       0.9843148 1.0413516 0.96053237 0.9491788
000220 f9 24 81 3f 96 4f 80 3f ff 11 80 3f 63 0c 80 3f
       1.0089408 1.0024288 1.0005492 1.000378
000230 8f 83 81 3f 4e e3 7b 3f 9b b5 7c 3f d6 bf 80 3f
       1.0118273 0.98393714 0.9871461 1.0058544
000240 3f 29 83 3f d8 b6 7d 3f e4 ad 78 3f 58 03 79 3f
       1.0246962 0.9910712 0.97140336 0.9727073
000250 71 c1 7a 3f e0 b1 7b 3f 76 e1 80 3f ac 40 7e 3f
       0.9795142 0.9831829 1.0068805 0.9931743
000260 7f a9 7d 3f a7 09 7e 3f cf b9 7f 3f 5c 34 82 3f
       0.99086756 0.9923348 0.99892896 1.0172229
000270 f8 05 80 3f 18 cc 80 3f 87 61 87 3f 63 5e 7a 3f
       1.0001822 1.0062284 1.0576638 0.9780027
000280 10 e7 80 3f 7d df 7c 3f 66 78 7a 3f fa 42 7d 3f
       1.0070515 0.98778516 0.97839963 0.98930323
000290 23 d3 7e 3f 4f d4 7f 3f fd aa 7e 3f 4b e3 84 3f
       0.9954092 0.9993333 0.9947966 1.0381864
0002a0 a1 0b 83 3f 62 c4 81 3f 4d dc 80 3f 60 85 7a 3f
       1.0237924 1.0138056 1.006723 0.97859764
0002b0 ff d0 82 3f b2 56 80 3f 5b dc 7b 3f 61 b3 7d 3f
       1.022003 1.0026457 0.9838311 0.99101835
0002c0 1f f7 78 3f 2e e9 80 3f e8 f6 7d 3f 4c 8e 80 3f
       0.97252077 1.0071161 0.99204874 1.0043426
0002d0 bc ce 7e 3f 05 84 7f 3f 7d aa 87 3f fb 34 83 3f
       0.995342 0.9981082 1.0598904 1.0250543
0002e0 66 fd 84 3f 91 d7 82 3f 11 c1 7d 3f 6b b0 7d 3f
       1.0389831 1.0222036 0.9912272 0.9909732
0002f0 46 1c 7e 3f 5a d3 82 3f 23 ad 7a 3f 42 bf 77 3f
       0.9926189 1.0220749 0.97920436 0.9677621
000300 a9 ab 80 3f 03 73 7e 3f bb 6c 7d 3f 35 41 7d 3f
       1.0052387 0.99394244 0.98994035 0.98927623
000310 20 16 7e 3f 8b d2 81 3f 65 c2 82 3f d9 9a 83 3f
       0.9925251 1.0142378 1.0215575 1.0281631
000320 60 35 7c 3f 8d c1 80 3f 72 24 79 3f df 2c 80 3f
       0.98518944 1.0059067 0.97321236 1.0013694
000330 5e c6 81 3f 2c f7 7d 3f 14 b0 7a 3f 88 72 80 3f
       1.0138662 0.9920528 0.97924924 1.0034952
000340 c8 21 84 3f 7a 37 80 3f 80 ae 7b 3f 62 f3 7f 3f
       1.0322809 1.001693 0.9831314 0.9998075
000350 ee 8e 87 3f e5 6b 80 3f eb 23 7d 3f 03 0a 7e 3f
       1.0590494 1.0032927 0.9888293 0.99234027
000360 b1 78 7a 3f ba f8 7b 3f 88 d2 7d 3f 12 71 79 3f
       0.9784041 0.984264 0.9914937 0.97438157
000370 c8 3b 81 3f 07 22 7e 3f 06 2e 88 3f 4a 93 78 3f
       1.0096369 0.9927067 1.0639045 0.97099745
000380 b1 d1 81 3f 34 13 7b 3f c6 7a 82 3f 40 c3 79 3f
       1.0142118 0.98076177 1.0193717 0.9756355
000390 c8 a2 80 3f c7 34 81 3f ad 7f 78 3f 96 4e 7f 3f
       1.0049677 1.0094231 0.9706982 0.9972929
0003a0 20 7d 7c 3f ff 4a 87 3f 7b 3f 7f 3f 05 e3 7e 3f
       0.98628426 1.0569762 0.9970624 0.99565154
0003b0 56 c6 80 3f 2e 6c 82 3f d7 ef 76 3f 85 c4 7c 3f
       1.0060527 1.0189264 0.96459717 0.98737365
0003c0 1a 63 7c 3f 2d 76 79 3f f6 65 85 3f 17 37 80 3f
       0.98588717 0.97445947 1.0421741 1.0016812
0003d0 f5 ce 81 3f be d9 80 3f 18 8d 80 3f 8c be 83 3f
       1.0141283 1.006645 1.0043058 1.0292525
0003e0 ce 0d 78 3f 03 59 7b 3f 88 56 7c 3f d9 14 80 3f
       0.96896064 0.98182696 0.98569536 1.0006362
0003f0 44 3a 80 3f c2 8c 81 3f c6 f6 7d 3f 58 cf 80 3f
       1.0017781 1.0121081 0.9920467 1.0063276

bn1.bias f4 [256]
000000 47 cb f0 bc ba aa 35 bc bd d1 69 3b e1 04 08 3d
       -0.029393805 -0.011088068 0.0035677992 0.033207778
000010 e9 4f da bc 32 6c 59 3b 94 83 1a 3c d9 4c d8 3c
       -0.026649432 0.0033176062 0.009430785 0.026403831
000020 31 7c 63 3c f2 cc 0b bc 92 dd 90 bb 61 2b 30 bc
       0.01388459 -0.0085327495 -0.0044209445 -0.01075253
000030 82 f3 d9 3c 11 d8 75 bc e1 2f 16 3d 0a 03 8b 3b
       0.026605371 -0.0150051275 0.036666755 0.0042423056
000040 1c a6 2b bc 60 8e 15 bd 06 5d 8e bc db 7b 80 bb
       -0.010476615 -0.036512733 -0.017378341 -0.0039210147
000050 b3 9a 7c 3c 58 51 b0 3c 54 2c 40 3b c6 c9 ca 3c
       0.015417743 0.021523163 0.0029323297 0.024754416
000060 88 aa cc 3b 8a ea f7 bc 9d a6 74 bc 93 89 18 bc
       0.006245915 -0.030263204 -0.014932302 -0.009310144
000070 ae 90 81 3c 4f 88 c1 bc 7b 19 4d bc 38 21 b4 3c
       0.015816059 -0.023624567 -0.012518282 0.021988496
000080 77 ca 60 bc 6e 88 ad 3c bf 09 13 bd 12 02 ba 3c
       -0.013720146 0.021183219 -0.035897966 0.022706065
000090 88 e8 e7 bb 37 ba 78 3c dd 80 5e 3c 7f b4 5e 3c
       -0.0070772804 0.015181116 0.013580528 0.013592838
0000a0 80 40 71 bc 1a 74 2a bc d4 f0 ec bc 10 0d ac 3c
       -0.014724851 -0.010403657 -0.02892343 0.021002322
0000b0 23 60 81 bb 1c 5f 16 bc 2f a6 cb 3c 3a 73 5f 3b
       -0.003948228 -0.009177949 0.024859516 0.003409578
0000c0 ab 8b 1b bb 47 14 23 bd e1 91 a8 3b c7 8a ad 3b
       -0.0023734372 -0.03981426 0.0051443432 0.0052960846
0000d0 db 58 4f bb f8 83 d0 bb e0 2a fd bc f4 6c c1 bc
       -0.0031638655 -0.006363388 -0.030904233 -0.023611523
0000e0 b5 1d d8 bc 08 94 aa 3b 60 f2 19 3d e3 a5 5c 3a
       -0.026381353 0.005205635 0.037584662 0.0008417053
0000f0 ef c2 45 3c 7e 32 09 3c 5e 80 78 3c c3 3a a8 ba
       0.012070402 0.008373855 0.015167324 -0.0012834895
000100 a9 27 f2 bb b1 de 26 3c 2d 52 95 bc 53 fb 6b bc
       -0.0073899818 0.01018493 -0.018227661 -0.014403182
000110 6f 9e a5 bc c9 9e fe 3b 41 57 15 bd 7f cf 65 ba
       -0.020217149 0.0077703935 -0.036460165 -0.0008766576
000120 a9 46 f0 bc 53 f0 80 bc c1 e9 58 bc 50 9e 6b 3b
       -0.029330568 -0.015739596 -0.013239325 0.0035952516
000130 e9 2f 50 bc ec ae e5 bc aa 43 9c 3c 2d 4f a9 b9
       -0.012706735 -0.02803751 0.019075233 -0.00032293182
000140 4d 30 72 3c 49 f5 62 bc a0 a2 c9 3b 6d af 62 3c
       0.014782024 -0.013852426 0.0061534196 0.01383577
000150 3c d9 9b bc 2f fc f6 3a ae ec b3 3a cb 8c 49 3c
       -0.019024484 0.0018843467 0.0013727152 0.012301634
000160 37 bb bf bc 01 b8 91 bc e2 9a 40 bc c4 4a 9e bc
       -0.0234047 -0.017787935 -0.011755677 -0.01932276
000170 f6 f7 0c bc 55 6c 1d 3c e7 98 ae bc 33 d8 27 ba
       -0.00860404 0.009608348 -0.021313144 -0.00064027606
000180 4c 4c b0 3c 2f 27 9b bc f8 18 26 3d 07 9e dc bc
       0.021520756 -0.018939583 0.040551156 -0.026930822
000190 12 8b 67 bc 84 28 54 3c 2c 81 de bb 5f a5 4d 3c
       -0.014132278 0.012949113 -0.006790301 0.012551635
0001a0 3c 14 34 3c 65 6b 60 3c 72 c0 58 3c bd c9 6b 3a
       0.010991152 0.01369748 0.013229476 0.00089946
0001b0 47 0c 4b 3c 2b a8 74 bc 2a 96 53 bc 3a e0 09 3d
       0.012393064 -0.0149326725 -0.01291422 0.033661105
0001c0 b8 d6 f7 3c a4 e2 c2 bc 13 3d 2b 3c d0 7b 2b bd
       0.030253753 -0.023789711 0.010451573 -0.041866124
0001d0 d6 04 22 3d cf f9 b9 bc f2 47 81 bc c7 a3 95 bc
       0.039555393 -0.022702126 -0.015781377 -0.018266572
0001e0 7b 75 be 3c d1 9f 02 3d ab 88 bf bc 32 b8 b7 bb
       0.023249378 0.031890694 -0.023380598 -0.0056066746
0001f0 89 d3 8f bc e7 0f 9f bc 19 cd 27 bd f9 c5 80 bc
       -0.017556923 -0.019416763 -0.04096708 -0.0157194
000200 9a 36 0d 3d 31 5f 13 3c 75 ac da bb 78 10 d8 3b
       0.0344759 0.008994863 -0.0066733905 0.00659376
000210 ea 87 3f bc 1b ba 27 3d 5d 0e 10 bd c2 d6 04 bd
       -0.011690119 0.04094897 -0.035169948 -0.03243137
000220 4a c6 21 3c d8 62 87 3b 0a 53 7a 3c aa ab 05 3b
       0.009873936 0.004131656 0.015278587 0.002039651
000230 e0 21 5c bb 1d b7 c9 bb 4b 55 20 bc 45 92 83 3c
       -0.0033589527 -0.006155862 -0.00978596 0.016060958
000240 c2 e8 d8 3c da 87 1b 3c ef 9f 06 bd ec 80 7d bc
       0.026478175 0.009492839 -0.03286737 -0.015472632
000250 2c 44 e0 bb 4c 49 2c bc 00 2a 28 3c 19 92 05 3b
       -0.006844064 -0.010515522 0.01026392 0.002038127
000260 ad 96 33 bc af 43 b2 bb fa d7 50 bc f6 4a 35 bb
       -0.010961217 -0.0054401974 -0.012746805 -0.0027663088
000270 ed 8e 98 3c 8c aa 84 bb 13 1a 44 3d 7d be 29 bc
       0.01862284 -0.004048651 0.04787643 -0.010360357
000280 db fc 8a 3b 2d 92 35 bc 01 cf 26 bc 09 6c a0 bc
       0.0042415685 -0.011082214 -0.0101811895 -0.019582765
000290 de cd b2 bb a8 3b d6 3b d7 84 07 3c 2d 37 c4 3c
       -0.00545667 0.0065378733 0.008271418 0.023952091
0002a0 51 b8 27 3c c1 52 ca 3b f6 ff 62 3b 93 c9 8a bc
       0.010236816 0.006174416 0.0034637428 -0.016941821
0002b0 48 8b 38 3b 41 b4 3b 3c 48 83 8e bc 8f eb ad bc
       0.002815919 0.01145655 -0.017396584 -0.021230487
0002c0 95 d1 9b bc 78 fc 22 bb 9d f3 4e bb 03 f1 33 3c
       -0.019020835 -0.0024869721 -0.003157831 0.010982755
0002d0 8f db de bc 56 ef 48 bc 8f 96 29 3d 8b a3 31 3d
       -0.027204303 -0.012264093 0.04140335 0.043368857
0002e0 ae ff 8b 3c e3 84 6f 3c 9a 3d a4 ba c3 ac 8d bc
       0.017089691 0.014619085 -0.0012530566 -0.017294293
0002f0 7b 91 8e bc 37 42 a3 bc 7e 58 01 bc 8a 61 67 bc
       -0.017403355 -0.019929035 -0.007894633 -0.014122376
000300 8d 25 20 b9 0f 28 80 3b 94 41 38 3c f4 5b 74 bc
       -0.00015272778 0.0039110254 0.011246104 -0.014914501
000310 33 6f 47 3c 93 4c ad 3b c0 22 ec bb 2c 1b 6f 3c
       0.012172508 0.0052886694 -0.007206291 0.014593881
000320 aa e7 44 bc 56 bb 4b 3c 37 8c 06 bd c4 2d de bb
       -0.012018124 0.012434801 -0.032848563 -0.006780358
000330 33 50 ee bb a7 a9 a1 bc 94 57 4b bc 3e ac 2a 3c
       -0.007272744 -0.019734217 -0.012411017 0.010417042
000340 e7 a6 24 3c f7 fb 58 3c fa 31 00 bc f5 74 a8 3c
       0.010049558 0.013243667 -0.007824415 0.020563582
000350 8b ee 3a 3d 84 aa 1d bb a5 b7 aa bb f4 ca c4 3b
       0.04563765 -0.0024057934 -0.0052098804 0.006005639
000360 0d c3 0a bd 04 09 e3 bb 1a ac b7 bc e0 15 10 bd
       -0.03387742 -0.006928565 -0.022420932 -0.03517711
000370 53 7a 9c 3c 24 03 ba bb ba c4 eb 3c dd a4 5c bc
       0.019101297 -0.005676644 0.02878033 -0.013467041
000380 b4 04 aa 3c 51 3e d7 bc a1 99 7e 3c 03 49 ce bc
       0.020754196 -0.026274832 0.015539558 -0.0251813
000390 c1 ae 3a 3c 98 8a d6 3b 25 b7 8a bc f8 bf 52 bb
       0.011394204 0.0065472834 -0.016933033 -0.003215788
0003a0 9b 76 cf bc 99 eb fb 3c a9 55 67 bc e7 55 b4 3a
       -0.02532511 0.03075199 -0.014119544 0.0013758511
0003b0 af ac 9f 3c 08 bc 06 3c bc 8f 3a bd d2 51 57 ba
       0.019491522 0.008223541 -0.045547232 -0.00082137913
0003c0 43 e6 42 bc c3 07 4c bc 19 f3 d9 3c 6b 08 23 bc
       -0.011895719 -0.012453022 0.026605176 -0.0099507375
0003d0 4e d0 01 3c 9a 4f ac 3c df 7d 3c 3c 17 16 8c 3c
       0.007923199 0.02103405 0.011504619 0.017100377
0003e0 93 40 45 bd 3e 42 07 bd 37 85 da bc aa ab da bb
       -0.048157286 -0.033022158 -0.02667485 -0.006673296
0003f0 40 37 32 bc 8d 03 61 3c 5c e4 73 3a c6 ee 10 3d
       -0.01087743 0.013733757 0.00093037426 0.035383962

bn1.running_mean f4 [256]
000000 2b a0 74 be f8 e9 f4 3d 1e 3f c2 3d 7f 14 ee bd
       -0.23889224 0.119586885 0.09484695 -0.11625003
000010 61 ea 55 3e f1 4c c4 3d 6c fb 09 3c df f8 8f bd
       0.2089019 0.09584988 0.00842176 -0.0702989
000020 b0 50 9a 3e 87 50 ee 3b 48 c2 cd 3d 71 ed da 3d
       0.30139685 0.007272783 0.10046822 0.106898196
000030 2b 61 36 be fa 53 9c bd c3 e4 1d be b4 44 48 bd
       -0.17810504 -0.07633205 -0.15419297 -0.048893645
000040 41 83 e8 3d e3 aa 8f 3b f8 12 b5 3d 01 18 af 3c
       0.1135316 0.004384385 0.088415086 0.02137375
000050 b2 b6 db 3d 09 24 3f bd f7 01 11 be a7 70 bd 3d
       0.10728206 -0.046665225 -0.14160906 0.09250002
000060 42 14 a2 3a 9d 43 58 bd 38 93 d4 bd 7d d2 50 3d
       0.0012365656 -0.052798856 -0.10379642 0.050981987
000070 cb 37 6b 3e 9d 64 48 bd 87 55 c8 3c ca 35 91 3d
       0.22970502 -0.048924077 0.024454845 0.070903376
000080 b6 2e 0a be b7 c0 29 be 5c 01 16 be 28 58 b5 3d
       -0.13494381 -0.16577421 -0.14648956 0.08854705
000090 ac 5f 35 be 21 9d 3e be 27 cd eb 3d f1 06 40 be
       -0.17712277 -0.18614627 0.11513739 -0.18752648
0000a0 a3 61 d5 3d ae 38 a2 3d 79 a6 08 3e c6 c1 51 3e
       0.10419013 0.07920967 0.13344754 0.20484075
0000b0 af c5 12 be 36 62 1f bc 5d 6d bd bd d2 58 96 bd
       -0.14333223 -0.009728005 -0.09249375 -0.0734116
0000c0 aa a9 ef bc 00 68 fe bc 46 a4 52 3c d4 fc 20 3e
       -0.029255707 -0.03105545 0.012856549 0.15721446
0000d0 26 f8 b4 3d 59 4b c1 bc 15 2a 61 bd 11 f7 06 3d
       0.08836393 -0.023595499 -0.054971773 0.032950465
0000e0 da cf 01 bd 7e db 8e bd 68 5c 2e be 70 6e 06 3e
       -0.031692363 -0.069754586 -0.17027438 0.13128066
0000f0 e5 3d 0b bd fc b5 63 be bc 82 02 3e f9 83 85 3e
       -0.033994574 -0.2223739 0.12745184 0.2607725
000100 32 27 27 3d 53 63 59 3e dc 84 9f bc 98 f6 02 bd
       0.040808864 0.21229295 -0.019472532 -0.03197345
000110 99 8f 92 3c a7 8a 9e 3d a7 12 ec 3d 27 3e 65 3d
       0.017890738 0.077412896 0.11526995 0.055967476
000120 d5 c0 ba 3d 6f a4 25 be 8e 2a c4 bd 69 ce 1e bd
       0.09118811 -0.16176008 -0.09578429 -0.038771067
000130 87 bc ac bd 3f 70 45 bd e3 a8 b4 3b f8 14 26 3e
       -0.08434396 -0.04820275 0.005513297 0.16218936
000140 be 80 de bc fe 33 a0 3d 01 c6 00 3e dd 4e 11 3e
       -0.027160998 0.07822417 0.12575532 0.1419024
000150 de 32 00 3d 95 96 ee bd 37 58 3d bd a8 71 59 be
       0.03129851 -0.11649815 -0.046226706 -0.21234763
000160 83 f3 0d be bf 6f 8f 3d 84 dc e7 bd ae 1e 4d bd
       -0.13862424 0.07003736 -0.11321357 -0.050078087
000170 5e 98 3d bd 13 2a 88 3d df 92 f8 bd cf c9 10 bc
       -0.046287887 0.0664865 -0.121373884 -0.008837177
000180 4a 31 be 3d e4 1d 90 3e 79 96 69 3e d6 46 48 be
       0.09286745 0.28147805 0.22811307 -0.19558272
000190 c9 55 a7 3d 9a f8 4b bd b4 1e 64 3e 51 86 08 be
       0.08170659 -0.04979763 0.22277337 -0.13332488
0001a0 ba 9c 9b be bf e9 9b 3d fc 13 22 3e 8f a9 66 3d
       -0.3039301 0.07612943 0.15827936 0.056314047
0001b0 0f e2 c7 3e 1b 13 ba 3d cf 2a 54 bd 9b 29 f4 3c
       0.39039657 0.09085675 -0.051798638 0.029804995
0001c0 07 97 f3 3d bd fe 28 be dc 7f 39 bc 90 0c 5d be
       0.118940406 -0.16503425 -0.011321988 -0.21586823
0001d0 2e 08 11 bd 51 05 33 3e bc ed 87 3e c0 b5 15 be
       -0.03540819 0.17482497 0.26548564 -0.14620113
0001e0 90 7a 89 bc 4a 3b 4e be bd 1e 55 bc 5d 7c 0f be
       -0.016782075 -0.20139804 -0.013007817 -0.14012285
0001f0 fe 1a 85 bb b9 bf 33 be c0 cc 16 3d 86 9c 71 3e
       -0.0040620556 -0.17553605 0.03681636 0.23594865
000200 65 b2 4c be cd 15 7c bd 31 f4 4c 3e 67 de 2a 3e
       -0.19989927 -0.06154423 0.20015027 0.16686402
000210 6a cd 74 be af 87 05 bd c7 b7 77 be 99 7c 08 3e
       -0.23906484 -0.0326001 -0.24191199 0.1332878
000220 fa 0e a0 3d d5 a0 49 be 92 58 cd 3c cf 61 a2 bd
       0.078153566 -0.19690259 0.025066648 -0.07928812
000230 0a 9d 78 3d f5 c1 82 bd ad 88 25 bd f2 b8 f7 3d
       0.06069664 -0.063846506 -0.040413547 0.120958224
000240 24 43 1d 3e aa aa 67 bd 7b aa 01 3d 69 99 89 bc
       0.15357643 -0.056559242 0.031656723 -0.016796784
000250 d9 44 99 be b5 2c d8 bd c3 17 33 bd 4d 42 72 be
       -0.2993534 -0.10555402 -0.043723833 -0.23658104
000260 4a cf ee bd c1 28 15 be ae 79 0d 3e 1c 94 ef bd
       -0.11660631 -0.14566328 0.13815948 -0.116981715
000270 84 e6 30 be 27 ed 03 bd d2 40 70 be 79 f8 f4 bd
       -0.17275435 -0.032208588 -0.23462227 -0.11961455
000280 09 f1 89 3c 2f fc 8b bd a1 ff ba bc 5a 59 0c 3e
       0.016838567 -0.068352096 -0.022826971 0.1370596
000290 d8 d9 10 be 3a d5 de bd 16 ea 41 be cd e1 08 be
       -0.14145601 -0.108805135 -0.18936953 -0.13367386
0002a0 f7 a3 07 be 09 8f 78 be 74 0c 27 3a 96 33 32 3d
       -0.13246141 -0.24273314 0.00063724 0.043506227
0002b0 20 40 05 bd 40 26 09 3e 1d 12 f0 bd c3 f9 06 be
       -0.032531857 0.13393497 -0.11722205 -0.13181214
0002c0 7f 43 a8 bc 23 29 42 be 51 f1 c3 3d 92 c7 32 3c
       -0.020539997 -0.18961005 0.09567512 0.010911839
0002d0 69 55 c9 3d 4b 6a 27 be cd 68 a3 be c5 48 38 3d
       0.09830744 -0.16349141 -0.31915894 0.044991273
0002e0 6b c9 4c bd 70 ad 8c be 82 a2 99 3e 71 8b 80 3d
       -0.049996775 -0.27476072 0.30006796 0.06276596
0002f0 51 5c 8a 3d b4 26 06 3e 34 6e 93 bd a6 3e 52 3e
       0.06755889 0.13100702 -0.07198754 0.20531711
000300 32 16 8c 3d c7 57 0a be 95 ab df 3d d7 3e 1a 3e
       0.06840171 -0.13510047 0.109213986 0.15063034
000310 84 59 ed 3c 06 8e 03 3e 74 c6 d4 bd 45 17 12 3e
       0.028973348 0.12847146 -0.103894144 0.14266689
000320 e5 c6 d3 3b ca 8a 47 be 4b ed 7e bd e3 6b df bc
       0.006462919 -0.19486538 -0.06223802 -0.027273124
000330 35 2d 6c bc 0d 5d 6f 3d 5b 92 53 bd d6 9d 56 bd
       -0.014415075 0.05843835 -0.051653247 -0.052396618
000340 4a d9 3b be 36 b3 30 3d 9e d2 56 bd 76 c4 df 3b
       -0.18344608 0.04313966 -0.052446954 0.00682884
000350 49 db 0e be 02 6e 1f be 08 71 0d be 0c 2f 43 be
       -0.13950838 -0.15569308 -0.13812649 -0.19060916
000360 c1 4d b8 3d 3e 4c 19 3c c4 9a 4d 3e 3f 54 bd 3d
       0.089992054 0.009356556 0.2007857 0.09244584
000370 95 8e f1 3d b5 9c 6a 3e 90 9a 27 be 0d b1 5d be
       0.117947735 0.22911341 -0.16367555 -0.21649571
000380 0e 58 86 3c 14 13 21 bd 8d b2 e3 3d 67 c4 da bd
       0.01639941 -0.039324835 0.1111804 -0.10681992
000390 82 e0 07 be a1 36 a0 bd 88 e8 79 be c7 1e fc ba
       -0.13269237 -0.0782292 -0.2440511 -0.0019235247
0003a0 59 55 2a be b7 6f 37 be 3a e0 1b be 35 fb 22 be
       -0.1663412 -0.1791371 -0.15222254 -0.1591614
0003b0 4c 0e 97 3d 4b cd ed bc 52 56 bc bd e8 5c 93 bc
       0.07375774 -0.029028555 -0.09196152 -0.017988637
0003c0 81 29 21 3e 8b 36 bd 3b 21 92 49 be d9 9e 44 3e
       0.15738489 0.0057743243 -0.1968465 0.1920122
0003d0 28 19 6c 3b 2d 92 5e bd 48 28 88 3d 82 a6 51 3d
       0.0036025736 -0.054338623 0.06648308 0.051184185
0003e0 6d ed da 3d f6 9d 32 3e 83 f0 24 be bf 4e 3e bd
       0.106898166 0.1744307 -0.16107373 -0.046461817
0003f0 37 0c 58 3e ce 31 6a 3d cc 30 c6 3d 05 f2 d2 3d
       0.2109841 0.057176404 0.09677276 0.10300068

bn1.running_var f4 [256]
000000 62 fe e6 3e 3f 73 de 3e 05 ac dc 3e 0b 87 b0 3e
       0.45115954 0.434473 0.4309999 0.3447803
000010 54 2a dd 3e ca c1 d7 3e 6e 6d d8 3e 2e f4 d2 3e
       0.43196356 0.42140037 0.42270988 0.4120192
000020 7f 65 d5 3e 30 41 ca 3e 1a 8b d4 3e 1e 71 eb 3e
       0.41678998 0.3950286 0.41512376 0.4598474
000030 47 78 d3 3e 9a f9 f8 3e 4b 17 d0 3e 12 d8 c1 3e
       0.41302702 0.4862793 0.4064277 0.3786016
000040 0d 10 c4 3e 94 13 cc 3e c9 37 e4 3e 1d 2c df 3e
       0.38293496 0.39858687 0.4457381 0.43588343
000050 07 4e c4 3e eb c6 ca 3e 5b 5e c0 3e e8 c3 cd 3e
       0.3834078 0.39604887 0.37571988 0.40188527
000060 c8 5d e1 3e 75 dd c5 3e c8 61 c3 3e 20 98 d4 3e
       0.44016862 0.3864552 0.3816054 0.41522312
000070 16 18 e2 3e 22 71 be 3e 60 68 df 3e bf 68 e2 3e
       0.44159 0.37195688 0.4363432 0.4422054
000080 7e 4f cc 3e 91 0f cc 3e ea 67 cf 3e 09 93 dd 3e
       0.39904398 0.39855626 0.40508968 0.4327624
000090 4d d7 d9 3e 46 a3 cc 3e f0 bf e0 3e 0b c5 ea 3e
       0.42547074 0.39968318 0.43896437 0.45853457
0000a0 cc 35 d3 3e 9a 48 d8 3e 83 9d be 3e bb 7a c8 3e
       0.4125198 0.4224289 0.37229547 0.39156136
0000b0 44 5f f4 3e a8 6d 15 3f 01 15 bf 3e 2d 2f ae 3e
       0.47728932 0.5837045 0.37320712 0.34020367
0000c0 a4 15 c9 3e 54 13 cd 3e 94 91 d8 3e 52 6e d2 3e
       0.39274323 0.4005381 0.42298567 0.41099793
0000d0 cd c8 d8 3e cc f3 eb 3e 88 6d d0 3e d6 0d cf 3e
       0.423407 0.4608444 0.40708566 0.40440243
0000e0 78 85 de 3e d5 be ca 3e cb 0c f1 3e aa 92 d3 3e
       0.43461204 0.39598718 0.47080073 0.41322833
0000f0 f4 a4 ec 3e 74 2f d4 3e 7e 29 ce 3e f5 30 ce 3e
       0.462196 0.41442454 0.4026603 0.40271726
000100 7c dc e3 3e 26 2d d7 3e 4d 8d c3 3e c9 ca b2 3e
       0.44504154 0.42026633 0.3819374 0.34920338
000110 fb 06 bf 3e 4e 54 f7 3e f5 a1 d7 3e 08 07 c9 3e
       0.37310013 0.48306507 0.4211575 0.39263177
000120 5c d3 de 3e 46 8d c8 3e 71 16 c9 3e fb 3c c5 3e
       0.4352063 0.39170283 0.39274934 0.38523087
000130 71 85 da 3e 37 27 ef 3e b1 6e f1 3e e4 01 d9 3e
       0.42679933 0.46709606 0.47154763 0.42384255
000140 d7 87 de 3e 35 89 b3 3e 9f 3d ce 3e b8 64 ce 3e
       0.43463013 0.35065618 0.40281388 0.40311217
000150 68 4e c0 3e df 12 d0 3e fd 14 e8 3e 66 2c dd 3e
       0.3755982 0.40639398 0.45328513 0.43197936
000160 0b ee d7 3e 31 31 c9 3e 3f 9d d3 3e ed ab d5 3e
       0.421738 0.39295343 0.41330907 0.4173273
000170 18 ce ce 3e b9 a1 d0 3e 89 5d d5 3e 13 dc c4 3e
       0.40391612 0.40748385 0.41672924 0.38449153
000180 4e 05 c9 3e f4 b1 dc 3e 9d 18 fa 3e fd cf c0 3e
       0.3926186 0.43104517 0.48846903 0.37658682
000190 72 46 cc 3e f1 ec b0 3e 24 af e7 3e 31 f1 b8 3e
       0.39897496 0.34555772 0.4525081 0.36121514
0001a0 44 04 f0 3e 77 97 d7 3e a2 41 c2 3e 42 ca bd 3e
       0.46878254 0.42107746 0.379407 0.37068373
0001b0 73 b0 c6 3e 20 bd c4 3e 6c e0 d2 3e 93 ad e9 3e
       0.38806495 0.3842554 0.41186845 0.4564024
0001c0 53 e8 cd 3e 8a 2e cc 3e 1f 9c c5 3e b5 aa da 3e
       0.40216312 0.39879256 0.38595673 0.42708364
0001d0 35 8e c4 3e 6e 57 e8 3e 96 06 de 3e be 77 d0 3e
       0.38389745 0.45379204 0.433644 0.40716356
0001e0 18 9c de 3e a5 f6 d4 3e ac db b7 3e 43 bc ce 3e
       0.43478465 0.41594425 0.35909784 0.40378007
0001f0 ca 6f f0 3e 8f 91 ce 3e e6 f8 ca 3e f5 92 e8 3e
       0.46960288 0.40345427 0.3964302 0.4542462
000200 4d 7a d4 3e c2 b8 d0 3e 73 65 da 3e 95 18 c7 3e
       0.41499558 0.4076596 0.42655525 0.38885942
000210 5a 20 b4 3e 72 38 b7 3e 66 49 bf 3e c2 af e4 3e
       0.35180932 0.35785252 0.37360686 0.44665343
000220 7a 94 e1 3e be fd c9 3e 74 93 c9 3e a1 56 cc 3e
       0.4405859 0.39451402 0.3937031 0.39909843
000230 d7 2d d1 3e 56 3a c5 3e 5e 2a e2 3e 30 55 d5 3e
       0.40855286 0.3852107 0.4417295 0.41666555
000240 10 f2 c3 3e 74 b8 f6 3e ce 34 c7 3e 38 27 bc 3e
       0.38270617 0.48187602 0.38907474 0.36748672
000250 36 60 d2 3e e5 e0 c9 3e db e0 c8 3e 83 da ec 3e
       0.41089028 0.39429393 0.3923405 0.4626046
000260 14 0d ce 3e 87 dc fc 3e eb 67 c9 3e ab 92 e8 3e
       0.40244353 0.49387 0.39337096 0.454244
000270 f3 af ca 3e 71 12 d2 3e 3a 4a b0 3e 0a 43 c6 3e
       0.39587364 0.41029695 0.3443163 0.38723022
000280 38 e0 ca 3e f4 71 bc 3e e0 b8 de 3e e1 ff d7 3e
       0.3962419 0.3680569 0.43500423 0.42187408
000290 ab ea cc 3e 61 7d ca 3e c3 7e d3 3e c3 c2 d1 3e
       0.40022787 0.39548782 0.4130765 0.40968904
0002a0 ef dd c0 3e eb 7a d1 3e f0 c9 d6 3e c1 05 d4 3e
       0.37669322 0.4091409 0.4195094 0.4141064
0002b0 7f 31 ed 3e 53 39 bf 3e bc c2 ce 3e 67 dc da 3e
       0.46326825 0.37348422 0.40382946 0.4274628
0002c0 8a 2b d6 3e de b7 d9 3e 4e 61 da 3e 5b 02 be 3e
       0.41830093 0.42523092 0.42652363 0.37111172
0002d0 e0 96 d8 3e 15 c3 db 3e d2 c5 b3 3e bd bf ce 3e
       0.42302608 0.42922273 0.35111862 0.4038066
0002e0 77 2b da 3e 67 10 c7 3e 8a a5 cc 3e 23 3f c9 3e
       0.42611286 0.38879701 0.39970046 0.39305982
0002f0 4e c3 d7 3e bc f3 e8 3e 6b 43 ce 3e 3b ef b7 3e
       0.42141193 0.45498455 0.4028581 0.35924706
000300 e1 bc dc 3e 0a 78 df 3e a3 54 b6 3e ea cb de 3e
       0.43112853 0.4364627 0.35611448 0.4351495
000310 a3 ae c6 3e 95 b0 df 3e 9a 1f cb 3e 13 f2 bc 3e
       0.38805112 0.4368941 0.39672548 0.36903438
000320 79 0f e3 3e 54 6e d7 3e cb 29 f7 3e 79 db ef 3e
       0.44347742 0.4207636 0.48274073 0.46847132
000330 cf 86 f8 3e 28 6a e2 3e eb a7 bc 3e b0 e0 d3 3e
       0.4854035 0.44221616 0.3684686 0.4138236
000340 4f 9f ea 3e cb 70 df 3e be 69 af 3e 55 74 ac 3e
       0.45824668 0.43640742 0.34260362 0.33682504
000350 9f f0 d9 3e b6 f3 d0 3e 32 bc dd 3e a0 a9 c7 3e
       0.42566392 0.40810937 0.43307644 0.389966
000360 af b5 d8 3e ed f7 f0 3e ef 7b d1 3e 5c db d9 3e
       0.42326114 0.47064152 0.40914866 0.4255017
000370 25 02 ca 3e 1d a0 c9 3e 2b 13 c2 3e ea 0e e0 3e
       0.3945476 0.3937997 0.3790525 0.4376138
000380 1d ef d8 3e 74 0e d7 3e 69 c3 db 3e e8 e1 d9 3e
       0.4236993 0.42003214 0.42922524 0.42555165
000390 db a8 c6 3e 57 32 d9 3e b2 bb e3 3e 7a 51 d2 3e
       0.38800701 0.4242122 0.44479138 0.41077787
0003a0 f0 68 c6 3e 9a 36 e6 3e 58 09 c5 3e 2c 0d cb 3e
       0.38751936 0.44963533 0.3848369 0.39658487
0003b0 cc 00 d2 3e 84 0a c5 3e a2 4a a9 3e ba f8 e4 3e
       0.41016233 0.38484585 0.33064753 0.44721013
0003c0 8e 32 d5 3e 1a 08 a3 3e 6c c0 c1 3e 9d ac c0 3e
       0.41640133 0.31842119 0.3784212 0.37631693
0003d0 ef 5d d3 3e bd 80 dd 3e 89 f0 d5 3e cd cf f3 3e
       0.41282603 0.43262282 0.41785076 0.47619477
0003e0 21 36 fb 3e 50 f2 c5 3e 9b a7 dc 3e c9 f0 d0 3e
       0.49064735 0.38661432 0.43096623 0.40808704
0003f0 11 e2 d7 3e cd 36 c8 3e 23 2a e0 3e a4 dc d7 3e
       0.42164662 0.3910431 0.43782148 0.42160523
