Models/lol_model_pca_only.pth (torch, 546003 bytes, 31 tensors)

role_embedding.weight f4 [5, 8]
0	0x3dd7d067	0.105377965
1	0x3ee9f335	0.45693365
2	0x3d8bff58	0.06835812
3	0xbd72ac31	-0.059246246
4	0xbf5de44b	-0.8667647
5	0x3cd365d5	0.025805393
6	0x3df28000	0.1184082
7	0x3ef23485	0.47305694
8	0x3c08dafc	0.008352991
9	0xbe533bf1	-0.20628335
10	0x3f114dd5	0.5675939
11	0xbe47825f	-0.19483326
12	0x3edc17d5	0.42986932
13	0x3a5f0bd4	0.00085085374
14	0xbe8f3abd	-0.279745
15	0x3e93403a	0.28759938
16	0xbcbe46f9	-0.023227202
17	0xbe92ca26	-0.28669852
18	0xbd61242b	-0.054966133
19	0x3c4fa93d	0.012674627
20	0x3e988e6a	0.29796153
21	0xbe2e7cfc	-0.17039865
22	0xbef9c0a4	-0.48779786
23	0xbf70658f	-0.93904966
24	0x3f340545	0.7032054
25	0x3d0e1227	0.03468528
26	0x3ec26682	0.37968832
27	0xbde02eb8	-0.10946411
28	0xbfef3113	-1.8686851
29	0x3e767279	0.24067105
30	0x3ed8b431	0.42324975
31	0x3e0003ab	0.12501399
32	0x3e687e4d	0.2270443
33	0xbf8fe2e5	-1.1241118
34	0x3d334063	0.043762576
35	0x3d8ffe66	0.070309445
36	0x3cb8ed41	0.022574069
37	0x3efc272b	0.49248633
38	0xbe3e781b	-0.18600504
39	0x3e3a5c04	0.18199164

fc1.weight f4 [256, 81]
0	0xbc8dd66c	-0.017314158
1	0xbca5b6fe	-0.020228859
2	0xbb96d70e	-0.0046032732
3	0xbdb20342	-0.08692028
4	0x3daa9c50	0.083305955
5	0x3d235ce6	0.039883517
6	0xbdc6a32f	-0.096990936
7	0x3d0f9f7d	0.03506421
8	0xbe13b903	-0.14426045
9	0xbd6e9191	-0.05824429
10	0x3c749c7a	0.014929885
11	0x3d27244b	0.040806096
12	0xbda54af7	-0.08070939
13	0x3cb145ff	0.021639822
14	0x3ca983aa	0.020692665
15	0x3bbff246	0.0058577387
16	0xbd7e8f27	-0.06214824
17	0x3d451b91	0.048121992
18	0xbc6bb332	-0.014385985
19	0xbc586b87	-0.01320923
20	0x3e25814d	0.16162606
21	0xbb3be0dc	-0.0028667962
22	0xbda6a63e	-0.08137177
23	0xbb086b1a	-0.002081579
24	0xbd81bfd0	-0.063354135
25	0xbdca5204	-0.098789245
26	0x3c731f99	0.014839076
27	0x3c9a07ec	0.018802606
28	0xbc2a5a22	-0.010397466
29	0x3cc14161	0.023590745
30	0xbd61852a	-0.055058636
31	0x3d0d0575	0.034429032
32	0xbcf4e262	-0.029893104
33	0x3d7a4512	0.061101027
34	0xbd45d0c8	-0.048294812
35	0xbaa051a0	-0.0012231357
36	0x3cda2375	0.026628235
37	0xbdc25123	-0.09488132
38	0x3d2a8c9c	0.041638
39	0x3dcedab0	0.10100305
40	0x3ce930a2	0.028465573
41	0x3cd5f7cc	0.026119135
42	0xbd9584f4	-0.073007494
43	0xbda113c9	-0.07865102
44	0xbd8d69bf	-0.06904935
45	0xbd80aaed	-0.062826015
46	0xbc8550ee	-0.016273942
47	0xbd584734	-0.05280228
48	0x3bf2c541	0.0074087684
49	0xbbf16751	-0.0073670526
50	0x3d18ab23	0.037272584
51	0x3d871118	0.06595057
52	0xbcc4c6a4	-0.0240205
53	0x3dad3197	0.08456724
54	0x3c8bee44	0.017081387
55	0xbcdf96c0	-0.027293563
56	0xbccd87f4	-0.025089242
57	0x3d04ad7d	0.032392014
58	0x3d75b7fc	0.059989914
59	0x3d7c1207	0.06154063
60	0xbd67afdf	-0.056564208
61	0x3ccf051e	0.025270995
62	0xbd09b152	-0.03361637
63	0xbc097c3d	-0.008391437
64	0x3e02141c	0.12702984
65	0xbd15f03d	-0.036606062
66	0xbd8ea377	-0.06964772
67	0xbdae37c0	-0.08506727
68	0x3d380f62	0.044936545
69	0x3b1407ae	0.0022587585
70	0xbd2e7f8a	-0.0426021
71	0x3d07ccf1	0.03315443
72	0xbce6fcde	-0.028196748
73	0xbd95ab28	-0.07308036
74	0xbd31e935	-0.043435294
75	0x3d4b64a9	0.049656544
76	0xbcf3f029	-0.029777603
77	0xbce6afc5	-0.028159985
78	0x3d170f2b	0.0368797
79	0x3cd84ebf	0.026404737
80	0xbe5a71e8	-0.21332514
81	0xbd0d5c2c	-0.03451173
82	0xbc162e59	-0.009166324
83	0xbc1b4799	-0.009477519
84	0x3d2468de	0.04013907
85	0x3c0e4d97	0.008685491
86	0x3d35bba3	0.044368397
87	0xbd006c36	-0.031353198
88	0xbbc9814c	-0.0061494466
89	0x3daa6128	0.08319312
90	0xbb2f03d2	-0.0026705158
91	0x3bcdd436	0.006281401
92	0xbd61dd60	-0.05514276
93	0xb9975788	-0.0002886618
94	0xbba63c00	-0.0050730705
95	0x3b776d8f	0.003775451
96	0xbd2309ba	-0.039804198
97	0xbd8d6883	-0.069047
98	0xbc5d8f06	-0.013522869
99	0xbcb2dd66	-0.021834087
100	0x3d3d8ccb	0.04627685
101	0x3ce62e15	0.028098145
102	0x3d7ffa48	0.062494546
103	0x3bbd2506	0.005772236
104	0x3d792299	0.06082401
105	0xbcf841e6	-0.03030486
106	0xbd054940	-0.03254056
107	0xbb828278	-0.0039828382
108	0x3d42c0b4	0.047547057
109	0x3cf31b92	0.029676232
110	0xbc4e4dbc	-0.0125917755
111	0xbc0e1535	-0.008672048
112	0xbd67c996	-0.05658873
113	0xbcbe5afb	-0.023236742
114	0x3ccf4bfc	0.025304787
115	0x3db29b92	0.08721079
116	0xbd669841	-0.056297544
117	0xbcba706b	-0.022758683
118	0x3b11fa75	0.0022274528
119	0xbc54cbdc	-0.012988057
120	0xbc84b79f	-0.016200839
121	0xbb8f3499	-0.004370284
122	0x3dade218	0.084903896
123	0xbcaee4ad	-0.021349275
124	0x3d8cf9e6	0.06883602
125	0x3b9d0dc3	0.0047929003
126	0x3d2be2fb	0.041964512
127	0x3c93bd9f	0.018034754
128	0x3d24c9d3	0.040231537
129	0x3d645e2d	0.055753876
130	0x3db055fc	0.0861015
131	0xbb11ad14	-0.0022228407
132	0x3aa0035b	0.0012208031
133	0xbd188c54	-0.037243202
134	0xbc2a88b6	-0.010408571
135	0xbd08e70e	-0.033423476
136	0xbd5f7b97	-0.054561224
137	0x3c895c09	0.016767519
138	0xbbeac137	-0.0071641463
139	0xbd1c57d0	-0.038169682
140	0x3d4a63ee	0.049411707
141	0xbc77406e	-0.015091045
142	0x3c1bffb6	0.009521415
143	0xbc32a7d9	-0.010904276
144	0x3af49e42	0.0018662887
145	0x3d3334cd	0.043751527
146	0xbbe555ef	-0.0069987695
147	0xbc9626a3	-0.01832897
148	0xbd12b120	-0.03581345
149	0xbcbcb8e3	-0.02303738
150	0xbd3798b3	-0.04482336
151	0xbd46161e	-0.048360936
152	0xbc5a7eef	-0.013335927
153	0xbd0df884	-0.03466083
154	0x3d2d573e	0.04231953
155	0xbbdf136d	-0.0068077357
156	0xbcfc4812	-0.030796085
157	0xbb0a931f	-0.002114482
158	0x3d74b686	0.05974438
159	0xbd339a9f	-0.04384863
160	0xbcd20126	-0.025635313
161	0x3dc0d0c5	0.0941482
162	0xbd3a944d	-0.045551587
163	0xbd049f2f	-0.03237837
164	0x3c93c914	0.018040217
165	0x3cba66a6	0.022754025
166	0xbd90b5db	-0.07065936
167	0x3a4df6a2	0.00078568805
168	0xbdb623ae	-0.08893524
169	0xbcaf7512	-0.021418128
170	0x3d836e53	0.06417527
171	0xbb123009	-0.0022306463
172	0xbb16e65c	-0.0023025488
173	0xbb11d4a7	-0.0022251995
174	0xbd3d1f2f	-0.046172317
175	0x3b1b2b27	0.0023676844
176	0x3b342bdb	0.002749196
177	0xbadda8ea	-0.0016911302
178	0x3ca2cbee	0.019872632
179	0xbabcfedb	-0.0014419215
180	0x3d5020df	0.0508126
181	0xbc0b06a0	-0.008485466
182	0xbd3d56c4	-0.046225324
183	0x3d0b5905	0.034020443
184	0x3d13f861	0.036125544
185	0x3d67aa52	0.056558914
186	0xbdb41028	-0.08792144
187	0x3d592c8f	0.05302101
188	0xbca30594	-0.01990012
189	0x3c02f290	0.007992402
190	0x3c81ede6	0.01586051
191	0xbcbdb0eb	-0.02315565
192	0xbd902cd1	-0.07039798
193	0x3be26049	0.0069084507
194	0x3ca88890	0.02057293
195	0x3cc627ee	0.024188962
196	0x3d01d97b	0.031701546
197	0x3d98d6b9	0.0746283
198	0xbcca9721	-0.024730267
199	0xbbb713e0	-0.005587086
200	0xbbdf7547	-0.0068194005
201	0xbc828fcb	-0.015937706
202	0x3d8baf85	0.06820587
203	0xbdca687d	-0.09883211
204	0x3d82556c	0.06363949
205	0xbce76091	-0.028244289
206	0x3d5059f0	0.05086702
207	0x3cae97fa	0.021312702
208	0xbe1424ba	-0.14467135
209	0xbcff55e4	-0.031168886
210	0x3cbfe998	0.023426816
211	0x3aec708d	0.0018038914
212	0xbd164883	-0.036690246
213	0x3c720ad3	0.0147730885
214	0x3d490f7f	0.049087044
215	0xbd21f953	-0.039544415
216	0x3dbd0024	0.092285424
217	0x3d6669dd	0.056253303
218	0x3d7258e3	0.0591668
219	0x3c9ba727	0.019000603
220	0x3d2bad04	0.041913047
221	0xbccc0ca4	-0.024908371
222	0x3d105ea8	0.03524652
223	0xbd37e9db	-0.044900756
224	0xbb33e945	-0.0027452272
225	0x3b0741d2	0.0020638597
226	0xbd0158d0	-0.03157884
227	0x3b93f30b	0.004515057
228	0xbb1097be	-0.0022063102
229	0xbd400752	-0.04688198
230	0x3d1a84ad	0.037724186
231	0xbc6904ba	-0.014222318
232	0x3b0a626c	0.0021115793
233	0x3d1967aa	0.037452377
234	0x3d271c83	0.040798675
235	0x3c8e588b	0.017376205
236	0x3ce14f9b	0.02750378
237	0xbc8c7d66	-0.017149638
238	0x3c283f2d	0.0102689685
239	0x3d715ac5	0.058924455
240	0xbd06d3ba	-0.032916762
241	0x3d89d0b1	0.06729258
242	0xbeb879f3	-0.3603054
243	0xbcd79bc7	-0.026319398
244	0xbc915204	-0.017739303
245	0x3d706e0e	0.058698706
246	0x3d3642cb	0.044497292
247	0xbcf089d8	-0.029362604
248	0xbd0da01c	-0.03457652
249	0xbd4100bd	-0.047119845
250	0xbcd54b2d	-0.026036823
251	0xbdc1382c	-0.09434542
252	0xbdf135f0	-0.11777866
253	0x3d8aff2c	0.067869514
254	0xbd93c445	-0.0721517
255	0xbc2a8a80	-0.010408998

fc1.bias f4 [256]
0	0x35696928	8.6952286e-07
1	0xb3234e66	-3.8022698e-08
2	0x34596729	2.024723e-07
3	0xb42eaea9	-1.6268554e-07
4	0xb3617083	-5.2489224e-08
5	0x33952c8c	6.946456e-08
6	0xb4466a70	-1.8478909e-07
7	0xb516beff	-5.615729e-07
8	0xb489f492	-2.5696187e-07
9	0x347b03c1	2.3377562e-07
10	0x337d9ad5	5.904697e-08
11	0xb63479b2	-2.6892926e-06
12	0x357825d0	9.2442224e-07
13	0xb33eb2df	-4.4400505e-08
14	0xb2891ef3	-1.5962973e-08
15	0x360caed4	2.096339e-06
16	0xb4b2a1f6	-3.3272926e-07
17	0xb204e9ae	-7.736544e-09
18	0xb380da82	-6.000211e-08
19	0xb2f9736c	-2.9039903e-08
20	0x35d3a5ce	1.5768981e-06
21	0x33883f98	6.344561e-08
22	0x339e679d	7.3762955e-08
23	0xb4d94f90	-4.047729e-07
24	0xb49405fd	-2.7571505e-07
25	0xb2f57703	-2.8575874e-08
26	0xb2f9db89	-2.9087248e-08
27	0xb451f08e	-1.9552155e-07
28	0xb2efe6cb	-2.7928214e-08
29	0x3440c480	1.795288e-07
30	0x329ebec7	1.8480376e-08
31	0x3537798e	6.83497e-07
32	0xb56c96a2	-8.813605e-07
33	0x331167e2	3.3854924e-08
34	0x34cc7265	3.8081194e-07
35	0xb39cf39a	-7.308627e-08
36	0x338133ff	6.0164886e-08
37	0x34deead0	4.152157e-07
38	0x338a4e48	6.440365e-08
39	0x340e3154	1.3242726e-07
40	0x34bdc538	3.534749e-07
41	0x33c2a4ec	9.063828e-08
42	0xb5f05c9d	-1.7908347e-06
43	0xb42ebe1a	-1.6274171e-07
44	0x34bbc20d	3.4972655e-07
45	0x340ca7ce	1.3099563e-07
46	0xb4568326	-1.9978015e-07
47	0xb5a280c3	-1.2107415e-06
48	0x3542e0dd	7.259785e-07
49	0xb379f3e4	-5.8196648e-08
50	0xb45263de	-1.9594106e-07
51	0xb5075a71	-5.042303e-07
52	0x339015bb	6.709475e-08
53	0xb49d792e	-2.93317e-07
54	0x34b54ac5	3.376828e-07
55	0x3401c843	1.2086916e-07
56	0x31eff22a	6.9833463e-09
57	0xb5065dd5	-5.0055434e-07
58	0x33ebfefb	1.0989421e-07
59	0x337a2846	5.824429e-08
60	0xb426f2b6	-1.5548252e-07
61	0xb527be1c	-6.2488994e-07
62	0x344ad7d2	1.8891231e-07
63	0x34e5a212	4.2772496e-07
64	0xb513c215	-5.5044194e-07
65	0x34437263	1.8202404e-07
66	0xb394fc47	-6.937676e-08
67	0x3456053f	1.9932212e-07
68	0x3484e9b9	2.4756972e-07
69	0xb288241e	-1.5848908e-08
70	0x338d7619	6.587306e-08
71	0x34bf9de8	3.5691414e-07
72	0x34287d80	1.5691876e-07
73	0xb21b310e	-9.033341e-09
74	0xb47da5b3	-2.3622742e-07
75	0x34625744	2.1079637e-07
76	0x344e446a	1.9210134e-07
77	0xb442014d	-1.8068131e-07
78	0xb516f85b	-5.624076e-07
79	0x35973284	1.1265079e-06
80	0xb4787874	-2.314062e-07
81	0x346df445	2.216121e-07
82	0x34817cf3	2.4119035e-07
83	0x34071fce	1.2584425e-07
84	0xb3d5bd92	-9.953068e-08
85	0x33d5f2cc	9.96275e-08
86	0x34eea6b9	4.445226e-07
87	0xb51f4772	-5.933608e-07
88	0xb27a5678	-1.4571576e-08
89	0xb4816140	-2.409888e-07
90	0xb497c7b2	-2.827124e-07
91	0xb506e7a0	-5.025595e-07
92	0xb4b6da63	-3.405904e-07
93	0x334e41a3	4.802281e-08
94	0x34e60a04	4.2848126e-07
95	0x352cf733	6.4434715e-07
96	0xb23d7148	-1.1027005e-08
97	0x35973c77	1.1267974e-06
98	0x33cbc0ae	9.4879724e-08
99	0x34ca5498	3.7686982e-07
100	0xb4c7d6cb	-3.722292e-07
101	0x34937a47	2.7469852e-07
102	0x35a6c1cf	1.242437e-06
103	0xb4b66411	-3.397295e-07
104	0xb4a0f988	-2.998388e-07
105	0xb3a78b12	-7.80184e-08
106	0x330e69b2	3.315808e-08
107	0xb518810e	-5.681221e-07
108	0x3427babd	1.5621022e-07
109	0x33217ab4	3.759733e-08
110	0xb471f1b2	-2.2532802e-07
111	0x33c90357	9.3603994e-08
112	0x3510a831	5.388893e-07
113	0x338b037a	6.473324e-08
114	0xb45c34d2	-2.0508313e-07
115	0x33b63a01	8.485586e-08
116	0xb4552af0	-1.9852791e-07
117	0x344cb519	1.9064863e-07
118	0xb3731331	-5.65953e-08
119	0x347f1452	2.3756118e-07
120	0xb32e4797	-4.0577643e-08
121	0x34faee12	4.6739348e-07
122	0xb4d1b4fd	-3.906097e-07
123	0xb481052c	-2.4031885e-07
124	0x34f7dc5a	4.6167662e-07
125	0xb48200d6	-2.4214995e-07
126	0x3414fd7a	1.3875788e-07
127	0xb4360f64	-1.695567e-07
128	0xb4cf9968	-3.8668372e-07
129	0xb3f67611	-1.1476744e-07
130	0xb4e81e17	-4.323526e-07
131	0x34d6b141	3.9989575e-07
132	0x357283f9	9.034407e-07
133	0x36dc347d	6.5626214e-06
134	0x33b472ca	8.402783e-08
135	0x3485580c	2.4837243e-07
136	0x340a4599	1.2877571e-07
137	0xb4949820	-2.7677834e-07
138	0x32b98f93	2.1602125e-08
139	0x3328af20	3.9274823e-08
140	0x3452c330	1.9628783e-07
141	0xb4a6c421	-3.1062612e-07
142	0xb4db3f35	-4.0837918e-07
143	0xb42d5c95	-1.6145562e-07
144	0x3526138e	6.1868275e-07
145	0x3313893a	3.435091e-08
146	0x3675af9c	3.6610063e-06
147	0x347a5f25	2.3317678e-07
148	0x3567fa3f	8.641836e-07
149	0x33a607e2	7.731411e-08
150	0x3479f89a	2.3280373e-07
151	0xb4ae8f46	-3.251427e-07
152	0xb3158da7	-3.4820598e-08
153	0x34112fb3	1.352153e-07
154	0xb56c31cf	-8.798933e-07
155	0xb456745d	-1.9972636e-07
156	0xb4943c6f	-2.761112e-07
157	0xb3c0aec6	-8.972488e-08
158	0x349e8395	2.9525532e-07
159	0x352cd810	6.4389405e-07
160	0x339925b4	7.131476e-08
161	0x343d43b0	1.7626621e-07
162	0x3427f90e	1.5643693e-07
163	0xb3865c27	-6.256624e-08
164	0x33e6f72f	1.0755172e-07
165	0x35483332	7.4580305e-07
166	0xb40ce5e3	-1.3122148e-07
167	0x359fc7de	1.1904592e-06
168	0xb519d350	-5.730444e-07
169	0xb43d5f0f	-1.7636579e-07
170	0x35ae32fa	1.2978846e-06
171	0x3475bbba	2.2885698e-07
172	0xb3d7e5b0	-1.00534976e-07
173	0x331de7af	3.6765126e-08
174	0x3607d45a	2.0240172e-06
175	0xb4e8ae7a	-4.3340316e-07
176	0xb535d903	-6.774355e-07
177	0xb421d506	-1.5071791e-07
178	0x34701a55	2.2361321e-07
179	0xb3c1189a	-8.991738e-08
180	0x3511c446	5.4302325e-07
181	0x323c89f4	1.0974407e-08
182	0x35a1949b	1.2038685e-06
183	0xb4771ccc	-2.3014144e-07
184	0x311060f9	2.100988e-09
185	0x33b1567d	8.257937e-08
186	0x33d0d692	9.724785e-08
187	0xb3831578	-6.104068e-08
188	0x346530cf	2.1345043e-07
189	0xb4eba061	-4.3888852e-07
190	0xb5901748	-1.0735612e-06
191	0x3433b556	1.6736644e-07
192	0x34b45a9b	3.3593537e-07
193	0xb4a305b8	-3.0365277e-07
194	0xb3bc6d39	-8.7743e-08
195	0xb5035a80	-4.8933e-07
196	0x35453e42	7.3478816e-07
197	0x31be5b86	5.540133e-09
198	0x343e004b	1.7695235e-07
199	0xb4253e3d	-1.5389465e-07
200	0xb52c7ca1	-6.425635e-07
201	0xb324f17e	-3.840386e-08
202	0x355421e0	7.902545e-07
203	0xb51ce72e	-5.845094e-07
204	0xb305027b	-3.096873e-08
205	0x34982623	2.8339954e-07
206	0x353bf795	7.002321e-07
207	0x347aedbc	2.3369552e-07
208	0xb42bc0fd	-1.5995825e-07
209	0x337c46cb	5.8737708e-08
210	0xb4abcd10	-3.2000435e-07
211	0x345ac634	2.0374938e-07
212	0xb52b2d81	-6.376868e-07
213	0xb4c535cc	-3.6733252e-07
214	0xb4c362e6	-3.6393538e-07
215	0xb42c31ce	-1.6036867e-07
216	0x3533346d	6.6758986e-07
217	0x344221c8	1.8079947e-07
218	0x3484c941	2.4733347e-07
219	0x355f238b	8.3125695e-07
220	0x34ade3db	3.2389548e-07
221	0x343646bd	1.6975805e-07
222	0xb4c1a516	-3.6069167e-07
223	0x34f2bc74	4.521313e-07
224	0x34d18619	3.9026853e-07
225	0xb493c79b	-2.7526116e-07
226	0x33de1fd2	1.0343469e-07
227	0xb4b07e89	-3.287462e-07
228	0xb28b5a18	-1.62227e-08
229	0xb2cdd175	-2.3960391e-08
230	0x334837dd	4.6616936e-08
231	0x34887e61	2.5423927e-07
232	0x33589328	5.0425257e-08
233	0xb4388da4	-1.7187864e-07
234	0x3610d51a	2.1581714e-06
235	0xb5062452	-4.9971743e-07
236	0x339abc66	7.205453e-08
237	0x35067162	5.0083884e-07
238	0xb4b51bd7	-3.3734133e-07
239	0xb3bd7c58	-8.823616e-08
240	0x34c45abf	3.657387e-07
241	0xb5212bfa	-6.004117e-07
242	0xb47ac4cf	-2.3354663e-07
243	0x34c22fab	3.617e-07
244	0xb42b4a73	-1.59527e-07
245	0x347b4fe1	2.3405256e-07
246	0xb33f86f3	-4.459339e-08
247	0x3427abf8	1.5615649e-07
248	0x34abe6bb	3.201911e-07
249	0xb2315a1b	-1.0323244e-08
250	0x34db5340	4.08525e-07
251	0xb491d72d	-2.7164916e-07
252	0x347b2881	2.3390932e-07
253	0x33e3b4f5	1.0603427e-07
254	0xb4c9d690	-3.7595282e-07
255	0xb4571107	-2.002963e-07

bn1.weight f4 [256]
0	0x3f0f460f	0.55966276
1	0x3ed8b610	0.42326403
2	0x3f0cd9d7	0.550199
3	0x3f009aa9	0.5023599
4	0x3ece89af	0.4033942
5	0x3ee5bdf8	0.44871497
6	0x3f082c36	0.5319246
7	0x3f293f75	0.6611245
8	0x3f08fe07	0.53512615
9	0x3edaf432	0.4276443
10	0x3ed4113b	0.41419396
11	0x3f1d5b83	0.6146776
12	0x3f131efe	0.57469165
13	0x3eea9e78	0.45824027
14	0x3ee8949d	0.45425883
15	0x3f36cf4f	0.7141008
16	0x3eebca6f	0.46052882
17	0x3ee9004f	0.45508048
18	0x3ece65d8	0.40312076
19	0x3f03d3f1	0.5149527
20	0x3f0eda6d	0.5580204
21	0x3f1a3046	0.6022991
22	0x3ee67ce0	0.45017147
23	0x3f2680cf	0.65040296
24	0x3f03ebc7	0.5153164
25	0x3efb863c	0.4912585
26	0x3ee909ec	0.45515382
27	0x3f0dba93	0.55362815
28	0x3ee016be	0.4376735
29	0x3ed09ca3	0.40744504
30	0x3f20c000	0.6279297
31	0x3f1a7abe	0.6034354
32	0x3f024ec6	0.5090145
33	0x3edde9e1	0.43342498
34	0x3f330030	0.6992216
35	0x3f01a5cd	0.50643617
36	0x3ef6364a	0.48088294
37	0x3f058109	0.5215002
38	0x3eed35f1	0.46330217
39	0x3ee59ec8	0.44847703
40	0x3efba1c4	0.49146855
41	0x3f0aab2c	0.5416744
42	0x3f32a617	0.69784683
43	0x3efedfa2	0.49779993
44	0x3f09035b	0.53520745
45	0x3ed2d9b0	0.41181707
46	0x3ef8eade	0.4861669
47	0x3ee2b3c6	0.4427778
48	0x3f1e4331	0.61821276
49	0x3f0ed767	0.5579743
50	0x3f0af9b1	0.5428725
51	0x3f02e052	0.51123536
52	0x3eeb7aac	0.4599203
53	0x3f0dd722	0.5540639
54	0x3eede844	0.46466267
55	0x3f1094ca	0.56477034
56	0x3ed05e9c	0.4069718
57	0x3f0a8ffb	0.54125947
58	0x3ef5be04	0.47996533
59	0x3ebcb167	0.36854097
60	0x3eeed499	0.46646574
61	0x3f002d72	0.50069344
62	0x3f0b633c	0.54448295
63	0x3f049ab0	0.51798534
64	0x3f02c7c2	0.51086056
65	0x3ef7fa51	0.48433164
66	0x3f0916ea	0.5355059
67	0x3ed5ef72	0.41784245
68	0x3f126454	0.5718434
69	0x3ed46ef0	0.4149089
70	0x3f0f25a2	0.559168
71	0x3f0d2e46	0.5514873
72	0x3f19b6f8	0.60044813
73	0x3ed507fb	0.4160765
74	0x3f151128	0.58229303
75	0x3ef2f952	0.4745584
76	0x3f0d6ae6	0.5524124
77	0x3f08bacb	0.53410023
78	0x3f0bae66	0.54562986
79	0x3f284a94	0.657388
80	0x3ee8b6d2	0.4545198
81	0x3f083d3a	0.53218424
82	0x3ed80edd	0.4219884
83	0x3efc096c	0.49225938
84	0x3ef1e5e9	0.4724572
85	0x3ee2728b	0.44228014
86	0x3ed590a6	0.4171192
87	0x3ef6a58b	0.48173174
88	0x3ebec9d4	0.37263358
89	0x3f006723	0.50157374
90	0x3f0e1933	0.555072
91	0x3f131596	0.5745481
92	0x3f0bc9c1	0.5460473
93	0x3ef4cd6d	0.47812977
94	0x3f15472e	0.58311737
95	0x3f2997ad	0.66247064
96	0x3f024a37	0.5089449
97	0x3f1304e6	0.5742935
98	0x3ec53a4e	0.38521045
99	0x3edc9d28	0.4308865
100	0x3ef8e3c8	0.48611283
101	0x3f1c3fe9	0.6103502
102	0x3eeaee86	0.45885104
103	0x3eead056	0.45862073
104	0x3f03eba8	0.5153146
105	0x3f13f7d1	0.5780001
106	0x3ef6c14d	0.48194352
107	0x3ee7959b	0.45231327
108	0x3f199329	0.59990174
109	0x3f0814d2	0.5315677
110	0x3eedd921	0.4645472
111	0x3ef2febb	0.4745997
112	0x3f120092	0.5703212
113	0x3f09a04b	0.5376021
114	0x3f1e0e0e	0.61740196
115	0x3f07090a	0.5274817
116	0x3f1bb22e	0.60818756
117	0x3ee5b21a	0.44862443
118	0x3f00570b	0.5013282
119	0x3f0c3793	0.547723
120	0x3f11fe7f	0.57028955
121	0x3f1c1fb4	0.60985875
122	0x3f10dd1e	0.565874
123	0x3f1b86ec	0.6075275
124	0x3f127b81	0.572197
125	0x3f0341ea	0.5127245
126	0x3ee26937	0.44220898
127	0x3ef1ab1a	0.47200853
128	0x3f0051db	0.501249
129	0x3effc9d9	0.49958685
130	0x3ef1f8fc	0.47260273
131	0x3f16e36b	0.5894076
132	0x3f217b2f	0.6307859
133	0x3f3bf5db	0.7342202
134	0x3f09daaf	0.5384931
135	0x3ee9f832	0.4569717
136	0x3f0ddfba	0.55419505
137	0x3f149c3f	0.5805091
138	0x3ee8daf7	0.45479557
139	0x3f13a525	0.57673866
140	0x3f0b58e5	0.5443252
141	0x3ee466de	0.4460973
142	0x3f037e16	0.51364267
143	0x3f10f7f4	0.56628346
144	0x3f269b4f	0.6508073
145	0x3f0f3c97	0.5595183
146	0x3f34eb12	0.7067119
147	0x3f1076e7	0.5643143
148	0x3f2ae4c5	0.66755325
149	0x3effb870	0.49945402
150	0x3f1b0080	0.6054764
151	0x3f314ffd	0.6926268
152	0x3f03b5c8	0.5144925
153	0x3ee48b87	0.446377
154	0x3f0a2da2	0.5397588
155	0x3eff86b6	0.49907464
156	0x3efae216	0.49000615
157	0x3eedc46d	0.46438923
158	0x3f23b9d8	0.6395545
159	0x3f253f5c	0.64549804
160	0x3f242e66	0.641333
161	0x3f118896	0.5684904
162	0x3f13244f	0.5747728
163	0x3eeffc85	0.46872345
164	0x3f05e036	0.52295244
165	0x3ee1d5b5	0.44108358
166	0x3eedea97	0.4646804
167	0x3f2311cb	0.63699025
168	0x3f156dfe	0.5837096
169	0x3ef302ed	0.4746317
170	0x3f1539be	0.5829123
171	0x3ed89fcf	0.42309424
172	0x3f0ef4d6	0.5584234
173	0x3eee1603	0.4650117
174	0x3f26cd6d	0.65157205
175	0x3ee61f69	0.4494584
176	0x3f30becc	0.6904113
177	0x3ef841ec	0.48487794
178	0x3f322cf6	0.69599855
179	0x3ee0aa7b	0.43880066
180	0x3f150593	0.5821163
181	0x3f26f726	0.6522087
182	0x3f100c18	0.56268454
183	0x3f2f693f	0.6851997
184	0x3f1ef287	0.6208882
185	0x3ebc266f	0.36748073
186	0x3f10c4f2	0.56550515
187	0x3ed948c1	0.4243832
188	0x3ec6bd18	0.38816142
189	0x3f165bcf	0.5873384
190	0x3f245291	0.64188486
191	0x3f18420f	0.594758
192	0x3ee6d8eb	0.4508737
193	0x3f0f5c49	0.5600019
194	0x3ee31f65	0.4435989
195	0x3ecd542a	0.40103275
196	0x3f0b1727	0.543322
197	0x3f1a0d1b	0.6017625
198	0x3ef74c1a	0.48300248
199	0x3f0a6f68	0.5407624
200	0x3f134f1e	0.575426
201	0x3efe28c7	0.49640486
202	0x3ecedd7f	0.40403363
203	0x3f00c900	0.503067
204	0x3f1e07bd	0.6173056
205	0x3edcb649	0.43107823
206	0x3ef3cbb6	0.47616357
207	0x3f0ba65d	0.54550725
208	0x3f14cc9a	0.581247
209	0x3f066c6b	0.5250918
210	0x3f0e9769	0.55699784
211	0x3f1863ca	0.59527266
212	0x3edf8232	0.4365402
213	0x3f0faf5a	0.5612694
214	0x3ef4a195	0.47779527
215	0x3ed4e743	0.4158269
216	0x3f2756fa	0.6536709
217	0x3f05406e	0.52051437
218	0x3f069979	0.5257793
219	0x3f172118	0.5903487
220	0x3f083271	0.5320197
221	0x3f07e911	0.53090006
222	0x3f19cbc1	0.6007653
223	0x3f2654d4	0.6497319
224	0x3f0eb3aa	0.55742896
225	0x3ef2c977	0.4741933
226	0x3eff00f4	0.49805415
227	0x3f139e94	0.57663846
228	0x3ed9d33c	0.42543972
229	0x3edb6bd7	0.42855713
230	0x3ee506be	0.44731706
231	0x3f0f0ea9	0.55881745
232	0x3f088294	0.53324246
233	0x3f0c8f3a	0.54906046
234	0x3f2087a8	0.62706995
235	0x3f120a0e	0.5704659
236	0x3f133a16	0.5751051
237	0x3f1ed671	0.6204596
238	0x3f083cec	0.5321796
239	0x3edbac87	0.42905065
240	0x3f00b4d6	0.50275934
241	0x3f05719b	0.52126473
242	0x3eea8aa9	0.45808914
243	0x3f04b1d1	0.51833826
244	0x3f0ba09f	0.54541963
245	0x3f0452c3	0.51688784
246	0x3ed0c558	0.4077556
247	0x3f0312b1	0.51200396
248	0x3ee1f9fa	0.4413603
249	0x3f0bb51f	0.54573244
250	0x3f2226ff	0.63340753
251	0x3efa4644	0.48881733
252	0x3efd3e7c	0.49461734
253	0x3f0f5f63	0.56004924
254	0x3efaadf7	0.4896085
255	0x3f075b48	0.5287366

bn1.bias f4 [256]
0	0xbdab121f	-0.08353066
1	0xbd963a22	-0.07335307
2	0xbdd12d62	-0.10213734
3	0xbdfb8604	-0.12281421
4	0x3bdfd170	0.006830387
5	0xbde30c81	-0.11086369
6	0xbe0a83e4	-0.13526875
7	0xbdfa8af9	-0.12233538
8	0xbdf7618b	-0.12079152
9	0xbdad98ea	-0.08476432
10	0xbd63e40b	-0.0556374
11	0x3d0bae28	0.034101635
12	0xbe3c2469	-0.18373264
13	0xbe110881	-0.141634
14	0xbd9db372	-0.07700242
15	0x3cf667c5	0.030078778
16	0xbe101feb	-0.14074676
17	0xbdc56094	-0.096375614
18	0xbd7907dd	-0.060798515
19	0xbd538d93	-0.051648688
20	0xbcf7d436	-0.030252557
21	0xbdb73ced	-0.089471675
22	0xbd81b9e3	-0.06334283
23	0xbbf65ca2	-0.007518367
24	0xbdea1e50	-0.11431563
25	0xbdb3f447	-0.087868266
26	0xbd995fa6	-0.074889466
27	0xbdfe68f5	-0.12422363
28	0xbe07a7a3	-0.13247542
29	0xbd6e0eef	-0.05811971
30	0xbe09ebca	-0.13468853
31	0xbde7b66f	-0.11314093
32	0xbde27096	-0.1105663
33	0xbe064d6b	-0.1311547
34	0x3df8448f	0.121224515
35	0xbdaf30bd	-0.08554218
36	0xbd9ee95b	-0.07759353
37	0xbe40748f	-0.18794464
38	0xbe08e539	-0.13368692
39	0xbda364d5	-0.079782166
40	0xbdae871c	-0.08521864
41	0xbd78dddd	-0.06075846
42	0x3c4c4136	0.012466719
43	0xbe2c0a67	-0.16800843
44	0xbde91248	-0.1138044
45	0xbd22b6d6	-0.039725147
46	0xbdc49c42	-0.09600116
47	0xbe0dc0bd	-0.13843055
48	0xbe25b90b	-0.1618387
49	0xbddbc6c5	-0.10731272
50	0xbe3be655	-0.18349583
51	0xbe30987e	-0.17245671
52	0xbdbaacb2	-0.0911497
53	0xbe146e53	-0.1449521
54	0xbd8fe00c	-0.070251554
55	0xbdec6c9d	-0.11544154
56	0xbd8d94f7	-0.069131784
57	0xbd8d5ff1	-0.06903065
58	0xbd76afbb	-0.060226183
59	0xbd0b4830	-0.03400439
60	0xbc0176be	-0.0079018455
61	0xbd981c50	-0.07427275
62	0xbe775296	-0.24152598
63	0xbdb708e1	-0.089372404
64	0xbe3ae3c8	-0.18250954
65	0xbd5942e5	-0.05304231
66	0xbd09f6be	-0.033682577
67	0xbaf74c35	-0.0018867316
68	0xbe09c328	-0.13453352
69	0xbe161e9c	-0.14660114
70	0xbe21fbe8	-0.15818751
71	0xbe2a2bc1	-0.16618253
72	0xbddb5281	-0.10709096
73	0xbd8243fd	-0.06360624
74	0xbdf71e95	-0.1206638
75	0xbdde11e7	-0.10843258
76	0xbd92129b	-0.07132455
77	0xbe0c181a	-0.13681069
78	0xbdf65693	-0.120282315
79	0xbdd3d655	-0.10343615
80	0xbd8c1f6a	-0.06841929
81	0xbd42de56	-0.047575317
82	0xbe4d7171	-0.20062806
83	0xbd879c2d	-0.06621585
84	0xbdead582	-0.11466505
85	0xbd2d9eaf	-0.04238766
86	0xbd56ea98	-0.05246982
87	0xbdcf7b9e	-0.10131
88	0xbd8daa20	-0.069172144
89	0xbdd88ea1	-0.10574079
90	0xbdc85842	-0.09782459
91	0xbdd00bdc	-0.10158512
92	0xbd2fe6e6	-0.04294481
93	0xbda0d0f7	-0.07852357
94	0xbd9a76d7	-0.07542198
95	0xbd3dc007	-0.04632571
96	0xbd37ba18	-0.044855207
97	0xbda40ea6	-0.080106065
98	0xbcfdb25a	-0.030968834
99	0xbd9f5707	-0.07780271
100	0xbdd6c1da	-0.10486193
101	0xbdfcf876	-0.12352078
102	0xbdd6b192	-0.104830876
103	0xbde73c8e	-0.11290847
104	0xbd962283	-0.07330801
105	0xbe0e53fd	-0.13899226
106	0xbdbea6e7	-0.09309178
107	0xbdf8fe27	-0.12157851
108	0xbe49f48d	-0.19722195
109	0xbe112872	-0.14175585
110	0xbdbf296c	-0.093340725
111	0xbda14ae9	-0.07875616
112	0xbdc9b65e	-0.09849237
113	0xbe36690e	-0.17813513
114	0xbe098e6f	-0.1343324
115	0xbda075a0	-0.07834935
116	0xbdae8587	-0.08521562
117	0xbd6be8b3	-0.057594966
118	0xbdfc16fe	-0.12309073
119	0xbe2e2b35	-0.1700867
120	0xbe4c0ac1	-0.19925977
121	0xbdc7520c	-0.09732446
122	0xbdbf1e99	-0.09332008
123	0xbdbc1cb8	-0.09185165
124	0xbd963c7a	-0.07335754
125	0xbe23e9fc	-0.16007227
126	0xbd654048	-0.055969507
127	0xbe02e0bd	-0.12781043
128	0xbd830430	-0.06397283
129	0xbe133090	-0.14373994
130	0xbdbdabf8	-0.09261316
131	0xbdb49887	-0.08818155
132	0x3cace79d	0.021106536
133	0x3c961737	0.018321617
134	0xbdfbcdd7	-0.1229512
135	0xbd2544e6	-0.04034891
136	0xbe0df082	-0.13861278
137	0xbe256179	-0.16150464
138	0xbdc647c6	-0.096816584
139	0xbe460f43	-0.1934176
140	0xbe1b059c	-0.15138859
141	0xbdab25a2	-0.08356787
142	0xbe0efbbd	-0.13963218
143	0xbe2b1b75	-0.16709693
144	0xbca277de	-0.019832548
145	0xbcf1775d	-0.029475862
146	0xbab776bf	-0.0013997181
147	0xbe025bc1	-0.12730314
148	0xbcda831a	-0.026673842
149	0xbe0915f6	-0.13387284
150	0xbd98d8b4	-0.07463208
151	0x3da77268	0.08176118
152	0xbdabcc11	-0.08388532
153	0xbd90b664	-0.07066038
154	0xbdea9048	-0.11453301
155	0xbdc83976	-0.09776585
156	0xbe3dbd68	-0.18529284
157	0xbde21767	-0.1103962
158	0xbda7f02f	-0.08200108
159	0xbe21912f	-0.1577804
160	0xbe26692c	-0.16251057
161	0xbe00c8ea	-0.12576643
162	0xbe4ef107	-0.20209132
163	0xbd57a3af	-0.052646335
164	0xbdbd5656	-0.09244983
165	0xbd80d647	-0.0629087
166	0xbdce17aa	-0.10063107
167	0xbe0b82a1	-0.1362405
168	0xbdb0491c	-0.086076945
169	0xbd2c7c07	-0.04211047
170	0xbe26c2f8	-0.16285312
171	0xbd8e97aa	-0.069625214
172	0xbe380fb5	-0.17974742
173	0xbd84d2ae	-0.064854965
174	0xbc2f34f4	-0.010693777
175	0xbd880cc7	-0.06643062
176	0xbbbcb634	-0.005759025
177	0xbda73741	-0.08164836
178	0x3cdac61e	0.026705798
179	0xbd8343c3	-0.06409409
180	0xbd97b029	-0.07406647
181	0xbe13062b	-0.14357822
182	0xbd19eb24	-0.037577763
183	0xbcdb4d7b	-0.026770344
184	0x3d0f19c3	0.034936678
185	0xbd35c4ab	-0.04437701
186	0xbe11a388	-0.14222538
187	0xbe026795	-0.12734826
188	0xbd946f3e	-0.0724778
189	0xbda3eed4	-0.08004537
190	0xbd92f9f9	-0.07176585
191	0xbd6e265b	-0.058142047
192	0xbd641bcb	-0.055690568
193	0xbe2afaef	-0.16697286
194	0xbe101c9b	-0.14073412
195	0xbd38be85	-0.04510357
196	0xbd25f50b	-0.040516894
197	0xbe4606e5	-0.19338568
198	0xbe43d3e3	-0.19123797
199	0xbddf2444	-0.10895589
200	0xbe2b2293	-0.16712408
201	0xbe254f77	-0.16143595
202	0xbd41b5cf	-0.047292527
203	0xbe1064f9	-0.14101018
204	0xbdb479b6	-0.08812277
205	0xbd7ccaeb	-0.061716955
206	0xbdddfeb4	-0.108395964
207	0xbe34a4d4	-0.17641002
208	0xbe05fada	-0.13083974
209	0xbdbb32d8	-0.09140557
210	0xbdc16de0	-0.09444785
211	0xbdcec8da	-0.10096903
212	0xbd7cd440	-0.061725855
213	0xbe27eb5a	-0.16398373
214	0xbd7886e7	-0.060675528
215	0xbd8858ec	-0.066575855
216	0xbda4bcd6	-0.0804383
217	0xbdc3fba7	-0.09569483
218	0xbe183ae9	-0.14866222
219	0xbdab28a3	-0.0835736
220	0xbe496f21	-0.19671299
221	0xbda8938a	-0.08231266
222	0xbe247c3a	-0.16063014
223	0xbdc1f3fa	-0.09470363
224	0xbded5d31	-0.115900405
225	0xbda30d77	-0.079615526
226	0xbe024e32	-0.12725142
227	0xbdf15e76	-0.11785595
228	0xbd1ac965	-0.03778972
229	0xbd6b0ce3	-0.057385337
230	0xbd8d3b0c	-0.06896028
231	0xbdccab4c	-0.0999361
232	0xbe3b2792	-0.18276814
233	0xbe09df4f	-0.13464092
234	0xbe0d2e4d	-0.13787194
235	0xbdcc34f4	-0.099710375
236	0xbde233f0	-0.110450625
237	0xbd2fef5b	-0.042952877
238	0xbdb6bcb5	-0.08922712
239	0xbdbceeed	-0.09225259
240	0xbe2d062b	-0.16896884
241	0xbe00ef4b	-0.12591283
242	0xbd76ee54	-0.06028588
243	0xbe1f1a9b	-0.15537493
244	0xbd95169a	-0.072797015
245	0xbe01d56b	-0.12679069
246	0xbd772441	-0.06033731
247	0xbdaa02b6	-0.08301298
248	0xbd935b60	-0.07195163
249	0xbe361b8e	-0.17783949
250	0xbe1af2f3	-0.1513174
251	0xbd4de16d	-0.05026381
252	0xbdeddb69	-0.11614115
253	0xbe0ff11b	-0.14056818
254	0xbde265ce	-0.11054574
255	0xbde100ee	-0.109865054

bn1.running_mean f4 [256]
0	0x3f64eea0	0.8942661
1	0x3ce87528	0.028376177
2	0x3e7236e7	0.23653756
3	0x3f482876	0.7818674
4	0xbd305c2c	-0.043056652
5	0x3f0051b6	0.5012468
6	0x3f86ac34	1.0521302
7	0x3fa231cc	1.2671447
8	0x3f234398	0.63775015
9	0x3dbdf306	0.09274869
10	0x3edf6f99	0.4363983
11	0xbf79d966	-0.9759735
12	0x3ee72ed1	0.45152906
13	0xbe919037	-0.2843034
14	0x3bc5b16e	0.006033114
15	0x3fe9a970	1.8254833
16	0xbd94d2d1	-0.072667725
17	0x3f3c35f4	0.73519826
18	0xbef8780b	-0.48529086
19	0xbfa44e68	-1.2836428
20	0xbf7d74e5	-0.9900649
21	0xbe32815d	-0.1743216
22	0xbf9ac9cb	-1.2092832
23	0x3fc126d0	1.508997
24	0xbf888053	-1.0664161
25	0xbebbbf57	-0.36669418
26	0xbeb3c8f7	-0.35114262
27	0xbf583039	-0.8444858
28	0xbf082232	-0.5317718
29	0x3cccb1e9	0.024987178
30	0x3e4a433b	0.19752209
31	0x3f8d1738	1.1022711
32	0x3ee02d90	0.4378476
33	0x3ec358f8	0.38153815
34	0xbea7c7d5	-0.32769647
35	0xbf1cb015	-0.6120618
36	0x3f14d600	0.5813904
37	0x3d5f6333	0.054537963
38	0xbeaa17f4	-0.332214
39	0x3f1161c0	0.5678978
40	0x3cb08f43	0.021552688
41	0xbec750b0	-0.38928747
42	0x3ea90d1b	0.3301781
43	0xbe18541f	-0.1487584
44	0x3f579e05	0.84225494
45	0x3d90b105	0.07065014
46	0xbf4f6dcc	-0.8102691
47	0xbf53e413	-0.8276989
48	0xbeaa8d7c	-0.3331107
49	0xbe659faa	-0.22424188
50	0x3fad5327	1.3541001
51	0x3eeb47db	0.4595326
52	0xbf392de3	-0.7233564
53	0xbf5a7468	-0.8533387
54	0xbe267994	-0.16257316
55	0x3f628215	0.8847974
56	0xbdc1ce6d	-0.09463201
57	0x3f2884a8	0.6582742
58	0xbea83528	-0.32853055
59	0xbf80b954	-1.0056558
60	0x3e4c4ed9	0.19951953
61	0xbf2a385e	-0.6649226
62	0x3dd4b412	0.10385908
63	0x3e208c9a	0.15678635
64	0xbf44967d	-0.76792127
65	0x3f0cdac4	0.5502131
66	0x3ec01bc0	0.37521172
67	0x3f8772ff	1.0581969
68	0xbd965bd2	-0.07341732
69	0x3f23c0b6	0.6396593
70	0x3f8d8bcc	1.1058288
71	0x3f349952	0.7054645
72	0xbe953239	-0.2913988
73	0xbf4766bc	-0.77891135
74	0xbeccff48	-0.40038514
75	0x3e1c59ce	0.15268633
76	0x3fa6f450	1.3043308
77	0x3f22d22e	0.6360196
78	0xbf2bfd4c	-0.67183375
79	0x3fa74c11	1.3070089
80	0x3de5b7a2	0.11216666
81	0xbf8883ef	-1.0665263
82	0xbe4896bc	-0.1958875
83	0x3fe3ac25	1.7786909
84	0x3e440a0a	0.19144455
85	0x3e966bcd	0.2937912
86	0x3ee29f38	0.442621
87	0x3f53a6f5	0.8267663
88	0x3e48a404	0.19593817
89	0xbfc9a3ec	-1.575315
90	0x3fb44385	1.4083105
91	0xbeaaee1b	-0.33384785
92	0xbeab1392	-0.33413368
93	0xbfc8f144	-1.5698628
94	0x3f2a6e88	0.6657491
95	0x3fb05640	1.3776321
96	0x3c97b5c1	0.018519284
97	0x3f0f85bb	0.5606343
98	0xbdd5e80f	-0.10444652
99	0x3f0d4637	0.55185264
100	0x3ecd0082	0.4003945
101	0x3f25befc	0.64744544
102	0x3f21e758	0.6324363
103	0x3f8dcc44	1.1077962
104	0xbedf7159	-0.43641165
105	0x3fb043ab	1.3770651
106	0x3eb267ec	0.3484491
107	0xbfa46629	-1.2843677
108	0xbe97e614	-0.29667723
109	0x3f2de28d	0.67923814
110	0xbe520eef	-0.20513509
111	0x3f042bfe	0.51629627
112	0xbec2b5e3	-0.38029394
113	0x3f217544	0.6306956
114	0x3f3c7681	0.7361832
115	0xbf0e6168	-0.5561738
116	0xbed2f6c8	-0.41203904
117	0x3e813c9f	0.25241563
118	0x3f1c6d0c	0.6110389
119	0x3f552d71	0.83272463
120	0x3f071b02	0.52775586
121	0xbed5fedd	-0.41796008
122	0xbb9361a2	-0.0044977227
123	0xbf146903	-0.57972735
124	0xbf2a44d3	-0.6651127
125	0xbd2ee484	-0.0426984
126	0xbecc1a02	-0.39863592
127	0x3e42251a	0.18959466
128	0xbf4263ad	-0.75933343
129	0xbfdb38dc	-1.7126727
130	0x3ec5ae4c	0.3860954
131	0x3f13f913	0.5780193
132	0x3eddddb5	0.43333212
133	0xbe339d15	-0.17540391
134	0xbf46619a	-0.7749268
135	0x3f5a7808	0.85339403
136	0x3f8153e1	1.0103723
137	0x3e016c78	0.12639034
138	0x3ff9bfd7	1.951167
139	0xbe8d4a62	-0.27595812
140	0x3edb0924	0.4278041
141	0xbedbed8a	-0.42954665
142	0xbe6af197	-0.22943722
143	0xbdb4f5bf	-0.08835935
144	0x3e9a2251	0.30104306
145	0xbe9e1f4a	-0.30883247
146	0x3f540b52	0.82829773
147	0xbfe66efd	-1.8002621
148	0xbe89a549	-0.26883915
149	0xbe3f08eb	-0.18655746
150	0xbed8a4bb	-0.4231318
151	0x3e8536b9	0.26018313
152	0x3fd2604f	1.6435641
153	0x3f1c6bed	0.6110218
154	0x3de7e32e	0.11322628
155	0xbf0778b4	-0.52918553
156	0x3e864153	0.26221713
157	0xbf446954	-0.7672322
158	0xbe9f3707	-0.3109667
159	0x3dcd12d2	0.10013355
160	0x3fcdc47f	1.6075591
161	0xbe033b3d	-0.12815566
162	0xbdb5222a	-0.08844407
163	0x3f5d4fb4	0.8644974
164	0x3e3e6854	0.18594486
165	0xbe4fa595	-0.20278008
166	0x3e4d0aec	0.20023698
167	0x3f3a58ce	0.72791755
168	0x3dcb87fc	0.09938046
169	0x3dde9d76	0.10869877
170	0x4001d988	2.028902
171	0x3f076fdf	0.52905077
172	0xbf1edc96	-0.6205534
173	0x3f9c4489	1.2208415
174	0xbfc9d17c	-1.5767055
175	0x3e54aff5	0.20770247
176	0x3f7a475e	0.9776515
177	0x3f5e552d	0.8684872
178	0x3e407fde	0.18798777
179	0x3d574d30	0.052563846
180	0xbe325e84	-0.17418867
181	0x3e658fb1	0.22418095
182	0x3f39c989	0.72573143
183	0xbdb30d4f	-0.08742773
184	0x3e8261c9	0.2546523
185	0xbe4e5beb	-0.20152251
186	0x3f418f06	0.7560886
187	0x3df8eb34	0.121542364
188	0x3f580219	0.843782
189	0xbe9b6b2d	-0.30355206
190	0xbf1ec76c	-0.62023044
191	0xbf00392b	-0.5008723
192	0x3d9785f8	0.073985994
193	0x3e4e2c8a	0.20134178
194	0x3f473199	0.77810055
195	0x3de221fb	0.110416375
196	0xbe1de5c1	-0.15419675
197	0xbf6fbb94	-0.93645597
198	0xbee5631c	-0.44802177
199	0xbed94499	-0.42435148
200	0x3e1f94f1	0.1558416
201	0x3f9c9b3a	1.2234871
202	0x3e5fc0f2	0.21850947
203	0x3f3a13e3	0.72686595
204	0x3f50df08	0.8159032
205	0xbf3b0808	-0.7305913
206	0xbe295042	-0.16534522
207	0x3dbeb90c	0.09312639
208	0x3eeb1e40	0.45921516
209	0xbed8c072	-0.42334324
210	0x3ea2c2f9	0.31789377
211	0x3db12ec9	0.08651502
212	0xbf8469ce	-1.0344789
213	0xbe8682e0	-0.26271725
214	0x3fc334a6	1.5250442
215	0x3f023297	0.50858444
216	0x3e950e30	0.29112387
217	0xbf12d0fe	-0.57350147
218	0x3e85ac30	0.2610793
219	0xbc8ba9b7	-0.0170487
220	0x3e7b7a04	0.24558264
221	0xbe02e4c8	-0.12782586
222	0x3fb4e671	1.4132825
223	0x3d27027e	0.04077386
224	0x3e9e2664	0.30888665
225	0x3ea50d23	0.32236585
226	0x3f8eaa4e	1.1145723
227	0x3dde5848	0.10856682
228	0x3f86c7e0	1.0529747
229	0xbf28dee6	-0.65965116
230	0x3e9f012a	0.31055576
231	0xbf17338f	-0.5906305
232	0x3a84dd64	0.001013678
233	0xbead563d	-0.33854857
234	0xbfb14ee3	-1.3852199
235	0xbf580137	-0.84376854
236	0xbf5c585b	-0.8607232
237	0x3f31a489	0.69391686
238	0x3fb36b47	1.4017113
239	0x3f552d70	0.8327246
240	0x3e9ef5cf	0.31046912
241	0x3e587e01	0.21141817
242	0x3ef0a9fe	0.47004694
243	0x3ec9fd1d	0.39450923
244	0xbf631aaa	-0.8871256
245	0x3ea00202	0.31251532
246	0x3e79add0	0.2438271
247	0xbf3b8978	-0.73256636
248	0x3b4214a0	0.0029614344
249	0x3f0d7aa7	0.5526528
250	0x3fa3319e	1.2749517
251	0x3ee2fdf4	0.44334376
252	0x3fc3bbe6	1.5291717
253	0x3d4ca3a7	0.04996076
254	0x3f613943	0.87978
255	0x3f93ff2c	1.1562247

bn1.running_var f4 [256]
0	0x3f4e2e75	0.8053964
1	0x3f592e1a	0.8483597
2	0x3eebfdad	0.46091977
3	0x3f771131	0.96510607
4	0x3f04a69e	0.5181674
5	0x3f9063f7	1.1280507
6	0x3ef5294b	0.47883067
7	0x3f03b188	0.51442766
8	0x3f378bda	0.7169777
9	0x3f60f409	0.8787237
10	0x3f0fbb6f	0.56145376
11	0x3e81e098	0.25366664
12	0x3f326cb6	0.6969713
13	0x3ea81f1f	0.32836244
14	0x3f93f85b	1.1560167
15	0x3e479850	0.19491696
16	0x3f906fac	1.128408
17	0x3fb575f7	1.4176625
18	0x3f5fa3ef	0.8735952
19	0x3edee911	0.4353719
20	0x3e673ae6	0.22581062
21	0x3f1a72ce	0.6033143
22	0x3f1537f3	0.58288497
23	0x3e546b5b	0.20744078
24	0x3f957553	1.167643
25	0x3f8ebfd2	1.1152289
26	0x3fa1dc24	1.2645307
27	0x3f177774	0.59166646
28	0x3f7d7f28	0.9902215
29	0x3f30c43b	0.69049424
30	0x3eede139	0.46460894
31	0x3eb0037d	0.3437766
32	0x3f1c23ed	0.6099232
33	0x3f543a0b	0.82901067
34	0x3e052332	0.13001707
35	0x3f4100e1	0.75391966
36	0x3f51fc90	0.82026005
37	0x3f912cdb	1.1341814
38	0x3f8b3e01	1.0878297
39	0x3f60f749	0.8787733
40	0x3fb75092	1.4321463
41	0x3f52db5a	0.82365954
42	0x3e5c1b21	0.21494724
43	0x3f74aafb	0.95573395
44	0x3f1f76d6	0.62290704
45	0x3f5bfb13	0.85929984
46	0x3ef1686d	0.47149983
47	0x3f4a641a	0.7905899
48	0x3f4295d2	0.7600986
49	0x3e7a7372	0.24458101
50	0x3f6b2af4	0.91862416
51	0x3fa930e0	1.321804
52	0x3ee919be	0.45527452
53	0x3f0d0001	0.5507813
54	0x3f6eb65e	0.9324702
55	0x3ee0e021	0.43920997
56	0x3f0c3a57	0.5477652
57	0x3e67b451	0.22627379
58	0x3f51f9fd	0.82022077
59	0x3f212ed3	0.62962073
60	0x3fadd0fd	1.3579403
61	0x3f2e259c	0.6802614
62	0x3f8d24a6	1.1026809
63	0x3ef7a0da	0.48364908
64	0x3f088162	0.5332242
65	0x3f465b81	0.77483374
66	0x3e9f9076	0.31164902
67	0x3f15d8eb	0.58534116
68	0x3f84c5c4	1.0372853
69	0x3f2e36dd	0.68052465
70	0x3f97f3f2	1.1871321
71	0x3f0cbba5	0.5497382
72	0x3f722316	0.94584787
73	0x3f4c19c9	0.79726845
74	0x3e806ddb	0.25083813
75	0x3f54dd1a	0.83149874
76	0x3f9927bd	1.1965252
77	0x3f4625e9	0.77401596
78	0x3f7dfd8f	0.99215025
79	0x3e97cc2d	0.2964796
80	0x3f3ac49c	0.7295625
81	0x3ed853c2	0.42251402
82	0x3f838939	1.0276252
83	0x3e913667	0.28361818
84	0x3facbd56	1.3495281
85	0x3f2e20f5	0.6801904
86	0x3f3cc430	0.7373686
87	0x3fa986e8	1.3244295
88	0x3f5c989a	0.8617035
89	0x3ed135e5	0.4086143
90	0x3efba701	0.4915085
91	0x4002e1cb	2.0450313
92	0x3ef608e8	0.4805367
93	0x3f9c1688	1.2194376
94	0x3ed6aef4	0.41930354
95	0x3e8c7858	0.27435565
96	0x3f8922e1	1.0713769
97	0x3f388af3	0.7208702
98	0x3f72a06a	0.9477602
99	0x3f597fe9	0.849608
100	0x3fbd44cc	1.478662
101	0x3eb38d23	0.35068616
102	0x3fc469c6	1.534478
103	0x3f11fb61	0.570242
104	0x3edcf34f	0.4315438
105	0x3ef59779	0.47967127
106	0x3f28cb13	0.65934867
107	0x3f2262df	0.63432115
108	0x3f62030c	0.882859
109	0x3f796c2f	0.974307
110	0x3f9580b9	1.1679908
111	0x3f04f37f	0.51934046
112	0x3e8fb39c	0.2806672
113	0x3f216e53	0.63058966
114	0x3f1c1d6d	0.609824
115	0x3ebd6ec5	0.36998573
116	0x3e9f44c8	0.31107163
117	0x3f21fd50	0.6327715
118	0x3eeebcae	0.46628326
119	0x3f2631a8	0.6491952
120	0x3f2b642a	0.66949713
121	0x3f10bba5	0.5653632
122	0x3ec8f745	0.39251152
123	0x3ef84089	0.48486736
124	0x3f131af8	0.57463026
125	0x3f88d672	1.0690444
126	0x3fb0c828	1.3811083
127	0x3f0861ff	0.5327453
128	0x3f68efd5	0.90990955
129	0x3f834891	1.025652
130	0x3f8a8169	1.0820743
131	0x3f22fc5f	0.6366634
132	0x3e22c2fb	0.15894692
133	0x3e1feff2	0.15618876
134	0x3f288fa3	0.6584417
135	0x3f27e9ce	0.6559113
136	0x3eddc648	0.4331534
137	0x3f1fa318	0.62358236
138	0x3fa3acb4	1.278708
139	0x3f236fbe	0.6384238
140	0x3f9b0425	1.211064
141	0x3f79d96f	0.975974
142	0x3f707da7	0.9394173
143	0x3f4db2e1	0.8035107
144	0x3e3e5fe6	0.1859127
145	0x3e851a39	0.2599657
146	0x3e5f7522	0.21822026
147	0x3f16f3b4	0.5896561
148	0x3e8c0382	0.27346426
149	0x3f4f7090	0.8103113
150	0x3e962d77	0.29331562
151	0x3e2a54b0	0.16633868
152	0x3f6cfeb8	0.9257617
153	0x3f39e858	0.72620153
154	0x3f4510a4	0.76978517
155	0x3fbb2131	1.4619504
156	0x3f585071	0.84497744
157	0x3f3c1e9b	0.734842
158	0x3ebf357a	0.37345487
159	0x3eca4abd	0.39510146
160	0x3f19f669	0.6014162
161	0x3fdb3436	1.7125309
162	0x3f84e651	1.0382787
163	0x3f723dc7	0.94625515
164	0x3f9620a8	1.1728716
165	0x3f24342e	0.6414212
166	0x3f8140b7	1.0097874
167	0x3e98adbe	0.29820055
168	0x3f420a5a	0.75797045
169	0x3f26dc8d	0.65180284
170	0x3ec1993e	0.37812227
171	0x3f9bd8e2	1.2175562
172	0x3f75ea95	0.9606107
173	0x3f113b1a	0.56730807
174	0x3e3fa014	0.18713409
175	0x3f800785	1.0002295
176	0x3e512f21	0.20428135
177	0x3f0822d3	0.5317814
178	0x3e64de4d	0.22350426
179	0x3f3bdcbb	0.7338368
180	0x3f8b6677	1.0890645
181	0x3ecfe032	0.40600735
182	0x3ea26a88	0.31721902
183	0x3e44963d	0.19197936
184	0x3e161d28	0.1465956
185	0x3f7650bf	0.9621696
186	0x3f579ea0	0.8422642
187	0x3f802fab	1.0014547
188	0x3f4cd362	0.80010045
189	0x3e7758ff	0.24155043
190	0x3ea2e7e9	0.31817558
191	0x3e83bffc	0.2573241
192	0x3f4b0df0	0.7931814
193	0x3f3e3611	0.7430125
194	0x3f423d4a	0.7587477
195	0x3f74934e	0.9553727
196	0x3ecc6148	0.3991797
197	0x3f972566	1.1808288
198	0x3f3e6403	0.74371356
199	0x3fbfd498	1.4986753
200	0x3f472e4a	0.77805007
201	0x3f97dd66	1.186444
202	0x3f42b717	0.7606062
203	0x3f4ed81d	0.8079851
204	0x3ea72d58	0.32651782
205	0x3fb44864	1.4084592
206	0x3ee54836	0.44781655
207	0x3f97c6a8	1.18575
208	0x3f0ec2c1	0.5576592
209	0x3f8697ec	1.0515113
210	0x3f2835b8	0.6570697
211	0x3e8c5faa	0.27416736
212	0x3f338872	0.70130074
213	0x3fa3c86e	1.2795541
214	0x3f4f291b	0.80922097
215	0x3f20100b	0.6252448
216	0x3e8254c1	0.25455287
217	0x3fb4e703	1.4132999
218	0x3f486892	0.7828456
219	0x3f24fa2b	0.64444226
220	0x40140ff6	2.3134742
221	0x3f9d60b0	1.2295132
222	0x3f10af85	0.5651782
223	0x3e772321	0.24134494
224	0x3f836ad4	1.0266976
225	0x3eb578e7	0.35443804
226	0x3f49119a	0.7854248
227	0x3f056d64	0.5212004
228	0x3f3dc552	0.7412921
229	0x3f5a1baf	0.8519849
230	0x3f1137fb	0.56726044
231	0x3f69cd2f	0.9132871
232	0x3f4944cc	0.786206
233	0x3eb4e59c	0.35331428
234	0x3ea866fd	0.32891074
235	0x3e81311e	0.25232786
236	0x3fdb7793	1.7145866
237	0x3ead71ce	0.3387589
238	0x3f0a861e	0.54110897
239	0x3f1f098b	0.62123936
240	0x3fa05390	1.2525501
241	0x3f84c16c	1.0371528
242	0x3f3544c7	0.7080807
243	0x3f41ba47	0.7567486
244	0x3f454e7b	0.77072877
245	0x3f230bb7	0.6368975
246	0x3f7247bf	0.94640726
247	0x3f6da82f	0.9283475
248	0x3f3b78e3	0.73231333
249	0x3fa69e42	1.3017046
250	0x3f58df89	0.8471609
251	0x3edb0a9d	0.42781535
252	0x3f2249ba	0.6339375
253	0x3f25c968	0.64760447
254	0x3f3262c2	0.6968194
255	0x3ef3ce8b	0.47618517

fc2.weight f4 [256, 256]
0	0xbc9fe73e	-0.019519445
1	0xbcb50c21	-0.02210051
2	0x3c0822fe	0.008309124
3	0x3c6526ac	0.013986271
4	0xbb075b2b	-0.0020653706
5	0xbb90eae9	-0.0044225347
6	0xbca5d980	-0.020245314
7	0xbbf95902	-0.0076094875
8	0x3d374f45	0.04475333
9	0xbad8e236	-0.0016546908
10	0xbc3e42d6	-0.011612615
11	0xbcb1f17d	-0.021721596
12	0x3c60961e	0.013707666
13	0xbc4aca1d	-0.012377289
14	0x3c4d8ddd	0.01254603
15	0xbc840ba3	-0.01611883
16	0x3d347149	0.04405335
17	0xbca935c6	-0.020655524
18	0xbcb0a8cd	-0.021564865
19	0xbc82d539	-0.015970813
20	0xbc22188c	-0.009893548
21	0xbcb901d0	-0.022583872
22	0xbc165cca	-0.009177396
23	0xbd4fe5b7	-0.050756183
24	0x3ba61fef	0.0050697247
25	0x3ca0a824	0.019611426
26	0x3d1cdfbc	0.038299307
27	0xbc53eac4	-0.01293439
28	0x3cd51f7f	0.026015995
29	0x3c8457f6	0.016155224
30	0xbd390c52	-0.045177765
31	0xbb1e7685	-0.002417953
32	0x3d18b1a0	0.03727877
33	0x3b98afc5	0.0046596252
34	0xbb64821f	-0.0034867597
35	0xbc941823	-0.018077916
36	0x3c816622	0.015795771
37	0xbb8c1463	-0.004274891
38	0xbc1f334a	-0.009716818
39	0x3ba13eca	0.004920815
40	0x3cfcc298	0.030854508
41	0x3cecef78	0.028922781
42	0xbd0c816f	-0.034303125
43	0xbc778339	-0.0151069695
44	0xbbe7188f	-0.007052488
45	0xbcbfdb18	-0.023419902
46	0xbd001c3d	-0.03127693
47	0x3a0834b1	0.000519584
48	0xbbc5aa07	-0.0060322317
49	0x3cbcd888	0.023052469
50	0x3d06cbe3	0.032909285
51	0x3b0512c2	0.002030537
52	0x3ab05b14	0.0013454878
53	0xbc12976f	-0.008947237
54	0x3c09b8be	0.008405862
55	0x3b0b3a5a	0.0021244497
56	0x3c8a62bf	0.016892789
57	0x3c782973	0.015146601
58	0xbc5f6db4	-0.013636995
59	0x3b858bf1	0.00407552
60	0x3c88c616	0.016696017
61	0xbc646c96	-0.0139419045
62	0xbac83a8f	-0.0015276241
63	0xb9cf726c	-0.00039567368
64	0x3cf233f7	0.029565794
65	0x3c261490	0.010136738
66	0xbd09a9bf	-0.033609148
67	0xbc813ac7	-0.015775098
68	0x3c0cbd9e	0.00859013
69	0x3bcecabf	0.0063107903
70	0x3cda2f3d	0.026633853
71	0x3cd19549	0.02558388
72	0x3bdf55a8	0.006815631
73	0x3c88c5f0	0.016695946
74	0x3d12d805	0.035850544
75	0x3b0df418	0.0021660384
76	0xbc0ca508	-0.008584268
77	0x3ccbe7a6	0.024890732
78	0x3b7c70bf	0.003851935
79	0xbcf5db93	-0.030011928
80	0xbc7a98ec	-0.0152952485
81	0xbc0032e0	-0.00782463
82	0x3c89898f	0.016789226
83	0xbcc4e7d3	-0.024036324
84	0xbb382962	-0.0028100838
85	0x3d4e51b0	0.050370872
86	0x3b5b6466	0.003347659
87	0x3c8b7537	0.017023666
88	0xbca7ee43	-0.020499354
89	0xbba4e11a	-0.005031717
90	0xbb4ef046	-0.003157632
91	0xbad0a33d	-0.001591779
92	0xbc85859d	-0.016299063
93	0x3bfeba8b	0.0077737025
94	0xbd0fbfca	-0.035095014
95	0xbc7877d8	-0.015165292
96	0xbc221d8f	-0.009894743
97	0x3c5ec044	0.013595644
98	0x3a942131	0.0011301396
99	0xbc83bbf0	-0.016080827
100	0x3cc2dec8	0.023787871
101	0xbbf608d2	-0.0075083757
102	0x3afdde2b	0.0019368579
103	0xbb58e27c	-0.003309398
104	0xbc5ae49f	-0.013360172
105	0x3944bab3	0.00018761567
106	0x3af3318e	0.0018554197
107	0x3d21be84	0.03948833
108	0xbc99d93c	-0.018780343
109	0x3cd673da	0.02617829
110	0x3c04caee	0.008105023
111	0xbc424ede	-0.011859624
112	0xbc0b56e3	-0.008504602
113	0x3bd45269	0.0064795506
114	0x3c642894	0.01392569
115	0x3b98079f	0.0046395804
116	0x3c2323a3	0.009957227
117	0xbc1f4208	-0.009720333
118	0x3bd1c531	0.006401681
119	0xbbb05169	-0.0053807986
120	0xbb7f04a2	-0.0038912673
121	0xbc84c5fe	-0.016207691
122	0x3c887925	0.016659329
123	0x3cd977f3	0.026546454
124	0x3c8e39ad	0.017361486
125	0xbc95e50c	-0.018297695
126	0x3c3ef810	0.011655822
127	0xbc5de4ea	-0.013543347
128	0xbc853661	-0.016261281
129	0x3d530a79	0.05152366
130	0xbd0bdfb8	-0.0341489
131	0xbd142de4	-0.036176577
132	0xbd3e99fb	-0.046533566
133	0xbb598351	-0.0033189843
134	0x3cee820b	0.029114744
135	0xbcba5ab3	-0.022748327
136	0xbbe3d835	-0.006953264
137	0xbad0f7af	-0.0015942956
138	0x3c3eb551	0.011639909
139	0x3cba178e	0.02271631
140	0xbafd42c2	-0.0019322264
141	0x3c02a126	0.007972991
142	0xbbe56287	-0.0070002708
143	0x3c0ab35d	0.008465615
144	0x3cbcbe73	0.023040032
145	0x3bedeb49	0.007260714
146	0xbce9c220	-0.028534949
147	0x3b9ce52c	0.0047880616
148	0xbd21fdcb	-0.039548676
149	0xbc82f41f	-0.015985547
150	0xbc6d5fc8	-0.014488168
151	0xbcc446f7	-0.02395962
152	0xbb96a50e	-0.004597313
153	0x3c6d0e43	0.014468732
154	0x3999436d	0.0002923267
155	0xbb2d2484	-0.002641947
156	0x3bc25850	0.005930938
157	0xbbe1f343	-0.006895454
158	0xbc63a0f5	-0.013893356
159	0xbcff6754	-0.0311772
160	0xbcc1f789	-0.023677604
161	0xbb938c2d	-0.0045027942
162	0xbbdae06d	-0.0066795857
163	0xbd0b27a0	-0.033973336
164	0x3b26ea32	0.002546918
165	0xbca1d0b2	-0.019752834
166	0x3bcc64de	0.0062376102
167	0xbce7a46c	-0.028276645
168	0x3ca72747	0.020404471
169	0x3cbd32e9	0.023095565
170	0xbc23ac1b	-0.009989764
171	0xbb66f460	-0.0035240874
172	0xbc082aab	-0.008310954
173	0xbb653c0a	-0.0034978413
174	0xbcae4250	-0.021271855
175	0x3c0cda6c	0.008596998
176	0xbcb42f66	-0.021995258
177	0xbb2baf69	-0.0026197082
178	0xbd3bd6da	-0.045859195
179	0xbd0f0663	-0.0349182
180	0x3c85e290	0.016343385
181	0xbca89cc5	-0.020582566
182	0xbd328dfb	-0.043592434
183	0xbcb353ab	-0.021890482
184	0x3d55b20e	0.05217176
185	0xbc05fd3f	-0.008178054
186	0xbcca70f8	-0.02471207
187	0xbcd2f131	-0.025749775
188	0xbcb40e6d	-0.021979535
189	0xbc4f5ae0	-0.012655944
190	0xbc907590	-0.017634183
191	0xbb3d5a4a	-0.0028892928
192	0xbbec8dc5	-0.0072190487
193	0xbb7a2be0	-0.0038173124
194	0x3c6e68e7	0.014551378
195	0xbc7d7b1f	-0.015471249
196	0xbb890dfd	-0.0041825757
197	0xbc47f241	-0.012203754
198	0xbc262e67	-0.010142899
199	0x3c7127dc	0.014718976
200	0x3bc4d083	0.006006302
201	0xbb27c8a6	-0.0025601774
202	0xbd589ffd	-0.05288695
203	0xbc9c3cec	-0.019072019
204	0xbcd5451d	-0.026033932
205	0x3c3726fe	0.01117873
206	0xbcb898b5	-0.022533754
207	0xbc57815f	-0.013153403
208	0xbc294f7e	-0.010333894
209	0x3c80a3cc	0.015703104
210	0xbc145204	-0.009052757
211	0x3a080ae6	0.0005189612
212	0xba88dd50	-0.0010441933
213	0x3bd9a474	0.006641919
214	0xbaef3ee9	-0.0018253002
215	0x3b8efd37	0.0043636817
216	0xbc96c6b0	-0.018405288
217	0xbc3a0824	-0.01135448
218	0xbd11e230	-0.0356161
219	0xbc485ad4	-0.012228686
220	0x3bba3cc8	0.005683515
221	0x3b93b547	0.004507694
222	0xbb93de65	-0.0045125955
223	0x3ccc2cdf	0.02492374
224	0x3ba50062	0.005035446
225	0xba18c02b	-0.0005826975
226	0x3c0aff85	0.008483772
227	0xbce925d0	-0.028460413
228	0x3c36c973	0.011156428
229	0xbc5edbdc	-0.013602223
230	0x3c4eb53d	0.012616453
231	0xb9ea81ed	-0.0004472876
232	0xbb88cf04	-0.004175069
233	0x3c7dd798	0.015493296
234	0xbd3272ed	-0.043566633
235	0x3d301a6c	0.042993948
236	0xbbebc890	-0.00719554
237	0xbc95803b	-0.018249622
238	0xbcb63692	-0.022242818
239	0x3ce6ef5c	0.028190307
240	0x3ca67940	0.020321488
241	0x3d4177a5	0.047233243
242	0xbd08df4d	-0.03341608
243	0x3c8e14f8	0.017343983
244	0xbcb9e8bf	-0.02269399
245	0xbc5211d7	-0.012821636
246	0xbbdcbcb2	-0.0067363614
247	0x3c2e879c	0.010652449
248	0xbbb1f90e	-0.005431301
249	0x3c0f4a6c	0.008745771
250	0xbccdf766	-0.025142383
251	0xbca0a0f3	-0.019607997
252	0xbbb5b144	-0.0055448133
253	0x3c32cf2b	0.0109136505
254	0xbbb55be3	-0.0055346354
255	0x3caeb9ea	0.021328885
