Models/lol_model_robust.pth (torch, 655501 bytes, 22 tensors)

champ_embedding.weight f4 [1000, 32]
0.043762445 0.44025066 0.8767535 -0.15358375 1.8601335 1.177417 -1.0771477 -0.44761795
0.46760163 -0.22578715 -0.45618156 -2.1805832 0.16354866 -0.055370096 -1.9683269 -0.930265
-0.9150992 0.76240903 -0.042354222 0.47897735 -0.24153773 0.0053125354 -0.29042992 -0.7843043
-0.7316857 -0.61206895 -0.42622772 -1.9567735 -1.771985 -0.97472084 -0.63962394 0.26068327
0.3825645 0.4249808 -0.38780093 -3.3366175 0.45978805 -0.14148167 -1.7439884 -0.83262616
1.2570938 0.98729235 1.8091667 0.2842316 0.36746678 0.49022892 -1.7299122 -0.07189267
0.020257352 0.39228994 -1.9017574 -1.6067288 0.7975416 -1.5194468 -1.5899733 -0.77854705
-0.18756057 0.4382299 1.1179855 0.72594327 -2.0644367 0.25005522 1.6968154 0.25902033
-0.039119605 0.86109066 -1.5336375 -0.027145734 0.14208972 -1.4295262 -1.0614539 0.5998218
0.2551893 0.49470145 0.66995573 0.85731554 2.551341 -1.0082036 -0.21511269 0.16214912
0.8057894 -1.1219815 -2.6480217 0.073177025 1.3339792 0.32140583 1.7021519 0.634829
-0.771913 -0.1398283 1.876517 0.35696214 0.2541625 -0.49774453 0.74365205 -0.543056
-0.5643708 -0.4322475 0.7548395 1.8891376 -0.7169105 -2.0730898 0.6519917 1.1635898
-0.77866393 0.06499625 -0.5205782 1.998361 -0.17589098 -0.2210421 -0.8434566 0.64085615
-0.19915506 0.1890724 -0.05970474 0.3090989 -0.17787078 -0.7915951 1.1403142 0.1222398
-0.5514528 0.28166732 0.7551546 1.5505074 0.1656831 2.5950081 -0.70784754 -0.29933715
-1.6117792 0.46350682 0.23473424 -0.35282248 1.3403759 1.4990051 0.21824452 1.0033973
0.6002455 -0.48749536 -0.94240654 0.7893633 -0.5397298 -0.78118676 0.20813283 0.03272105
-0.79610085 -0.08633758 0.6431717 2.0231407 2.063061 0.06533483 -1.4403007 1.5684074
-2.1605673 -0.6943275 -0.6130329 0.9557206 1.5732458 0.2315451 0.28780273 -0.94197655
-0.3347984 -1.5631416 -0.7804747 -1.722669 -0.7367416 -0.2730266 0.8196825 0.22962566
-0.18309295 -1.1245736 -1.6884568 -0.69259423 0.09939284 -0.7100775 -0.558172 -1.7703958
-0.42622143 -1.9992372 0.6786985 -0.057643883 0.12975462 2.1641612 0.1593652 -0.80901855
1.5523906 -1.0998522 0.79388887 -0.9339669 0.84403956 0.72372514 -1.1259866 0.035225354
-0.97639346 0.01765005 0.9661247 0.16770165 0.5534431 0.004489165 -0.74374515 0.29744738
1.3179622 1.0181173 1.7746308 1.5363908 -1.0821822 1.3589116 -0.006763012 -0.17929976
-1.9064506 0.91635793 0.12888114 -0.6589639 1.033475 -0.24468905 -0.82622105 -0.061223965
-0.42240325 -0.9356087 0.9620398 1.2361038 1.3972138 -1.9848084 -0.062485036 0.25655454
-0.9353292 -0.20096244 0.086889856 1.1617002 0.8487701 -0.23792517 -2.1495705 0.124386184
-0.18330304 2.1684442 -1.199463 -0.33153206 -0.3284935 -1.0948539 -0.036425244 -0.16715412
0.3813917 -1.0224199 -0.57686114 -0.23711698 -0.11713595 0.4395973 -0.7621869 0.45427403
-0.5286758 -0.8449727 -1.5122409 0.5311474 0.62925124 -0.17293078 1.4723953 -1.0945861
00000000: 4040 333d 8968 e13e eb72 603f 0f45 1dbe
00000010: db18 ee3f 9ab5 963f fadf 89bf 2e2e e5be
00000020: 7b69 ef3e bf34 67be a190 e9be ad8e 0bc0
00000030: 4d79 273e c1cb 62bd 23f2 fbbf d925 6ebf
00000040: f143 6abf 3d2d 433f 9f7b 2dbd 853c f53e
00000050: ab55 77be c714 ae3b 3bb3 94be 2bc8 48bf
00000060: c14f 3bbf 8db0 1cbf 853a dabe 8e77 fabf
00000070: 68d0 e2bf 4e87 79bf 65be 23bf 4778 853e
00000080: 7fdf c33e 1597 d93e d88d c6be 248b 55c0
00000090: 5769 eb3e 92e0 10be 033b dfbf fd26 55bf
000000a0: 73e8 a03f 31bf 7c3f c692 e73f ce86 913e
000000b0: 9b24 bc3e 49ff fa3e c36d ddbf 773c 93bd
000000c0: bff2 a53c 3ada c83e c96c f3bf 4aa9 cdbf
000000d0: b02b 4c3f 3c7d c2bf 3f84 cbbf dc4e 47bf
000000e0: e10f 40be ab5f e03e 261a 8f3f 6bd7 393f
000000f0: bb1f 04c0 3d07 803e 3f31 d93f 509e 843e
00000100: e13b 20bd 7070 5c3f 3c4e c4bf bb60 debc
00000110: f87f 113e b7fa b6bf b9dd 87bf ec8d 193f
00000120: 2ca8 823e 8249 fd3e 3882 2b3f 0879 5b3f
00000130: 2c49 2340 d10c 81bf 8046 5cbe 6b0a 263e
00000140: 3748 4e3f 179d 8fbf 3079 29c0 d6dd 953d
00000150: d5bf aa3f 4e8f a43e 1de0 d93f 2784 223f
00000160: 179c 45bf 262f 0fbe b631 f03f bec3 b63e
00000170: 9621 823e 5fd8 febe fb5f 3e3f b805 0bbf
00000180: 9b7a 10bf 8b4f ddbe 293d 413f 43cf f13f
00000190: 7287 37bf 81ad 04c0 eee8 263f 83f0 943f
000001a0: 8556 47bf c11c 853d 9d44 05bf 4bca ff3f
000001b0: c41c 34be dc58 62be c6ec 57bf 260f 243f
000001c0: 4eef 4bbe 329c 413e f58c 74bd 3642 9e3e
000001d0: c223 36be faa5 4abf d1f5 913f dc58 fa3d
000001e0: 032c 0dbf b336 903e d051 413f 0777 c63f
000001f0: d5a8 293e 9d14 2640 7f35 35bf b842 99be
00000200: c84e cebf c450 ed3e 2c5e 703e 26a5 b4be
00000210: 7091 ab3f 66df bf3f 7e7b 5f3e 536f 803f
00000220: b0a9 193f fe98 f9be 8e41 71bf b713 4a3f
00000230: bb2b 0abf dbfb 47bf c620 553e 8206 063d
00000240: 44cd 4bbf c2d1 b0bd e7a6 243f 237b 0140
00000250: 3109 0440 44ce 853d c65b b8bf 93c1 c83f
00000260: bc46 0ac0 72bf 31bf b9ef 1cbf 1baa 743f
00000270: 1e60 c93f 291a 6d3e e15a 933e 6025 71bf
00000280: b26a abbe 0615 c8bf 31cd 47bf 6b80 dcbf
00000290: 199b 3cbf 24ca 8bbe b6d6 513f fd22 6b3e
000002a0: b87c 3bbe 07f2 8fbf 5a1f d8bf db4d 31bf
000002b0: 798e cb3d a4c7 35bf 5ce4 0ebf 549c e2bf
000002c0: b239 dabe 01e7 ffbf 2fbf 2d3f fe1b 6cbd
000002d0: 65de 043e 9e81 0a40 a230 233e d71b 4fbf
000002e0: bcb4 c63f f5c7 8cbf 4d3c 4b3f 7418 6fbf
000002f0: fa12 583f 0d46 393f 5420 90bf 7648 103d
00000300: ecf4 79bf d696 903c f353 773f fbb9 2b3e
00000310: 72ae 0d3f d819 933b 1566 3ebf 064b 983e
00000320: fcb2 a83f ab51 823f 1a27 e33f 74a8 c43f
00000330: f284 8abf d1f0 ad3f 429c ddbb 5b9a 37be
00000340: 9306 f4bf 6f96 6a3f 6bf9 033e dcb1 28bf
00000350: e948 843f c48f 7abe 3983 53bf fbc5 7abd
00000360: 3d45 d8be 0d84 6fbf 3e48 763f a638 9e3f
00000370: e7d7 b23f 340e febf 4ff0 7fbd 1e5b 833e
00000380: bc71 6fbf 19c9 4dbe 4ff3 b13d 98b2 943f
00000390: ff48 593f a8a2 73be 9092 09c0 2fbe fe3d
000003a0: cbb3 3bbe cac7 0a40 0188 99bf 92be a9be
000003b0: 4d30 a8be 2c24 8cbf a332 15bd 732a 2bbe
000003c0: c645 c33e a8de 82bf 2cad 13bf cbce 72be
000003d0: f9e4 efbd e612 e13e ae1e 43bf 9b96 e83e
000003e0: 4c57 07bf 2250 58bf 1c91 c1bf 47f9 073f
000003f0: 9c16 213f c414 31be 7377 bc3f 661b 8cbf

role_embedding.weight f4 [5, 8]
1.0148473 1.7125756 0.8006943 0.40451378 -0.13185598 -1.6648589 1.2374123 0.7049214
-0.36616713 -0.9404537 -1.0170085 -1.0140904 -1.3618202 0.4769007 -1.614247 1.2433691
2.4252973 1.175033 0.7160827 0.60254186 0.21029788 0.2008735 0.20515862 -0.76045716
-0.4488843 1.1385596 -0.31890112 1.2821409 -0.3587561 -0.7787546 0.7906614 -1.4953005
1.0024443 0.34770674 0.68584895 0.4236233 -0.93541276 -1.6381768 0.3761181 -1.9298434
00000000: 84e6 813f ad35 db3f 4dfa 4c3f 6e1c cf3e
00000010: 4105 07be 191a d5bf 8763 9e3f bb75 343f
00000020: 427a bbbe 93c1 70bf 562d 82bf b7cd 81bf
00000030: 2050 aebf 542c f43e a59f cebf b826 9f3f
00000040: 1238 1b40 7b67 963f 3251 373f 2f40 1a3f
00000050: 5458 573e c8b1 4d3e 1a15 523e 52ad 42bf
00000060: 2ad4 e5be 52bc 913f 0247 a3be 311d a43f
00000070: e1ae b7be 765c 47bf c968 4a3f 0266 bfbf
00000080: 1850 803f 9e06 b23e cc93 2f3f 27e5 d83e
00000090: 3677 6fbf c7af d1bf 8d92 c03e 1c05 f7bf

fc1.weight f4 [256, 328]
0.08053035 -0.079063945 0.11744539 -0.008175394 -0.1235431 -0.14316262 -0.14054742 0.22552924
-0.09940172 0.07437475 -0.14246835 0.0023146109 0.0062556886 -0.18757209 0.012733146 0.13224536
0.10227271 0.09566047 -0.066064194 0.024519384 -0.029473962 -0.17643721 -0.04786605 0.08500149
0.023131808 0.07602846 0.008035789 0.0062442995 0.051469237 0.09340341 0.026139716 -0.032091733
0.101169944 -0.23005114 0.24378115 -0.16152917 -0.10421274 0.13968487 -0.23027219 -0.040359937
0.030385634 -0.20011145 -0.055367254 -0.10673279 -0.04659782 -0.019849274 0.041341826 0.0031499444
-0.065131 -0.0057931873 0.2044917 -0.030962607 0.08224976 -0.11540427 -0.116901755 0.015997209
0.090825275 0.017460782 0.020273546 -0.040500667 0.15194915 -0.05890078 0.03210459 -0.06257613
-0.09937359 -0.0039277864 0.03585651 -0.16243201 -0.0060347724 -0.071306586 0.041270316 0.051611103
-0.07001173 0.08720028 -0.23452637 -0.035570554 0.024741765 -0.07798934 0.053217333 0.054764036
-0.10788631 0.072017364 0.0540521 0.07513923 -0.035694156 0.1266471 -0.008498077 0.13322678
0.051785957 0.04670189 0.17187636 -0.13778351 0.16640347 0.16787642 0.13269675 0.11237229
0.037218917 -0.06314596 -0.0006943923 -0.041987322 -0.04202091 -0.21440905 -0.14874099 0.057302877
-0.27237332 -0.0028890194 -0.17264822 -0.10017671 -0.007705305 -0.06487538 -0.09453655 0.15898101
0.08439691 -0.11962882 0.12933141 -0.08802711 -0.001999063 -0.047136344 0.09508064 -0.038903985
0.09493808 -0.042439554 -0.2060199 0.0056322967 0.093307205 0.005581886 0.0597172 0.085876726
-0.25624675 0.16832273 0.31825495 -0.0633501 -0.09284523 -0.03869355 -0.16959523 0.055863447
-0.09462893 -0.058713872 0.18285164 0.012628703 0.02341595 -0.1666001 0.061078448 -0.024097443
-0.109102435 0.12347525 -0.07220718 0.091007754 0.0066758725 -0.006529192 -0.01678625 0.014172167
0.13979754 0.037306596 -0.18550496 0.12264748 -0.18161151 0.0805498 0.02341045 -0.08347725
0.036830973 0.034029897 -0.26385614 -0.02453675 -0.046872783 0.15942398 9.799085e-05 -0.074860245
-0.10902629 0.2522865 -0.03596955 -0.055449918 -0.077822536 -0.024955496 -0.03534606 0.10463252
-0.005850388 -0.07641252 0.069885954 0.05795247 -0.053928014 0.19913508 -0.26375604 -0.06440821
0.12723207 0.030179625 0.088690974 -0.03849576 0.04843434 0.04054996 -0.06216008 -0.14449881
-0.30249012 -0.12988256 0.042632267 -0.13582346 0.19835451 -0.18402873 0.054291677 -0.013459012
0.11583316 0.052777067 0.11133166 0.0067094457 0.14709638 0.163952 0.11064504 0.19025265
0.27812207 -0.06611574 -0.023926457 0.22151192 0.12158318 -0.06936177 -0.011916365 0.18581483
-0.18208106 0.3504475 -0.002595856 0.0033403018 -0.0829784 -0.12484448 0.13292296 0.08521269
0.16221185 0.17456688 0.047612913 0.16820626 -0.27460268 0.04336203 -0.39596978 -0.15469496
-0.06061328 0.1024697 -0.10632256 -0.0129993595 0.1720584 0.090081744 -0.051900465 0.06264822
0.0025253855 -0.055682234 -0.111240864 0.114825085 0.1534336 0.007949273 0.029847005 0.0034904275
0.2081883 -0.0135961985 0.05579005 0.13211767 -0.063650616 -0.31841955 0.12891996 -0.082909025
00000000: 19ed a43d 47ec a1bd 3587 f03d 16f2 05bc
00000010: 2a04 fdbd 3999 12be aaeb 0fbe 23f1 663e
00000020: 2193 cbbd ca51 983d 39e3 11be bab0 173b
00000030: 85fc cc3b e612 40be af9e 503c 546b 073e
00000040: 5b74 d13d a3e9 c33d aa4c 87bd e0dc c83c
00000050: 6173 f1bc f5ab 34be 310f 44bd 4315 ae3d
00000060: eb7e bd3c cfb4 9b3d 8ba8 033c fb9c cc3b
00000070: 68d1 523d 494a bf3d f522 d63c 9f72 03bd
00000080: 3032 cf3d 8792 6bbe c4a1 793e e767 25be
00000090: 7d6d d5bd 8d09 0f3e 79cc 6bbe 7650 25bd
000000a0: 4beb f83c 04ea 4cbe c6c8 62bd b996 dabd
000000b0: 5bdd 3ebd f29a a2bc 0c56 293d 4c6f 4e3b
000000c0: 6763 85bd c7d4 bdbb 4666 513e 4ba5 fdbc
000000d0: 9072 a83d 1359 ecbd 306a efbd 940c 833c
000000e0: 9a02 ba3d ea09 8f3c b514 a63c 07e4 25bd
000000f0: 8f98 1b3e f241 71bd 1a80 033d ea27 80bd
00000100: 6184 cbbd a9b4 80bb 47de 123d 9454 26be
00000110: 57bf c5bb 3009 92bd 100b 293d 2a66 533d
00000120: 4f62 8fbd 0f96 b23d ae27 70be 6eb2 11bd
00000130: 3eaf ca3c e0b8 9fbd 6bfa 593d 4150 603d
00000140: 7ff3 dcbd d77d 933d bc65 5d3d 99e2 993d
00000150: 0934 12bd c7af 013e 853b 0bbc 9a6c 083e
00000160: 831d 543d 7b4a 3f3d 5b00 303e 1f17 0dbe
00000170: ac65 2a3e cce7 2b3e a8e1 073e 7123 e63d
00000180: dd72 183d ab52 81bd e107 36ba e6fa 2bbd
00000190: 1e1e 2cbd 0c8e 5bbe 8f4f 18be 6cb6 6a3d
000001a0: 8474 8bbe b455 3dbb b2ca 30be 7229 cdbd
000001b0: c87c fcbb 62dd 84bd 619c c1bd ebcb 223e
000001c0: 4ad8 ac3d f4ff f4bd 746f 043e 8f47 b4bd
000001d0: b602 03bb 0a12 41bd a3b9 c23d c959 1fbd
000001e0: e56e c23d 19d5 2dbd e1f6 52be 218f b83b
000001f0: d917 bf3d 41e8 b63b 069a 743d 23e0 af3d
00000200: c632 83be cb5c 2c3e 50f2 a23e b2bd 81bd
00000210: a425 bebd 217d 1ebd 5faa 2dbe 12d1 643d
00000220: d0cc c1bd f57d 70bd 763d 3b3e 9fe8 4e3c
00000230: ced2 bf3c 3799 2abe 652d 7a3d 0068 c5bc
00000240: 1971 dfbd 98e0 fc3d 5ce1 93bd 4662 ba3d
00000250: 47c1 da3b d5f2 d5bb 5183 89bc 6032 683c
00000260: 1627 0f3e cdce 183d 03f5 3dbe 9a2e fb3d
00000270: 5ef8 39be 4bf7 a43d 46c7 bf3c 1ff6 aabd
00000280: 13dc 163d ef62 0b3d 2718 87be 4b01 c9bc
00000290: adfd 3fbd 0a40 233e 7080 cd38 5450 99bd
000002a0: 2d49 dfbd b22b 813e cf54 13bd 741f 63bd
000002b0: 6c61 9fbd 786f ccbc 08c7 10bd 9349 d63d
000002c0: 9db4 bfbb 2b7e 9cbd 5e20 8f3d 925f 6d3d
000002d0: 9fe3 5cbd 11ea 4b3e 080b 87be 74e8 83bd
000002e0: 2049 023e 433b f73c 9da3 b53d bbad 1dbd
000002f0: 1663 463d b717 263d 919b 7ebd 7ff7 13be
00000300: fcdf 9abe efff 04be 2c9f 2e3d 4e15 0bbe
00000310: 721d 4b3e 0772 3cbe f360 5e3d 3083 5cbc
00000320: f039 ed3d c42c 583d da01 e43d e9da db3b
00000330: 6fa0 163e 08e3 273e de99 e23d 97d1 423e
00000340: 0466 8e3e b067 87bd 6b01 c4bc 05d4 623e
00000350: 9a00 f93d 8b0d 8ebd db3c 43bc 3e46 3e3e
00000360: 7573 3abe db6d b33e 3d1f 2abb f7e8 5a3b
00000370: 94f0 a9bd 76ae ffbd f51c 083e fe83 ae3d
00000380: dd1a 263e a9c1 323e c205 433d 433e 2c3e
00000390: b998 8cbe 629c 313d 8dbc cabe 5b68 1ebe
000003a0: a145 78bd a2db d13d a4bf d9bd 44fb 54bc
000003b0: 1430 303e c77c b83d 9595 54bd b64d 803d
000003c0: f080 253b 0e13 64bd 40d2 e3bd 6a29 eb3d
000003d0: b31d 1d3e ab3d 023c b581 f43c a8bf 643b
000003e0: 502f 553e 97c2 5ebc 1c84 643d db49 073e
000003f0: 415b 82bd e307 a3be 9803 043e 35cc a9bd

fc1.bias f4 [256]
0.040252093 0.02618151 -0.033206843 0.049869683 -0.025336795 -0.027376149 -0.035706665 0.027541189
0.0023959691 -0.016733777 0.012247171 0.048024498 0.03170161 -0.013942478 0.02439399 0.020619987
0.023133082 -0.018312102 -0.0014843032 0.057537563 0.045567162 0.053878818 0.017473977 0.034324195
-0.03522221 -0.025304392 0.0038313058 0.00025144004 -0.017052485 0.026165517 -0.018959815 0.03595649
-0.03877481 0.023282921 -0.007990763 -0.027602568 -0.022062222 0.026304575 0.0047320435 0.047511134
-0.012384107 0.049146526 -0.033467747 -0.03032849 0.032037638 0.024552787 -0.015516382 0.03972467
0.052702323 -0.043418545 0.03902063 0.008003356 0.0010329577 -0.012242081 -0.031678755 -0.028567236
-0.0059168953 -0.0066438764 0.018304363 0.012027024 -0.0048232167 0.017810507 -0.03300274 -0.041164562
0.036849495 0.05590575 0.041096468 0.031222846 0.05216861 0.033824485 -0.037877 0.00028222278
0.022438256 -0.025768856 0.05244568 0.024303742 0.048528805 0.043064866 0.033565886 -0.050462503
0.032146167 -0.02593292 0.038748123 0.051241886 -0.003266341 -0.033459887 0.005572421 0.01725909
-0.047946624 -0.03239237 -0.021256743 -0.013900373 0.006334205 0.012350779 0.028987342 0.05122711
-0.0076563554 0.034320444 0.031023711 -0.02223372 0.040689025 0.010387878 0.02159371 -0.04776575
-0.04839587 0.020155754 -0.018185103 0.021897303 -0.051879246 0.02145582 0.052090514 -0.042008847
-0.027685784 -0.009080141 -0.048183378 -0.021410532 -0.008480704 -0.018977415 0.052446723 0.0099227745
0.033197798 -0.028469011 -0.019526847 -0.04775253 0.0480241 -0.035973273 0.010381207 -0.014891953
-0.043309215 0.041214447 -0.015771244 -0.028162932 0.01812108 0.018428246 0.04820132 0.0334808
0.023265174 0.023083348 -0.03300762 0.004842932 0.018803187 -0.009106029 0.030585304 -0.016514596
-0.01164417 0.04267626 -0.009682191 0.027743876 -0.044704065 0.033893775 0.018875472 -0.04631156
0.012946855 0.053731434 0.003794396 0.048631117 -0.048300706 0.013834111 0.01926647 0.03534967
0.042581275 -0.0049825613 -0.054223306 0.017102301 0.0067484016 0.03619767 0.026348408 0.022992475
-0.053684443 0.004516669 0.022478942 -0.018929293 -0.03451208 -0.038289353 0.0013859879 0.024693027
-0.032874063 0.04838416 -0.018486414 -0.0032878334 0.018116998 0.0041483827 0.004018744 0.033502966
-0.04095103 -0.0032405236 -0.015965711 0.0032227342 0.020362467 0.05474321 -0.008698407 -0.043786045
0.014842751 -0.015432534 -0.0011024897 0.028123595 -0.022288736 -0.034267697 -0.017044604 0.01658015
0.019510254 -0.050735295 0.033178 -0.04593487 -0.030192008 -0.016100405 0.023474252 0.030328516
0.05118128 0.0032086319 -0.023075404 -0.00051229267 0.02691684 -0.03913023 0.0076206704 -0.049347974
-0.0008061897 0.037654813 -0.055212293 -0.036795814 -0.033206075 0.042157035 -0.02845167 -0.038048718
-0.041850843 0.040605534 -0.033854324 -0.045053896 0.021565417 0.031977307 0.026687166 0.006266012
0.053836744 -0.041963305 -0.022741955 -0.0032444284 -0.0064230207 -0.034619957 -0.037495688 -0.009500619
-0.011036623 0.05078709 -0.041065108 -0.050500933 0.014724991 -0.0045073167 -0.00023251973 0.014192427
0.03945072 0.00048042828 0.027378816 0.032204576 0.02082849 -0.046435457 0.04732414 0.046811085
00000000: 61df 243d 9b7a d63c e603 08bd 2744 4c3d
00000010: 1c8f cfbc f243 e0bc 2741 12bd 0f9e e13c
00000020: b105 1d3b 4615 89bc 5ca8 483c 56b5 443d
00000030: 8cd9 013d fe6e 64bc e8d5 c73c 3feb a83c
00000040: 9781 bd3c 4303 96bc f38c c2ba 82ac 6b3d
00000050: a2a4 3a3d 09b0 5c3d 9625 8f3c 8797 0c3d
00000060: 2a45 10bd 284b cfbc a516 7b3b b6d3 8339
00000070: a7b1 8bbc 1159 d63c 9d51 9bbc 1d47 133d
00000080: 56d2 1ebd d3bb be3c b0eb 02bc c81e e2bc
00000090: d5bb b4bc b17c d73c 420f 9b3b 099b 423d
000000a0: b6e6 4abc de4d 493d 7a15 09bd 7473 f8bc
000000b0: e639 033d ed22 c93c 6c38 7ebc 56b6 223d
000000c0: 64de 573d a5d7 31bd 19d4 1f3d 8220 033c
000000d0: 4f64 873a 0293 48bc 95c1 01bd d605 eabc
000000e0: 84e2 c1bb e0b4 d9bb 08f3 953c ff0c 453c
000000f0: 130c 9ebb 57e7 913c e22d 07bd 2c9c 28bd
00000100: 7fef 163d 6dfd 643d c554 283d 0ec7 ff3c
00000110: c1ae 553d 8b8b 0a3d ea24 1bbd 4df7 9339
00000120: 6fd0 b73c 3519 d3bc 48d1 563d a418 c73c
00000130: 24c6 463d c964 303d 627c 093d c5b1 4ebd
00000140: b3ab 033d 4671 d4bc 5ab6 1e3d 03e3 513d
00000150: 1c10 56bb 3c0d 09bd db98 b63b ef62 8d3c
00000160: ae63 44bd ddad 04bd 9f22 aebc 64be 63bc
00000170: 2a8f cf3b ec5a 4a3c dd76 ed3c 85d3 513d
00000180: 2ae2 fabb 9893 0c3d 7025 fe3c 7e23 b6bc
00000190: 89a9 263d eb31 2a3c 4be5 b03c 05a6 43bd
000001a0: bf3a 46bd ae1d a53c edf8 94bc f961 b33c
000001b0: 557f 54bd 1ec4 af3c dd5c 553d 7811 2cbd
000001c0: 4ccd e2bc dfc4 14bc ef5b 45bd 2465 afbc
000001d0: a7f2 0abc 8676 9bbc 60d2 563d 2293 223c
000001e0: 6afa 073d d837 e9bc c4f6 9fbc 2898 43bd
000001f0: ebb4 443d b658 13bd f015 2a3c 61fd 73bc
00000200: 0165 31bd 7bd0 283d b232 81bc f3b5 e6bc
00000210: a972 943c d5f6 963c bf6e 453d 2a23 093d
00000220: 9b96 be3c 4a19 bd3c 0033 07bd 75b1 9e3b
00000230: 2409 9a3c 7431 15bc 088e fa3c 9e49 87bc
00000240: 30c7 3ebc 4dcd 2e3d 0da2 1ebc 2047 e33c
00000250: 9c1b 37bd 33d4 0a3d bca0 9a3c 31b1 3dbd
00000260: 0c1f 543c 7e15 5c3d 67ab 783b 6c31 473d
00000270: f6d6 45bd 78a8 623c b7d4 9d3c d1ca 103d
00000280: b469 2e3d c144 a3bb 4219 5ebd 201a 8c3c
00000290: b221 dd3b 0244 143d 9ed8 d73c b75a bc3c
000002a0: 38e4 5bbd 9100 943b c225 b83c 9b11 9bbc
000002b0: 8a5c 0dbd 4cd5 1cbd 09aa b53a 0849 ca3c
000002c0: f4a6 06bd 782e 463d d270 97bc b178 57bb
000002d0: 196a 943c 28ef 873b abaf 833b 683a 093d
000002e0: 44bc 27bd f75e 54bb 86ca 82bc 8234 533b
000002f0: 30cf a63c 6b3a 603d c383 0ebc ff58 33bd
00000300: 032f 733c bdd8 7cbc 6a81 90ba 7463 e63c
00000310: de96 b6bc 495c 0cbd 20a1 8bbc 18d3 873c
00000320: f8d3 9f3c d0cf 4fbd a8e5 073d 3426 3cbd
00000330: 3b55 f7bc ffe4 83bc 134d c03c 8273 f83c
00000340: 76a3 513d e947 523b a108 bdbc 614b 06ba
00000350: b480 dc3c 0547 20bd d1b6 f93b 1a21 4abd
00000360: 7a56 53ba ef3b 1a3d 4926 62bd 35b7 16bd
00000370: 1803 08bd dbac 2c3d 7a13 e9bc f9d8 1bbd
00000380: ca6b 2bbd fd51 263d d5aa 0abd 6f8a 38bd
00000390: f5a9 b03c a3fa 023d 0b9f da3c 1e53 cd3b
000003a0: eb83 5c3d b7e1 2bbd 564d babc 7aa0 54bb
000003b0: 3478 d2bb a8cd 0dbd 1495 19bd 7ca8 1bbc
000003c0: f4d2 34bc 2006 503d e333 28bd 11da 4ebd
000003d0: 1741 713c 1db2 93bb 8ad0 73b9 5a87 683c
000003e0: 1497 213d fee1 fb39 8a49 e03c f2e8 033d
000003f0: 82a0 aa3c 1b33 3ebd f5d6 413d fbbc 3f3d

bn1.weight f4 [256]
0.83570343 0.81380945 0.9227127 0.87828207 0.9337218 0.9242025 0.85287476 0.7878823
0.8224704 0.8841781 0.89590454 0.9023658 0.8556756 0.8765409 0.8376996 0.75395423
0.95445 0.9103757 0.85284334 0.8884807 0.98675585 0.91859025 0.8063866 0.8378453
0.8447253 0.9524549 0.9033609 0.86292636 0.8666284 0.8734755 0.9486108 0.7746153
0.8832989 0.8654422 0.8595708 0.84976554 0.81110173 0.8965778 0.882649 0.92111355
0.8758197 0.89456415 0.77794915 0.8590449 0.7500226 0.85119814 0.933041 0.8910679
0.8976707 0.8570172 0.90262896 0.90778905 0.8729816 0.8750607 0.82124144 0.89990807
0.8235857 0.81835955 0.9517825 0.79420096 0.8839925 0.85502404 0.8800295 0.8241571
0.8280859 0.86254144 0.9334635 0.9925673 0.8966572 0.8441746 0.82402104 0.8443588
0.82258457 0.85449564 0.86052173 0.9512433 0.84609276 0.8586868 0.8830092 0.9860926
0.85003 0.85971534 0.8718297 0.82885313 0.8888017 0.7783429 0.8465915 0.75713295
0.8498784 0.8290035 0.7785976 0.93999213 0.8304039 0.8796557 0.9016548 0.8831098
0.8446982 0.91026676 0.85249627 0.7697925 0.8000399 0.8407575 0.8767584 0.80785716
0.8949216 0.8051036 0.9262831 0.8923317 0.81793326 0.94762856 0.8325015 0.79672986
0.9573041 0.9089771 0.86223936 0.89121157 0.9331226 0.82924634 0.8676081 0.8431531
0.8392717 0.8691427 0.8187944 0.96011907 0.88719213 0.9353175 0.93804836 0.8280915
0.8351041 0.8633416 0.87360996 0.92423445 0.87892616 0.9073858 0.8624986 0.865305
0.9289383 0.9397985 0.86711675 0.897735 0.80774647 0.87108344 0.82738477 0.8690166
0.9291324 0.8331238 0.9031853 0.8783166 0.96655786 0.9110023 0.89181495 0.812661
0.83206666 0.8630175 0.9245359 0.90690434 0.8539312 0.8799461 0.7982372 0.8354435
0.8467278 0.77287984 0.7984972 0.7965975 0.8306922 0.80167 0.87009895 0.8884256
0.829804 0.8289005 0.85511106 0.88908243 0.7898072 0.8344703 0.965457 0.9558551
0.84276676 0.8585682 0.876953 0.82831615 0.91269374 0.8609346 0.86031383 0.8729788
0.9243034 0.8572466 0.903491 0.85264057 0.9182179 0.87953514 0.95467585 0.916143
0.8893412 0.87156105 0.8542508 0.7887968 0.87030613 0.8636846 0.8740619 0.9330172
0.8865079 0.9741881 0.85841954 0.8324343 0.92158335 0.8288658 0.9602411 0.8592248
0.9577864 0.8356023 0.95585746 0.83814806 0.91246253 0.87031496 0.8531338 0.86916167
0.89038295 0.8084972 0.8184893 0.8878543 0.88865167 0.74533904 0.8839087 0.83909345
0.9172815 0.8314376 0.85885876 0.9117204 0.9881655 0.9060863 0.7996973 0.88571376
0.84058136 0.9038164 0.8556475 0.82387453 0.94028056 0.863062 0.92227715 0.80724496
0.8896892 0.9227246 0.84620655 0.934919 0.81590104 0.8185823 0.94794756 0.85749614
0.9005273 0.85610217 0.84184617 0.8346246 0.905051 0.8534611 0.9966941 0.89121765
00000000: a9f0 553f d155 503f e636 6c3f 18d7 603f
00000010: 6408 6f3f 8998 6c3f 0056 5a3f a8b2 493f
00000020: 6c8d 523f 7f59 623f 005a 653f 7201 673f
00000030: 8e0d 5b3f fc64 603f 7b73 563f 2503 413f
00000040: d656 743f 620e 693f f153 5a3f 7973 633f
00000050: 089c 7c3f bb28 6b3f 5a6f 4e3f 087d 563f
00000060: eb3f 583f 16d4 733f a942 673f bee8 5c3f
00000070: 5cdb 5d3f 179c 5f3f 28d8 723f 304d 463f
00000080: e01f 623f 9f8d 5d3f d50c 5c3f 3c8a 593f
00000090: 5da4 4f3f 1f86 653f 49f5 613f 19ce 6b3f
000000a0: b835 603f 2802 653f ad27 473f 5eea 5b3f
000000b0: 7b01 403f 1fe8 593f c6db 6e3f 071d 643f
000000c0: bfcd 653f 7b65 5b3f b112 673f dd64 683f
000000d0: b97b 5f3f fa03 603f e13c 523f 6060 663f
000000e0: 83d6 523f 0380 513f 05a8 733f c150 4b3f
000000f0: 554d 623f dbe2 5a3f 9d49 613f f6fb 523f
00000100: 70fd 533f 84cf 5c3f 77f7 6e3f e418 7e3f
00000110: 548b 653f d41b 583f 0bf3 523f e627 583f
00000120: e794 523f 3ac0 5a3f 274b 5c3f ae84 733f
00000130: 8999 583f e6d2 5b3f e40c 623f 9170 7c3f
00000140: 919b 593f 4e16 5c3f 3b30 5f3f b82f 543f
00000150: 8288 633f 7b41 473f 38ba 583f 77d3 413f
00000160: a191 593f 9339 543f 2c52 473f 53a3 703f
00000170: 5a95 543f 1e31 613f d9d2 663f 7c13 623f
00000180: 243e 583f 3e07 693f 323d 5a3f 1f11 453f
00000190: 6acf 4c3f e23b 573f 3d73 603f bacf 4e3f
000001a0: 9519 653f 451b 4e3f e420 6d3f da6f 643f
000001b0: 1364 513f c997 723f d11e 553f 7df6 4b3f
000001c0: e211 753f b9b2 683f b8bb 5c3f 7126 643f
000001d0: 1fe1 6e3f 7d49 543f 901b 5e3f e2d8 573f
000001e0: 83da 563f 2380 5e3f 839c 513f 5dca 753f
000001f0: 061f 633f f870 6f3f f023 703f cefd 533f
00000200: 62c9 553f f503 5d3f e7a4 5f3f a19a 6c3f
00000210: 4e01 613f 704a 683f b5cc 5c3f a184 5d3f
00000220: e7ce 6d3f a296 703f 5dfb 5d3f f6d1 653f
00000230: 79c8 4e3f 53ff 5e3f 7dcf 533f df77 5e3f
00000240: 9fdb 6d3f 9a47 553f 2737 673f 5bd9 603f
00000250: 5670 773f 7237 693f fc4d 643f 8d0a 503f
00000260: 5202 553f b7ee 5c3f 62ae 6c3f e22a 683f
00000270: 3c9b 5a3f 2644 613f 4659 4c3f a0df 553f
00000280: 27c3 583f 74db 453f 506a 4c3f d0ed 4b3f
00000290: 3ea8 543f 3f3a 4d3f cebe 5e3f dc6f 633f
000002a0: 096e 543f d332 543f 8fe8 5a3f e89a 633f
000002b0: ce30 4a3f d89f 553f 3128 773f ebb2 743f
000002c0: 90bf 573f 20cb 5b3f fe7f 603f 870c 543f
000002d0: 4ca6 693f 3666 5c3f 873d 5c3f 8a7b 5f3f
000002e0: 269f 6c3f 8374 5b3f 304b 673f a746 5a3f
000002f0: 5410 6b3f 3729 613f a365 743f 5988 6a3f
00000300: ddab 633f a01e 5f3f 2eb0 5a3f 96ee 493f
00000310: 62cc 5e3f 6f1a 5d3f 85c2 5f3f 37da 6e3f
00000320: 2ff2 623f 6464 793f 62c1 5b3f 6a1a 553f
00000330: e3ec 6b3f 8d30 543f 5cd2 753f 28f6 5b3f
00000340: 7d31 753f 08ea 553f 13b3 743f df90 563f
00000350: 2597 693f f6cc 5e3f fa66 5a3f 6181 5e3f
00000360: 23f0 633f acf9 4e3f 8488 513f 6b4a 633f
00000370: ad7e 633f 8ace 3e3f d747 623f d4ce 563f
00000380: f6d2 6a3f 18d9 543f 2bde 5b3f 8266 693f
00000390: 6af8 7c3f 46f5 673f f6b8 4c3f 23be 623f
000003a0: 5730 573f 8360 673f b70b 5b3f 71e9 523f
000003b0: 3ab6 703f a2f1 5c3f 5b1a 6c3f 9ba7 4e3f
000003c0: acc2 633f ae37 6c3f fea0 583f da56 6f3f
000003d0: e4de 503f 9c8e 513f b1ac 723f de84 5b3f
000003e0: f588 663f 8329 5b3f 3b83 573f f5a9 553f
000003f0: 6cb1 673f 6d7c 5a3f 5827 7f3f d726 643f

bn1.bias f4 [256]
-0.72400504 -0.48164257 -0.54355925 -0.47754022 -0.5796461 -0.48923898 -0.5508128 -0.53267324
-0.6718984 -0.62571245 -0.45318812 -0.50395066 -0.5335802 -0.43703488 -0.49543938 -0.51727813
-0.568375 -0.7057876 -0.532869 -0.5879864 -0.4311699 -0.6541855 -0.5288097 -0.52234393
-0.1210294 -0.20960052 -0.4970569 -0.5222714 -0.65021974 -0.51914406 -0.1405674 -0.5563549
-0.31542513 -0.64391047 -0.5984548 -0.07229699 -0.48128644 -0.36598736 -0.7286153 -0.6000088
-0.58983624 -0.6771024 -0.5644065 -0.65133286 -0.46369705 -0.6317488 -0.43033776 -0.57379687
-0.6618619 -0.57382995 -0.55109006 -0.63053155 -0.3120731 -0.6489034 -0.4538609 -0.5633957
-0.71999186 -0.44603303 -0.18530743 -0.57071054 -0.4932549 -0.4629134 -0.3990748 -0.57091284
-0.58308583 -0.55453044 -0.45678666 -0.4709018 -0.6601635 -0.50698286 -0.6628396 -0.60642445
-0.6947137 -0.6101056 -0.61479163 -0.6614887 -0.43974334 -0.6083572 -0.6437996 -0.25772417
-0.7214069 -0.649305 -0.66230303 -0.5583949 -0.46551085 -0.53200674 -0.6657449 -0.3683444
-0.672377 -0.0899165 -0.6063827 -0.48066083 -0.58073145 -0.26695788 -0.47754863 -0.52727926
-0.5080271 -0.33244404 -0.34173277 -0.59706426 -0.4879884 -0.5541455 -0.47253853 -0.36961365
-0.57791907 -0.74699664 -0.7410979 -0.56321806 -0.4909033 -0.4565578 -0.5129698 -0.54044485
-0.47742134 -0.43085292 -0.548086 -0.6457426 -0.42023933 -0.6756089 -0.518919 -0.60552627
-0.6658746 -0.4460939 -0.6185318 -0.36602113 -0.52722406 -0.52777797 -0.67020726 -0.68647784
-0.6913549 -0.7150968 -0.45979738 -0.46432507 -0.4489288 -0.4954179 -0.68419814 -0.52101785
-0.58727044 -0.5878978 -0.6284886 -0.7205197 -0.68471426 -0.50154823 -0.26802042 -0.593226
-0.36787927 -0.5123214 -0.19426629 -0.59124047 -0.5392472 -0.48973274 -0.6020553 -0.63433194
-0.5486437 -0.6461132 -0.52526486 -0.6196791 -0.68396217 -0.48459333 -0.64887273 -0.5667563
-0.5419808 -0.5131828 -0.5376157 -0.66415805 -0.6950854 -0.40980306 -0.6050449 -0.3980866
-0.54390764 -0.55679804 -0.64686966 -0.4745254 -0.60491467 -0.16122688 -0.6045016 -0.51137847
-0.46129012 -0.6441605 -0.5979123 -0.4465209 -0.37192148 -0.4204591 -0.5580223 -0.60102314
-0.50096595 -0.59523165 -0.446398 -0.50060743 -0.663162 -0.4836843 -0.62231034 -0.53741056
-0.6467005 -0.6827813 -0.6734909 -0.59289825 -0.52016646 -0.5873861 -0.70970184 -0.4819599
-0.5991974 -0.39112908 -0.55450153 -0.58157384 -0.55990565 -0.5657899 -0.3587973 -0.5876315
-0.73069584 -0.5414571 -0.14218315 -0.5033551 -0.6557084 -0.6144896 -0.44166306 -0.519778
-0.5704703 -0.4427986 -0.4587546 -0.607717 -0.4246598 -0.46679926 -0.5812116 -0.75341797
-0.63243675 -0.3831221 -0.6397859 -0.5562291 -0.3969387 -0.7357023 -0.5434065 -0.52110505
-0.5330446 -0.73003393 -0.696624 -0.5691047 -0.53936464 -0.55637056 -0.326779 -0.42773497
-0.6920651 -0.40914807 -0.5323534 -0.46695504 -0.63428414 -0.56538004 -0.507401 -0.60399824
-0.76526004 -0.60617304 -0.6395722 -0.6678062 -0.5726738 -0.53430563 -0.60278916 -0.5831599
00000000: 6558 39bf db99 f6be b326 0bbf 2780 f4be
00000010: b063 14bf 887d fabe 1102 0dbf 465d 08bf
00000020: 8901 2cbf b12e 20bf 4608 e8be e902 01bf
00000030: b698 08bf 09c3 dfbe 3baa fdbe 576c 04bf
00000040: 0681 11bf 7fae 34bf 1a6a 08bf 4786 16bf
00000050: 4dc2 dcbe b378 27bf 1360 07bf 55b8 05bf
00000060: 43de f7bd 85a1 56be 3e7e febe 94b3 05bf
00000070: cd74 26bf a0e6 04bf e7f0 0fbe 466d 0ebf
00000080: 677f a1be 51d7 24bf 5534 19bf 7210 94bd
00000090: 2d6b f6be b262 bbbe 8886 3abf 2d9a 19bf
000000a0: 82ff 16bf 9556 2dbf f27c 10bf c0bd 26bf
000000b0: b369 edbe 4aba 21bf 3b55 dcbe 5ae4 12bf
000000c0: c86f 29bf 85e6 12bf 3d14 0dbf 846a 21bf
000000d0: 0cc8 9fbe 891e 26bf 7560 e8be b33a 10bf
000000e0: 6351 38bf 715e e4be 3bc1 3dbe 161a 12bf
000000f0: e88b fcbe fc02 edbe 8853 ccbe 5827 12bf
00000100: 1d45 15bf b5f5 0dbf f1df e9be 0a1a f1be
00000110: 7a00 29bf a1c9 01bf dbaf 29bf a23e 1bbf
00000120: c2d8 31bf e12f 1cbf fc62 1dbf 5357 29bf
00000130: 0a26 e1be 4cbd 1bbf 0dd0 24bf 6cf4 83be
00000140: 1fae 38bf da38 26bf b18c 29bf f8f2 0ebf
00000150: 7057 eebe 9831 08bf 426e 2abf a397 bcbe
00000160: e620 2cbf 2426 b8bd e63b 1bbf 2d19 f6be
00000170: d1aa 14bf b4ae 88be 4181 f4be c6fb 06bf
00000180: 100e 02bf 1b36 aabe 99f7 aebe 34d9 18bf
00000190: 9ed9 f9be 7bdc 0dbf 92f0 f1be 003e bdbe
000001a0: 81f2 13bf 2c3b 3fbf 98b8 3dbf 0f2f 10bf
000001b0: ad57 fbbe f2c1 e9be fd51 03bf 985a 0abf
000001c0: 9270 f4be c198 dcbe 5d4f 0cbf 634f 25bf
000001d0: 9c29 d7be b4f4 2cbf e0d7 04bf c503 1bbf
000001e0: c276 2abf 6b66 e4be 1a58 1ebf 1f67 bbbe
000001f0: 28f8 06bf 751c 07bf b492 2bbf 03bd 2fbf
00000200: a2fc 30bf 9510 37bf 906a ebbe 04bc edbe
00000210: ffd9 e5be 6aa7 fdbe 9c27 2fbf 6d61 05bf
00000220: 5b57 16bf 7880 16bf a1e4 20bf fb73 38bf
00000230: 6f49 2fbf 7765 00bf f939 89be a9dd 17bf
00000240: ac5a bcbe 7f27 03bf beed 46be 895b 17bf
00000250: 1b0c 0abf 40be fabe 4c20 1abf 9463 22bf
00000260: ea73 0cbf ad67 25bf c277 06bf 4aa3 1ebf
00000270: 2518 2fbf 9e1c f8be 861c 26bf f116 11bf
00000280: 41bf 0abf f35f 03bf 2fa1 09bf 4306 2abf
00000290: 1ef1 31bf b5d1 d1be 39e4 1abf 02d2 cbbe
000002a0: 883d 0bbf 518a 0ebf 4099 25bf fef4 f2be
000002b0: b0db 1abf a918 25be 9ec0 1abf b3e9 02bf
000002c0: 382e ecbe b4e7 24bf c810 19bf 639e e4be
000002d0: 7e6c bebe 6a46 d7be 8dda 0ebf a7dc 19bf
000002e0: 4e3f 00bf 1a61 18bf 478e e4be cf27 00bf
000002f0: fcc4 29bf 78a5 f7be bb4f 1fbf bd93 09bf
00000300: 2a8e 25bf c1ca 2ebf e669 2cbf 2ec8 17bf
00000310: a129 05bf ef5e 16bf 05af 35bf 73c3 f6be
00000320: 0065 19bf 1242 c8be d0f3 0dbf 06e2 14bf
00000330: fa55 0fbf 9bd7 10bf 48b4 b7be 056f 16bf
00000340: e20e 3bbf ef9c 0abf 7698 11be e1db 00bf
00000350: 81dc 27bf 314f 1dbf a921 e2be 2c10 05bf
00000360: 570a 12bf 80b6 e2be e2e1 eabe 5793 1bbf
00000370: 026d d9be 5000 efbe 49ca 14bf 00e0 40bf
00000380: 60e7 21bf 9428 c4be 02c9 23bf 0865 0ebf
00000390: 8d3b cbbe fc56 3cbf b01c 0bbf 2467 05bf
000003a0: 9c75 08bf 81e3 3abf f355 32bf d8b0 11bf
000003b0: cd13 0abf 4d6e 0ebf 944f a7be 1400 dbbe
000003c0: 2e2b 31bf db7b d1be 5048 08bf bb14 efbe
000003d0: 7260 22bf bfbc 10bf 08e5 01bf a19f 1abf
000003e0: 15e8 43bf 282e 1bbf 01bb 23bf 59f5 2abf
000003f0: c09a 12bf 41c8 08bf 6450 1abf f849 15bf

bn1.running_mean f4 [256]
0.462508 0.15037227 -0.9219174 -0.2991839 -0.20565681 -0.21878864 -0.027588647 0.00916251
-0.021476902 0.28624693 -0.4193456 0.28827524 0.15455204 -0.3888639 -0.47967753 -0.3409704
-0.38881963 1.3195848 0.06248774 -0.05412421 -0.26361558 -0.10697287 0.46439552 -0.12104756
-1.6074067 -1.039917 -1.5943624 -0.103253245 0.68581104 -0.4768953 -0.7948067 0.16612339
-0.7235706 -0.518259 0.43520635 -1.5024964 -0.38218084 -0.6857589 0.37532115 0.3248341
0.2972499 0.22042945 -0.3486733 -0.17008662 0.13046777 -0.46958733 0.2200931 0.042997044
0.42801693 -0.43851665 0.14361021 -0.57355106 -0.1780479 -0.20683184 0.7676747 -0.30812633
0.46414322 0.38662067 -1.090017 0.061691973 -0.33383897 0.5008537 -0.47216874 -0.10695444
0.33599445 -0.22768043 -0.5520595 -1.2103224 0.61335737 -0.3447603 0.059391264 0.08252734
-0.13121818 0.5576186 -0.3978959 1.2085729 -0.6138476 0.21972677 -0.21533434 -0.7117381
0.26364562 -0.32014832 0.2873611 -0.028144173 0.00045097322 -0.02133138 -0.035950053 0.5225899
-0.39357144 -2.067901 0.34738377 -0.9370447 -0.7074593 -1.3590281 0.61297727 0.2629139
-0.49456462 -0.6447455 -0.68978244 -0.6555844 0.07950599 0.6954324 -0.51886934 0.41099164
-0.51831925 0.75342095 0.3314328 -0.3840851 -0.21044981 -1.065954 -0.4013818 0.16782586
-0.89444035 -0.5146194 0.0056900014 -0.054060653 -0.4230681 -0.28250945 0.05947167 0.10529606
-0.08383641 -0.67252946 -0.27007264 -0.32612696 -0.034979418 0.27650976 0.117823355 -0.045039
-0.25436836 0.24406494 -0.5119389 0.2335787 -0.507488 -0.109117486 0.24641186 -0.56677914
-0.7425064 -0.12840985 -0.5078352 -0.3912238 0.2760216 -0.025447913 -1.0910454 -0.2044092
-0.8245317 -0.36922812 -1.1629757 -0.2531179 -1.0300827 -1.0384283 -0.28977817 0.053555816
0.17134511 -0.15167533 0.23803996 -0.37285963 0.080550246 0.3105251 -0.6283904 0.3784433
-0.5135361 0.5394901 -0.25818202 0.13644272 0.32621986 0.65139604 -0.62816566 0.48325458
0.35731652 0.027204547 -0.28073454 -0.7396286 0.16498451 -1.7957221 -0.55282146 -1.0431623
-0.035358623 0.035308294 -0.2799153 -0.20085022 -0.49734235 -0.59574467 -0.3863342 -0.33839065
-0.21511208 0.1895611 -1.145779 0.08059395 0.3403728 0.3729838 0.5127326 -0.51219726
0.046250854 0.18383226 0.016680958 -0.22880097 -0.25480184 -0.051209405 -0.49602497 -1.160151
-0.105263315 -1.1165924 -0.3740307 -0.16267526 -0.20612194 -0.3971867 -0.84177494 -0.50004137
-0.19247107 0.37225866 -1.921455 0.020699238 -0.18425938 0.85927427 0.35625282 -1.1839184
-0.39605147 -0.899188 0.10999705 1.2647898 -0.8587099 0.6894785 0.35955605 -0.36499947
-0.31026122 -0.27071327 -0.015123275 -0.15757522 -0.9596909 0.54437673 0.7685214 -0.14651796
0.8884423 -0.47801635 -0.24935488 -0.2362961 -0.5457108 -0.41145754 -1.1301594 0.07215477
0.13135383 -1.3068653 0.2811442 -0.53369486 0.01955968 0.382005 0.47459862 -0.43870655
0.28103945 -0.42029575 0.17303148 0.004446541 -0.15416539 -0.33042562 0.6699879 -0.45270696
00000000: d9cd ec3e 30fb 193e c702 6cbf a22e 99be
00000010: b397 52be 210a 60be 9601 e2bc 5a1e 163c
00000020: 54f0 afbc f58e 923e 77b4 d6be d098 933e
00000030: e442 1e3e 2b19 c7be 4b98 f5be ac93 aebe
00000040: 5e13 c7be 28e8 a83f 25f3 7f3d 59b1 5dbd
00000050: 9ff8 86be 9814 dbbd 40c5 ed3e c8e7 f7bd
00000060: 81bf cdbf 001c 85bf 1114 ccbf 7076 d3bd
00000070: 5091 2f3f 9f2b f4be 7478 4bbf 401c 2a3e
00000080: ec3b 39bf 9fac 04bf 5ed3 de3e cd51 c0bf
00000090: 35ad c3be e58d 2fbf 182a c03e a850 a63e
000000a0: 2431 983e 42b8 613e 4f85 b2be 302b 2ebe
000000b0: 5899 053e c06d f0be 1660 613e ab1d 303d
000000c0: 0925 db3e 4185 e0be 8e0e 133e 3ed4 12bf
000000d0: 3052 36be bacb 53be 5486 443f bcc2 9dbe
000000e0: 2ea4 ed3e 25f3 c53e ad85 8bbf b9b0 7c3d
000000f0: f1ec aabe f337 003f 1ac0 f1be ee0a dbbd
00000100: 7707 ac3e 0f25 69be c553 0dbf d8eb 9abf
00000110: fd04 1d3f 6c84 b0be 4144 733d 1804 a93d
00000120: 0f5e 06be 18c0 0e3f 03b9 cbbe 84b2 9a3f
00000130: 1e25 1dbf 0e00 613e 9b80 5cbe 7834 36bf
00000140: 8ffc 863e 7bea a3be fe20 933e 9c8e e6bc
00000150: 9a70 ec39 25bf aebc 5d40 13bd 74c8 053f
00000160: 3282 c9be 7d58 04c0 49dc b13e 29e2 6fbf
00000170: 0d1c 35bf a2f4 adbf 14ec 1c3f a79c 863e
00000180: 9337 fdbe 0b0e 25bf 9595 30bf 61d4 27bf
00000190: 09d4 a23d dc07 323f 9fd4 04bf 7f6d d23e
000001a0: 92b0 04bf 32e0 403f 8fb1 a93e cda6 c4be
000001b0: 2880 57be 2e71 88bf ea81 cdbe 8bda 2b3e
000001c0: 0bfa 64bf 19be 03bf 3173 ba3b b46e 5dbd
000001d0: 629c d8be 14a5 90be 9198 733d 76a5 d73d
000001e0: 6cb2 abbd e42a 2cbf f646 8abe 1dfa a6be
000001f0: 9446 0fbd b092 8d3e 5f4d f13d d17a 38bd
00000200: 923c 82be 29ec 793e 6e0e 03bf 412f 6f3e
00000210: bcea 01bf fd78 dfbd 6453 7c3e 7018 11bf
00000220: e614 3ebf df7d 03be 7d01 02bf 7c4e c8be
00000230: b452 8d3e 2478 d0bc 60a7 8bbf a550 51be
00000240: 8214 53bf 780b bdbe 63dc 94bf ab98 81be
00000250: c0d9 83bf 38eb 84bf ce5d 94be 585d 5b3d
00000260: 1875 2f3e c750 1bbe bfc0 733e 75e7 bebe
00000270: 87f7 a43d 25fd 9e3e 31de 20bf 52c3 c13e
00000280: 1a77 03bf 061c 0a3f 6f30 84be a4b7 0b3e
00000290: 4a06 a73e e4c1 263f 77cf 20bf 256d f73e
000002a0: 31f2 b63e 12dc de3c 70bc 8fbe 4d58 3dbf
000002b0: b3f1 283e 39da e5bf b585 0dbf 5886 85bf
000002c0: 34d4 10bd 6e9f 103d 0f51 8fbe aeab 4dbe
000002d0: a8a3 febe b982 18bf 99cd c5be 8a41 adbe
000002e0: 5746 5cbe 4e1c 423e e3a8 92bf 710e a53d
000002f0: 5845 ae3e bcf7 be3e 7242 033f 5c1f 03bf
00000300: 8971 3d3d 863e 3c3e 81a6 883c cd4a 6abe
00000310: 6375 82be f4c0 51bd fcf6 fdbe d47f 94bf
00000320: 4b94 d7bd 80ec 8ebf f480 bfbe 5894 26be
00000330: a111 53be 0e5c cbbe 907e 57bf b602 00bf
00000340: 2317 45be b098 be3e 3df2 f5bf 7391 a93c
00000350: 7eae 3cbe 66f9 5b3f c566 b63e a38a 97bf
00000360: 42c7 cabe 2f31 66bf 2246 e13d a2e4 a13f
00000370: 69d4 5bbf aa81 303f bb17 b83e 36e1 babe
00000380: 8fda 9ebe ee9a 8abe 9dc7 77bc 665b 21be
00000390: 4eae 75bf 465c 0b3f d2bd 443f ce08 16be
000003a0: f470 633f 8fbe f4be e356 7fbe 9bf7 71be
000003b0: b4b3 0bbf 90aa d2be 10a9 90bf e1c5 933d
000003c0: 9e81 063e 5d47 a7bf 22f2 8f3e 3aa0 08bf
000003d0: 9f3b a03c 2996 c33e 97fe f23e 259e e0be
000003e0: 67e4 8f3e 0131 d7be 2a2f 313e 4ab4 913b
000003f0: 88dd 1dbe 8c2d a9be 5484 2b3f 35c9 e7be

bn1.running_var f4 [256]
5.0881715 5.1095023 5.2031555 5.492375 5.0199695 5.6365027 5.346626 5.350277
6.053951 5.7599325 6.5601897 6.370548 4.7913675 8.076603 4.817121 5.6897388
5.726365 5.021376 5.328021 6.2405734 5.9686146 5.382444 5.80982 5.6377606
9.267809 8.534302 6.8537455 5.2575903 5.0695343 6.2476854 8.50436 5.524688
8.3561945 4.884496 5.448553 10.650759 5.7504635 6.7437296 4.9893303 5.668929
5.9043317 4.9755325 4.545324 5.420122 4.8454638 5.3514576 4.5013785 6.765924
5.6529627 4.729271 5.4888616 4.9547606 6.547743 5.187247 5.6016803 6.209236
4.1727705 6.1126695 7.8927794 6.3997774 5.5497665 5.7686076 6.850661 5.614489
5.614833 5.218032 6.5336857 7.2797728 4.885107 6.78892 5.190353 4.9522753
4.9591737 5.01579 5.198414 4.2039576 7.305128 5.514913 6.079104 8.813763
5.4402313 5.862102 5.549259 5.2677355 5.2353535 4.426623 5.249461 6.432334
4.968615 8.550467 5.0355268 7.0657244 5.265636 7.970275 5.255469 6.0441127
5.589315 6.762627 7.3985357 5.7576747 5.6086454 4.860061 5.8049088 5.3176208
5.827918 5.4321933 6.142733 5.735752 5.8918576 6.291016 5.6423264 5.266445
7.6339993 6.471246 4.930943 5.6996684 6.4472976 5.1524673 5.044192 5.1594653
5.5580106 6.4944973 5.2077484 5.813045 5.074964 4.919049 5.457382 5.784874
5.986608 5.5366907 6.1065197 6.1557145 5.556118 5.0586433 5.830464 6.24953
5.487065 5.8019166 5.499663 4.7735224 5.5671587 5.899491 8.211863 5.0025907
6.5801845 4.9965987 8.929369 5.765468 5.7082515 6.0838056 5.451891 4.7392445
5.069712 5.978978 5.3011365 5.0693016 5.2300353 5.3373914 5.4107714 4.9569955
6.0382447 5.709807 4.795202 5.416933 5.410523 6.2269626 5.524723 5.727518
5.2139835 5.449495 5.3088126 4.585913 5.2032876 13.273707 5.8855753 6.6655326
5.776407 4.73657 6.1855726 5.1838226 6.994469 6.6691236 5.3596253 5.1479545
5.1059856 6.430336 5.2431426 5.157896 5.363369 5.122242 4.881005 5.351351
5.074701 5.8837776 4.8546605 5.7127724 6.543671 5.4362884 6.151037 7.204736
5.3111644 6.3533387 5.294842 5.3522167 5.5649815 6.229381 7.1860914 5.4205627
5.160117 5.8197126 8.2475195 5.633848 4.660463 5.7345614 5.666521 4.767016
5.4871135 5.5666604 5.7700243 5.524996 6.9256454 5.271977 5.464213 4.758786
5.2864084 5.234219 4.805976 4.8432765 7.270674 4.983159 5.8659825 5.4826555
5.969237 5.5549326 5.301275 5.2540517 6.1951785 6.290396 7.644101 5.7948217
5.4649196 6.5331526 5.6018953 7.5820894 4.867666 4.614347 5.5157866 5.3845735
4.8688297 5.9522104 5.813858 5.0453234 5.267629 5.1996827 5.782528 5.305885
00000000: 4dd2 a240 0b81 a340 4080 a640 89c1 af40
00000010: 97a3 a040 3b5e b440 8f17 ab40 7835 ab40
00000020: f7b9 c140 5e51 b840 13ed d140 87db cb40
00000030: e252 9940 c439 0141 db25 9a40 5712 b640
00000040: 623e b740 1daf a040 267f aa40 c7b2 c740
00000050: e4fe be40 fb3c ac40 0cea b940 8968 b440
00000060: f248 1441 808c 0841 e251 db40 2e3e a840
00000070: a039 a240 0aed c740 dc11 0841 3eca b040
00000080: f9b2 0541 cb4d 9c40 8c5a ae40 8269 2a41
00000090: cc03 b840 a2cc d740 98a8 9f40 de67 b540
000000a0: 49f0 bc40 9037 9f40 4b73 9140 a471 ad40
000000b0: 0a0e 9b40 243f ab40 4b0b 9040 7382 d840
000000c0: 12e5 b440 3056 9740 c1a4 af40 668d 9e40
000000d0: 1c87 d140 edfd a540 f740 b340 10b2 c640
000000e0: 5687 8540 fd9a c340 a691 fc40 faca cc40
000000f0: b097 b140 6f98 b840 9d38 db40 e5a9 b340
00000100: b6ac b340 1efa a640 f413 d140 e6f3 e840
00000110: cc52 9c40 d53e d940 5f17 a640 0a79 9e40
00000120: 8db1 9e40 5a81 a040 6859 a640 d286 8640
00000130: 9cc3 e940 2b7a b040 0588 c240 2c05 0d41
00000140: 6016 ae40 5796 bb40 8893 b140 4a91 a840
00000150: 0488 a740 e5a6 8d40 96fb a740 aed5 cd40
00000160: e5fe 9e40 b6ce 0841 0923 a140 6a1a e240
00000170: 1780 a840 7e0c ff40 cd2c a840 5f69 c140
00000180: abdb b240 7167 d840 cec0 ec40 df3e b840
00000190: 067a b340 9f85 9b40 d0c1 b940 f329 aa40
000001a0: 4e7e ba40 87d4 ad40 4591 c440 488b b740
000001b0: 198a bc40 0150 c940 f08d b440 b886 a840
000001c0: b949 f440 7214 cf40 49ca 9d40 af63 b640
000001d0: 4350 ce40 03e1 a440 056a a140 571a a540
000001e0: 39db b140 ecd2 cf40 e0a5 a640 7704 ba40
000001f0: 1b66 a240 d968 9d40 e0a2 ae40 b01d b940
00000200: 4b92 bf40 922c b140 9c68 c340 9dfb c440
00000210: b8cb b140 68e0 a140 2993 ba40 26fc c740
00000220: 0996 af40 4da9 b940 3dfd af40 b2c0 9840
00000230: 2a26 b240 a1c8 bc40 ca63 0341 3915 a040
00000240: df90 d240 23e4 9f40 b2de 0e41 b77e b840
00000250: ffa9 b640 89ae c240 e475 ae40 e4a7 9740
00000260: 153b a240 ca53 bf40 e9a2 a940 b837 a240
00000270: 735c a740 e9cb aa40 0a25 ad40 b59f 9e40
00000280: 4d39 c140 bdb6 b640 4b72 9940 8457 ad40
00000290: 0123 ad40 4743 c740 88ca b040 d447 b740
000002a0: f4d8 a640 4362 ae40 cbe1 a940 cdbf 9240
000002b0: 5581 a640 1b61 5441 a256 bc40 0b4c d540
000002c0: 53d8 b840 fb91 9740 36f0 c540 e0e1 a540
000002d0: b1d2 df40 7669 d540 0d82 ab40 0bbc a440
000002e0: 3c64 a340 50c5 cd40 d3c7 a740 7c0d a540
000002f0: b8a0 ab40 68e9 a340 3131 9c40 443e ab40
00000300: f363 a240 e847 bc40 6159 9b40 08cf b640
00000310: c165 d140 13f6 ad40 4cd5 c440 338d e640
00000320: 0ff5 a940 8d4e cb40 586f a940 5c45 ab40
00000330: 5414 b240 1757 c740 76f4 e540 4075 ad40
00000340: ae1f a540 163b ba40 d7f5 0341 7c48 b440
00000350: 8322 9540 8781 b740 2454 b540 658b 9840
00000360: 6f96 af40 1522 b240 0aa4 b840 c4cc b040
00000370: e39e dd40 09b4 a840 d5da ae40 fa47 9840
00000380: 422a a940 b97e a740 8eca 9940 1ffc 9a40
00000390: 5da9 e840 0a76 9f40 21b6 bb40 ea71 af40
000003a0: fd03 bf40 02c2 b140 0ba4 a940 3121 a840
000003b0: e73e c640 ed4a c940 7a9c f440 2e6f b940
000003c0: 9fe0 ae40 960f d140 ba42 b340 7aa0 f240
000003d0: ebc3 9b40 bba8 9340 5381 b040 6d4e ac40
000003e0: 74cd 9b40 8278 be40 200b ba40 4a73 a140
000003f0: 6b90 a840 cd63 a640 780a b940 cfc9 a940

fc2.weight f4 [128, 256]
0.028750913 0.1157098 -0.076606415 0.00028998262 -0.22325064 -0.40327755 -0.13297307 -0.024886128
0.002099273 -0.014491128 -0.033931606 -0.051388487 -0.24238618 0.035271235 -0.30839223 -0.00018924651
0.1639288 -0.14806958 0.28143448 0.00017540916 0.11912168 -0.2188228 -0.06320063 0.084372796
0.14251621 0.0661286 -0.10224324 0.01620964 0.03281129 0.0017574461 0.037012596 -0.0050487886
-0.03335019 -0.28446954 -0.097560234 0.085202046 -0.0019544358 -0.002919606 0.08724107 0.014092916
-0.19721684 -0.18144631 0.17583287 0.09127706 -0.028146882 -0.3404362 0.118383326 0.0045756744
0.080552556 0.003421758 0.14615823 -0.15029314 0.051935077 -0.22542301 0.019432174 0.10254262
-0.18228213 -0.1986243 0.055787496 0.09939242 -0.007064018 0.013524635 -0.082293876 -0.08876947
-0.152348 -0.09616795 -0.095167294 -0.054949444 0.02369356 -0.06149956 -0.071061045 -0.027935697
-0.21241187 -0.15298636 0.08004575 0.05914635 -0.016203035 0.09434154 0.049063995 0.080171056
-0.16370314 -0.08642374 0.022062106 -0.0143173495 0.059415493 0.24620736 -0.030105079 -0.1255715
0.11196151 -0.09170058 -0.1307329 0.1276204 -0.10784129 0.023640757 -0.14805315 -0.0012089033
-0.0987837 0.021485835 -0.00048293735 0.055324826 -0.12443907 -0.10885881 0.19960563 -0.074274674
-0.054177828 0.18658659 -0.04598101 0.013036056 0.14949273 0.12674348 0.07630107 -0.012244856
0.010383473 -0.13087976 -0.020907039 -0.14460576 -0.0001978437 -0.014866858 -0.114863336 -0.058481522
-0.08408956 0.026034841 0.03149928 0.042312846 0.29423746 0.09238898 0.21059209 0.14988382
-0.19333811 0.1353093 -0.099304885 -0.041396838 -0.10637479 0.034910493 0.14082329 -0.0133390315
-0.3315872 0.054877218 -0.09131485 0.11123543 0.08121484 -0.00448649 0.09085271 -0.0041149636
-0.0035563118 -0.043725103 -0.032799922 -0.20036454 0.0022441312 -0.14667858 0.18753654 -0.310476
-0.10449336 0.1419738 0.25282723 -0.0714012 -0.045093007 0.066800095 0.1086037 0.1301469
-0.15067214 -0.057100542 0.014750162 -0.034772567 -0.134841 -0.088344276 -0.041240506 -0.109010324
0.035526667 0.05490915 -0.20967677 0.26971808 -0.29981965 0.037536994 -0.17283385 -0.13704966
0.06795799 0.04051901 0.09674418 -0.013644474 -0.07452332 -0.07470395 0.07130059 0.09723871
0.07780963 0.09609217 -0.034461524 0.01287809 -0.18811989 0.094373435 -0.04404184 0.089466915
-0.03683032 -0.022309659 0.07358287 -0.18337478 0.009736779 -0.041218005 0.13775231 0.050848983
-0.15908141 -0.13010746 0.052426033 -0.09809818 0.19305664 0.10195499 0.10039432 0.01221853
-0.030353809 -0.15802544 -0.05386545 0.02294491 -0.109104544 0.15404245 0.037805013 -0.06519948
0.11059159 -0.093895845 -0.036848217 0.2305392 0.1721369 0.14619316 0.060685836 -0.042428058
0.07333758 -0.03375438 0.0026731517 -0.0005431967 0.02357998 -0.083061635 -0.11303122 0.14832534
0.038746104 -0.0038243807 -0.18616131 0.14010352 -0.0032798222 0.19982666 -0.05760549 0.2046318
0.2676821 -0.0811665 0.023234354 -0.06338932 -0.047725074 -0.047053702 -0.06773159 -0.19995627
-0.123340204 -0.11352972 0.047843456 0.060332105 0.062100653 0.07071853 0.30732572 0.035040762
00000000: 0987 eb3c 42f9 ec3d d3e3 9cbd cf08 9839
00000010: d19b 64be 657a cebe 182a 08be fedd cbbc
00000020: f593 093b 326c 6dbc defb 0abd bc7c 52bd
00000030: 1534 78be 9278 103d 96e5 9dbe 7970 46b9
00000040: f4dc 273e 8d9f 17be 2e18 903e 0aee 3739
00000050: 11f6 f33d 1613 60be 556f 81bd a5cb ac3d
00000060: c5ef 113e 6e6e 873d e764 d1bd 14ca 843c
00000070: 2265 063d 1b5a e63a 859a 173d 4f70 a5bb
00000080: 359a 08bd fea5 91be a9cd c7bd 697e ae3d
00000090: fe15 00bb dc56 3fbb 72ab b23d f9e5 663c
000000a0: 36f3 49be 10cd 39be 880d 343e 78ef ba3d
000000b0: 4a94 e6bc a74d aebe f572 f23d 8aef 953b
000000c0: bdf8 a43d 933f 603b 81aa 153e 72e6 19be
000000d0: e0b9 543d 4ad5 66be 3930 9f3c dd01 d23d
000000e0: 2ba8 3abe 2b64 4bbe 6e81 643d 418e cb3d
000000f0: 4779 e7bb 6e96 5d3c b189 a8bd c5cc b5bd
00000100: 1d01 1cbe b4f3 c4bd 12e7 c2bd ab12 61bd
00000110: ff18 c23c f6e6 7bbd 7488 91bd 67d9 e4bc
00000120: 7f82 59be 75a8 1cbe 07ef a33d 7143 723d
00000130: 3abc 84bc 2336 c13d 54f7 483d b930 a43d
00000140: cca1 27be eefe b0bd 97bb b43c 5193 6abc
00000150: a95d 733d c81d 7c3e ed9e f6bc d195 00be
00000160: 134c e53d 84cd bbbd d8de 05be ecae 023e
00000170: e5db dcbd 43aa c13c 3f9b 17be 1074 9eba
00000180: 1c4f cabd 1003 b03c c132 fdb9 499c 623d
00000190: e9d9 febd 5ef1 debd 6b65 4c3e 521d 98bd
000001a0: 92e9 5dbd 8e10 3f3e 9556 3cbd 2f95 553c
000001b0: 9f14 193e 0bc9 013e bc43 9c3d a69e 48bc
000001c0: 711f 2a3c 5805 06be 3d45 abbc 8813 14be
000001d0: 4474 4fb9 1f94 73bc 783d ebbd 528a 6fbd
000001e0: 2637 acbd 0547 d53c 6405 013d 3c50 2d3d
000001f0: 4ba6 963e 6f36 bd3d 74a5 573e 257b 193e
00000200: 6dfa 45be 858e 0a3e 5c60 cbbd bb8f 29bd
00000210: 07db d9bd 4efe 0e3d fb33 103e f48b 5abc
00000220: ccc5 a9be efc6 603d 4803 bbbd 67cf e33d
00000230: f753 a63d 6803 93bb fc10 ba3d d1d6 86bb
00000240: 0311 69bb 1819 33bd 3659 06bd 5d2c 4dbe
00000250: 4612 133b e932 16be 9409 403e b6f6 9ebe
00000260: 9d00 d6bd 9461 113e 9272 813e cb3a 92bd
00000270: 72b3 38bd 7dce 883d 9e6b de3d 3b45 053e
00000280: cc49 1abe 42e2 69bd aaaa 713c ae6d 0ebd
00000290: c213 0abe d8ed b4bd ceeb 28bd ce40 dfbd
000002a0: 6984 113d 6be8 603d 82b5 56be 7d18 8a3e
000002b0: f681 99be 64c0 193d 5bfb 30be bf56 0cbe
000002c0: 8f2d 8b3d 43f7 253d d021 c63d 128d 5fbc
000002d0: af9f 98bd 62fe 98bd 0b06 923d 1725 c73d
000002e0: a85a 9f3d f9cb c43d 8727 0dbd a0fe 523c
000002f0: 80a2 40be dc46 c13d 3765 34bd 6e3a b73d
00000300: 64db 16bd bfc2 b6bc 9eb2 963d 99c6 3bbe
00000310: 0387 1f3c 36d4 28bd f10e 0d3e 0647 503d
00000320: 3de6 22be e43a 05be aebc 563d b3e7 c8bd
00000330: a4b0 453e c7cd d03d 8a9b cd3d 3b30 483c
00000340: 8da8 f8bc 6cd1 21be 05a2 5cbd f7f6 bb3c
00000350: 3472 dfbd 4ebd 1d3e 6ed9 1a3d 4e87 85bd
00000360: d87d e23d 774c c0bd 28ee 16bd 7812 6c3e
00000370: a844 303e a9b3 153e b691 783d 0bc9 2dbd
00000380: 0332 963d 0842 0abd 0b30 2f3b 5065 0eba
00000390: cd2a c13c 381c aabd ea7c e7bd 99e2 173e
000003a0: 3cb4 1e3d 76a2 7abb 12a1 3ebe 4c77 0f3e
000003b0: 49f2 56bb 5c9f 4c3e bcf3 6bbd 008b 513e
000003c0: a10d 893e 9f3a a6bd f955 be3c 43d2 81bd
000003d0: 5e7b 43bd 62bb 40bd dcb6 8abd 56c1 4cbe
000003e0: ca99 fcbd 4582 e8bd 80f7 433d cc1e 773d
000003f0: 415d 7e3d e0d4 903d cc59 9d3e e786 0f3d
