Models/lol_model_both.pth (torch, 902111 bytes, 24 tensors)

role_embedding.weight f4 [5, 8]
0.008112526 -0.73668385 0.8755255 -0.7588772 1.0680648 -0.41589183 1.909569 1.7447754
0.1577399 -1.2093551 -0.58831584 0.331275 -0.785966 -0.4895848 -0.40148324 -0.16515976
0.86733735 -0.6254088 -1.9661013 -0.35634676 -0.42624137 -0.19121897 -0.9671524 0.5130837
-0.3205114 1.0606991 0.0056918873 -0.09086822 -0.8712224 -1.1139685 0.20087096 2.2959316
0.06472061 0.5792334 -0.75611985 0.8573512 0.36356798 1.220065 -0.23124647 0.39320794
00000000: 66ea 043c 5097 3cbf 7022 603f c745 42bf
00000010: 59b6 883f c6ef d4be c26c f43f cd54 df3f
00000020: 9186 213e 26cc 9abf de9b 16bf e09c a93e
00000030: 1135 49bf dcaa fabe 368f cdbe a41f 29be
00000040: d209 5e3f cb1a 20bf 35a9 fbbf 1573 b6be
00000050: 4f3c dabe e8ce 43be 4d97 77bf 7459 033f
00000060: 121a a4be fdc4 873f 0383 ba3b 1e19 babd
00000070: 6e08 5fbf 8596 8ebf 1eb1 4d3e 8bf0 1240
00000080: 3d8c 843d a448 143f 1291 41bf 5e7b 5b3f
00000090: 9525 ba3e 172b 9c3f e0cb 6cbe 8d52 c93e

champ_embedding.weight f4 [1000, 32]
6.605972e-05 1.2242135 -0.4693842 -0.61262697 0.24982733 -2.5709108e-23 0.57004845 0.8106441
-6.9514266e-07 2.3594614e-06 0.020335466 0.58622897 -0.52082956 -0.20534323 -0.5866033 -2.1693263
-0.56533754 -0.33372045 -0.19632156 6.4855617e-06 0.46778807 0.027182892 -0.06587459 -1.2384129
0.54616183 0.1388859 -2.18393 0.82794803 -0.6771009 -0.081669696 0.13609806 0.18516311
0.76203835 0.23855948 0.3233294 -0.29228315 1.9440882 1.9122189 -0.6536741 -0.41275632
-0.5656837 0.30050543 1.0500673 -0.57736766 -0.039181434 -0.35578784 0.94916135 0.4931853
-0.054754082 -0.0028526841 1.1763116 0.0043525305 -0.8318446 -0.18240462 -0.3099774 0.19724837
0.07119359 -0.39898846 -0.04596726 -0.057656642 -0.07850382 0.07672399 -0.26278055 -0.29519984
-0.2035768 0.42585424 -0.26848957 0.8122861 0.8981372 0.24011199 -0.13501193 0.16482751
-0.5522453 -0.22958429 -0.31143874 0.8227648 0.28768313 1.4071311 0.42744672 0.08537323
0.15521628 0.0442533 -0.109840974 -0.38280216 -2.0803895 -1.3668956 -0.64032245 0.062127043
-0.79513997 -0.4500159 -0.12631546 0.9137271 0.60360557 -0.028287018 -1.4911287 0.94055265
-2.232558 0.30220994 0.13876267 -0.72096854 -0.14381579 0.22346 0.7101397 0.20908387
-0.68588334 1.1931736 0.74737215 -0.31841668 0.24678214 0.38545048 -0.07234686 0.08005111
0.38222283 -0.45829695 0.19169882 0.30357552 -0.6790023 -0.07880257 0.27608627 -1.3258232
-0.021817945 0.04983503 -0.4296122 0.14505433 -1.2624161 -0.14358759 1.6344687 1.1717824
0.08165282 0.8054165 -1.0628954 0.2983691 -0.9012453 0.38359702 -0.61328864 -0.5541967
-0.43616512 -1.7184082 0.34553707 0.3375023 1.0072113 1.2026323 -0.81248045 -0.040433206
0.18730117 -0.42752466 -0.6224545 0.99376684 -0.27162597 1.8958546 0.0839599 -0.24248466
0.13940316 1.2336682 -0.0888008 0.64052665 -1.0260589 0.33929697 -0.8794159 0.08147533
-0.3826162 0.86026317 0.33741972 -0.8800787 -1.1086886 -0.08163016 0.27638268 -0.10658707
0.16178933 0.4626054 -0.5272948 -0.86657715 -0.27855185 -0.05454175 1.0184175 0.06402165
0.1488085 1.3985778 0.6258601 0.28726107 0.06989003 0.39463004 -0.025279677 -0.056675304
-1.133049 0.23983543 -1.4433076 -0.036016636 -0.13648984 0.45144102 0.44706717 -1.1263553
0.114673056 -0.92226446 -0.35067755 0.18882342 0.0147773735 0.18172692 0.32609499 0.81439036
0.45891288 0.902382 -1.309765 0.09472755 -0.47310746 0.6306662 0.6976037 -0.12462339
0.120317206 -0.31647125 0.013255757 0.27271312 0.27917716 0.7856666 0.197933 -0.55373687
0.38447446 -0.05236131 0.024415927 0.41335198 -0.67283815 -0.38439697 -1.9133089 -0.6173709
0.07027956 -1.0684471 0.31806463 0.27034667 0.12893122 0.15266936 0.5625253 0.79391116
-0.35625696 0.57296914 -0.1078547 -0.5767893 -0.8820563 -0.13033101 -0.62299794 0.81730795
-1.3601979 -0.2198083 0.23156226 2.3882082 0.90545416 -1.410125 -0.17385101 0.14024854
0.020601656 -0.8155695 -0.3820821 0.025353998 0.6051004 0.5796504 -0.2665337 -2.0752728
00000000: 8b89 8a38 07b3 9c3f 2053 f0be 1fd5 1cbf
00000010: bcd2 7f3e aba4 f899 b2ee 113f 5f86 4f3f
00000020: d799 3ab5 3d57 1e36 9096 a63c 1a13 163f
00000030: 1655 05bf 7f45 52be a22b 16bf 3ed6 0ac0
00000040: f6b9 10bf 68dd aabe 8508 49be 8d9e d936
00000050: eb81 ef3e a8ae de3c 42e9 86bd 5084 9ebf
00000060: 43d1 0b3f 1b38 0e3e 82c5 0bc0 67f4 533f
00000070: 7c56 2dbf 7142 a7bd 4a5d 0b3e 669b 3d3e
00000080: f214 433f f048 743e 6e8b a53e 23a6 95be
00000090: e2d7 f83f 97c3 f43f 3057 27bf cc54 d3be
000000a0: a6d0 10bf d9db 993e 9b68 863f 5ece 13bf
000000b0: b67c 20bd d329 b6be 3dfc 723f c982 fc3e
000000c0: d145 60bd 19f4 3abb 6191 963f ac9f 8e3b
000000d0: c5f3 54bf 47c8 3abe 5cb5 9ebe 7afb 493e
000000e0: f2cd 913d 3748 ccbe 2a48 3cbd 5f29 6cbd
000000f0: 9cc6 a0bd 7821 9d3d 2c8b 86be 6f24 97be
00000100: 7076 50be 9109 da3e 7777 89be fbf1 4f3f
00000110: 52ec 653f ebdf 753e 9140 0abe 8bc8 283e
00000120: f35f 0dbf 2518 6bbe e674 9fbe b7a0 523f
00000130: 344b 933e df1c b43f 4cda da3e 29d8 ae3d
00000140: 04f1 1e3e f342 353d 4ef4 e0bd a5fe c3be
00000150: 1a25 05c0 6ff6 aebf 2cec 23bf ed78 7e3d
00000160: 4b8e 4bbf 7c68 e6be d758 01be 05ea 693f
00000170: e585 1a3f 2dba e7bc 4edd bebf 0fc8 703f
00000180: 3be2 0ec0 43bb 9a3e cd17 0e3e 6591 38bf
00000190: 7244 13be b3d2 643e b7cb 353f 151a 563e
000001a0: 0d96 2fbf eab9 983f c853 3f3f 8307 a3be
000001b0: 75b4 7c3e c459 c53e 972a 94bd d6f1 a33d
000001c0: b6b2 c33e e6a5 eabe b24c 443e 406e 9b3e
000001d0: 18d3 2dbf 3e63 a1bd 2e5b 8d3e 93b4 a9bf
000001e0: 8cbb b2bc d11f 4c3d 21f6 dbbe 1f89 143e
000001f0: da96 a1bf a008 13be 4536 d13f f7fc 953f
00000200: 9839 a73d c72f 4e3f f50c 88bf d6c3 983e
00000210: 03b8 66bf d466 c43e 7c00 1dbf d6df 0dbf
00000220: 0951 dfbe cdf4 dbbf 3cea b03e 1acd ac3e
00000230: 4dec 803f dbef 993f b8fe 4fbf 4a9d 25bd
00000240: e1cb 3f3e 83e4 dabe 2e59 1fbf 8167 7e3f
00000250: 8f12 8bbe 5dab f23f 2bf3 ab3d e64d 78be
00000260: b4bf 0e3e d7e8 9d3f 32dd b5bd 8ef9 233f
00000270: e655 83bf 55b8 ad3e 6721 61bf 8adc a63d
00000280: 45e6 c3be 353a 5c3f 47c2 ac3e d64c 61bf
00000290: 82e9 8dbf b72d a7bd 0882 8d3e 524a dabd
000002a0: 1aac 253e 9dda ec3e cbfc 06bf 00d8 5dbf
000002b0: 599e 8ebe 2c67 5fbd 815b 823f c81d 833d
000002c0: 4161 183e 9904 b33f 5e38 203f e213 933e
000002d0: 8122 8f3d f30c ca3e 5317 cfbc 5d24 68bd
000002e0: c007 91bf 6b97 753e 4ebe b8bf 2e86 13bd
000002f0: fec3 0bbe 4723 e73e fde5 e43e 692c 90bf
00000300: b5d9 ea3d 8619 6cbf 028c b3be ed5a 413e
00000310: cc1c 723c 9f16 3a3e ecf5 a63e e37b 503f
00000320: a1f6 ea3e 8202 673f 61a6 a7bf 8500 c23d
00000330: 243b f2be 5773 213f 2896 323f 8c3a ffbd
00000340: de68 f63d 8508 a2be ad2e 593c 0ea1 8b3e
00000350: 4ff0 8e3e 7221 493f f3ae 4a3e b3c1 0dbf
00000360: d6d9 c43e d078 56bd e903 c83c dfa2 d33e
00000370: 1f3f 2cbf aecf c4be 4ee7 f4bf 050c 1ebf
00000380: bbee 8f3d e0c2 88bf 5ed9 a23e e16a 8a3e
00000390: 8c06 043e 5b55 1c3e a801 103f c33d 4b3f
000003a0: 5067 b6be 1bae 123f ede2 dcbd 77a8 13bf
000003b0: 71ce 61bf 7e75 05be cb7c 1fbf 183b 513f
000003c0: f71a aebf 6d15 61be a81e 6d3e 67d8 1840
000003d0: d8cb 673f fa7e b4bf 0006 32be 509d 0f3e
000003e0: cec4 a83c 2ac9 50bf 44a0 c3be 30b3 cf3c
000003f0: dce7 1a3f f863 143f 1b77 88be 45d1 04c0

fc1.weight f4 [256, 341]
0.038257346 -0.008720132 -0.032971974 0.03583568 0.01457815 0.027663356 0.027703285 0.013982486
0.0014907359 0.026731245 0.032014005 -0.028597195 -0.027752092 -0.021945586 0.014666369 0.006382698
0.0016661568 -0.0040982678 0.023185818 -0.02372399 -0.0026204635 0.011118698 -0.011492903 -0.013443172
-0.0035222932 -0.0014861498 0.0131641235 0.021397645 0.020988733 0.02059551 -0.06293196 -0.048379537
0.024584947 0.032485336 -0.0013719555 -0.005939906 -0.02562812 -0.024170652 -0.007343974 0.03293827
0.052416287 -0.023992123 0.019796189 -0.016137768 -0.012552435 -0.01022546 0.015616243 0.03645997
-0.014639944 0.016589921 -0.008437937 -0.004824115 -0.058759406 0.017781626 -0.0018170377 0.010274645
0.027634058 -0.038756944 -0.009095733 0.01712685 0.016457843 0.010786968 0.01275893 0.05131252
-0.010622866 -0.027057413 0.00452872 0.011364431 0.0020614837 0.04356523 0.014683153 -0.030029261
-0.024107983 0.04495238 0.023316042 0.006493926 -0.02722976 0.008306789 -0.023131981 0.01103013
0.0082155 0.022533763 -0.05428537 -0.0014250327 0.0023344925 -0.030915499 0.056731895 0.02032782
0.018777743 0.0041307183 -0.023364948 -0.020688187 0.013534966 0.012208316 0.042898748 -0.058300015
-0.0035125343 -0.0014008973 0.006901038 0.0041952236 0.0405355 0.0020583358 -0.041065257 -0.035883795
-0.026729379 0.0069105127 0.007893472 0.014616833 0.016801415 0.01838625 0.049095295 -0.008339706
0.0011817407 0.019242631 -0.010200978 -0.010546751 0.03814678 -0.015282671 0.03692327 -0.013432875
0.025993824 -0.0069788806 -0.029983275 0.027995517 0.005073304 0.011501483 0.025046425 0.0041845846
0.025266415 0.05180336 0.04201101 -0.00840523 -0.007646106 -0.0035002762 0.017721644 0.033507623
-0.026486851 0.028111968 -0.005418918 0.0040690377 -0.027102463 -0.004279138 0.029274251 0.04987211
0.0058725094 -0.009987693 0.012532133 -0.038316865 0.0024719269 0.038117386 0.042599022 -0.05698557
0.027806042 0.02898408 -0.07403699 -0.0025909487 0.042904414 -0.021774996 -0.033983327 0.036425546
0.013308945 0.021010496 -0.060237173 0.012126908 0.018855233 0.034395944 0.03442654 -0.038446847
-0.012593258 0.03596822 -0.01796924 0.04343917 -0.008923533 -0.03195264 0.039711013 0.023018833
0.015370237 0.037057936 -0.035786506 0.013768848 0.008747458 0.00021497613 -0.0399464 0.0550429
0.052008417 -0.02899097 0.021895474 0.021792036 0.023299688 -0.009560066 0.017492868 -0.003267832
-0.012794261 -0.024152316 -0.017597942 0.0007819808 -0.018271828 -0.033004407 0.016018005 0.037818544
0.015800217 -0.008688632 0.0069966805 -0.038489327 0.024234947 -0.030174434 -0.05141509 -0.022080056
-0.0122306105 -0.030572059 0.045528945 -0.04430391 -0.004659229 0.039066475 -0.026259413 0.046718653
-0.029821897 0.0046677077 0.027959201 0.0040468485 -0.010279248 0.010617546 -0.0005187609 -0.017938126
0.001200392 -0.024984404 0.0071625533 -0.03191418 0.034781434 0.03454421 0.007151745 -0.041798014
0.04231142 0.049913984 -0.0020302935 -0.0016600208 -0.00019581585 -0.008877639 0.030100085 0.0028780254
0.0063052396 0.026457535 -0.003949984 -0.008803026 -0.0011356409 -0.010207371 -0.09408902 0.033114344
-0.028577317 0.026382716 0.019593176 0.0735457 0.018668162 0.038914915 -0.008639432 0.0104605835
00000000: bcb3 1c3d e2de 0ebc 9f0d 07bd 6fc8 123d
00000010: 31d9 6e3c 439e e23c 00f2 e23c cc16 653c
00000020: cc64 c33a 7cfb da3c 1e21 033d aa44 eabc
00000030: 5b58 e3bc 3bc7 b3bc 364b 703c f425 d13b
00000040: f262 da3a c34a 86bb 2ff0 bd3c d058 c2bc
00000050: 15bc 2bbb 332b 363c bb4c 3cbc c040 5cbc
00000060: 46d6 66bb eaca c2ba 56ae 573c 1d4a af3c
00000070: 90f0 ab3c eab7 a83c 79e2 80bd 9f29 46bd
00000080: 5f66 c93c 580f 053d 30d3 b3ba 8ba3 c2bb
00000090: 10f2 d1bc 8801 c6bc b8a5 f0bb 48ea 063d
000000a0: 76b2 563d 218b c4bc 9e2b a23c 5a33 84bc
000000b0: baa8 4dbc b088 27bc 45db 7f3c 0d57 153d
000000c0: 60dc 6fbc 96e7 873c 463f 0abc 9c13 9ebb
000000d0: b4ad 70bd c6aa 913c ab29 eeba fc56 283c
000000e0: d260 e23c 9abf 1ebd 4506 15bc 9c4d 8c3c
000000f0: 99d2 863c d3bb 303c d50a 513c 142d 523d
00000100: 880b 2ebc 82a7 ddbc a865 943b e131 3a3c
00000110: f519 073b 7471 323d 9b91 703c edff f5bc
00000120: 1b7e c5bc fd1f 383d 4901 bf3c 00cb d43b
00000130: f210 dfbc 3319 083c 487f bdbc b8b7 343c
00000140: 4e9a 063c ba98 b83c 565a 5ebd 2ac8 baba
00000150: 49fe 183b 8042 fdbc b45f 683d 8786 a63c
00000160: c8d3 993c fa5a 873b d967 bfbc 467a a9bc
00000170: c3c1 5d3c 6305 483c 99b6 2f3d ffcb 6ebd
00000180: 8c32 66bb 509e b7ba 1a22 e23b 1678 893b
00000190: 8d08 263d 25e5 063b 0b34 28bd e3fa 12bd
000001a0: 92f7 dabc 9571 e23b 9f53 013c 717b 6f3c
000001b0: 1fa3 893c c39e 963c 2618 493d 43a3 08bc
000001c0: a3e4 9a3a b9a2 9d3c 0122 27bc 48cc 2cbc
000001d0: cc3f 1c3d 2b64 7abc db3c 173d 9015 5cbc
000001e0: 00f1 d43c 18af e4bb 7c9f f5bc db56 e53c
000001f0: f53d a63b b770 3c3c 292e cd3c d71e 893b
00000200: 83fb ce3c c32f 543d bd13 2c3d 17b6 09bc
00000210: 308c fabb e464 65bb fb2c 913c 4a3f 093d
00000220: f4fa d8bc 124b e63c 2e91 b1bb 9055 853b
00000230: fc05 debc 0338 8cbb 8ed0 ef3c b346 4c3d
00000240: 2e6e c03b 6ca3 23bc 9353 4d3c 25f2 1cbd
00000250: 0d00 223b fa20 1c3d 507c 2e3d b369 69bd
00000260: 7fc9 e33c 0570 ed3c b5a0 97bd e8cc 29bb
00000270: 8abc 2f3d 7a61 b2bc 1a32 0bbd f432 153d
00000280: c30d 5a3c 341e ac3c 41bb 76bd f0af 463c
00000290: 4a76 9a3c c3e2 0c3d d802 0d3d 717a 1dbd
000002a0: f453 4ebc 6a53 133d 3a34 93bc 45ed 313d
000002b0: 0334 12bc c5e0 02bd 04a8 223d fe91 bc3c
000002c0: 72d3 7b3c 10ca 173d df94 12bd bc96 613c
000002d0: 8051 0f3c 376b 6139 d69e 23bd aa74 613d
000002e0: c706 553d 797e edbc 235e b33c 3685 b23c
000002f0: fdde be3c d3a1 1cbc 344d 8f3c 2029 56bb
00000300: 059f 51bc 14db c5bc 8f29 90bc d8fd 4c3a
00000310: cdae 95bc a12f 07bd 3138 833c 9ee7 1a3d
00000320: 756f 813c c45a 0ebc 6944 e53b fca6 1dbd
00000330: 5e88 c63c 6030 f7bc a198 52bd 3ce1 b4bc
00000340: e662 48bc 4172 fabc 8f7c 3a3d 0478 35bd
00000350: 72ac 98bb 2b04 203d fb1d d7bc 0f5c 3f3d
00000360: 0d4d f4bc 92f3 983b b20a e53c 6d9b 843b
00000370: 4a6a 28bc 37f5 2d3c 74fd 07ba faf2 92bc
00000380: 7956 9d3a 18ac ccbc dab3 ea3b 71b8 02bd
00000390: fa76 0e3d 3b7e 0d3d 2f59 ea3b 6534 2bbd
000003a0: bd4e 2d3d 9b72 4c3d ac0e 05bb 0e95 d9ba
000003b0: eb53 4db9 8473 11bc 7494 f63c 419d 3c3b
000003c0: 2f9c ce3b 79bd d83c de6e 81bb 913a 10bc
000003d0: c9d9 94ba d13c 27bc beb1 c0bd e8a2 073d
000003e0: fa1a eabc 9120 d83c de81 a03c 219f 963d
000003f0: f9ed 983c 3f65 1f3d 678c 0dbc de62 2b3c

fc1.bias f4 [256]
5.492057e-08 1.4295621e-07 1.2492552e-07 3.3528113e-07 4.2059426e-07 -8.693995e-08 -4.570517e-08 -6.528394e-08
-1.4493688e-07 -2.5990764e-07 -1.6448198e-06 -3.7351533e-08 -3.3201613e-07 -2.630359e-07 -2.709219e-08 2.1916787e-07
-8.478653e-08 5.8403884e-08 1.282385e-07 -1.7876671e-07 4.044993e-08 -2.6871191e-07 1.0756387e-07 -1.941657e-07
1.6555519e-07 3.0828866e-07 2.6145443e-07 1.7652397e-08 2.0957066e-07 3.626026e-08 2.2979208e-08 2.825112e-07
-2.1412559e-08 8.557095e-08 -8.215544e-08 3.676169e-08 -3.5186083e-08 -1.15617695e-07 -3.497331e-07 5.7507705e-08
-1.4411594e-07 1.7651598e-07 -6.3553913e-09 3.574554e-07 -1.1089132e-08 2.4205828e-08 4.3992503e-07 -2.0060872e-07
2.9722747e-07 2.206767e-08 8.548521e-08 5.8596163e-09 1.360012e-07 2.478524e-08 6.0602034e-08 3.2350798e-09
-7.0885115e-08 -9.133727e-09 4.783527e-07 -6.5310054e-08 -7.223948e-08 2.2040798e-07 -1.0929969e-08 -2.694598e-07
1.8337002e-07 -1.0337425e-09 5.7175146e-08 -1.3014935e-07 -7.288612e-08 -3.262229e-07 6.2857e-07 -2.3490655e-07
-1.0563201e-08 7.4168106e-08 3.214722e-10 2.797376e-07 -1.081822e-06 1.6119675e-07 6.47373e-08 -7.101739e-08
-9.148213e-08 -1.4084432e-07 -4.5505297e-07 -1.9225594e-08 -1.6760528e-07 -4.0185018e-08 -1.2526537e-07 1.9703147e-07
3.1493595e-08 -6.829086e-08 -2.6968982e-07 -2.107785e-07 -2.4584168e-08 -1.7014132e-07 -1.0940143e-08 1.3522127e-07
2.1351462e-07 -1.3056096e-07 -5.6823477e-08 -2.995098e-07 6.825591e-07 -9.381713e-08 3.7089666e-07 2.97137e-07
1.8379352e-09 -9.103799e-08 2.5658103e-08 7.419566e-08 6.79313e-08 2.6856629e-08 -9.183525e-08 -3.026447e-07
-3.194201e-07 -7.255983e-08 -2.2674132e-07 -8.711619e-07 -9.046114e-08 2.4342958e-07 5.4325128e-08 1.4598002e-07
-5.5336017e-07 -9.647329e-08 2.3967905e-08 1.17791565e-07 2.0526502e-07 7.687212e-07 1.141223e-06 -5.704006e-08
-9.1602254e-07 -1.344549e-07 1.421121e-07 -1.6245045e-07 2.2800484e-07 -3.7381973e-08 1.4373437e-07 -1.4875321e-08
-9.347241e-07 -2.5435813e-07 -2.9382934e-07 -2.3981398e-08 1.8917554e-07 1.9486887e-07 1.872806e-07 3.2037665e-08
3.0386254e-08 -1.891009e-07 -8.816999e-08 -5.676241e-08 -4.345219e-08 8.8390505e-07 1.7585822e-07 -1.7463815e-07
2.1894456e-07 2.0012732e-07 -2.1904268e-07 -5.6839593e-07 7.4656135e-08 -1.9663449e-07 -8.467663e-08 -8.6690704e-08
6.309257e-07 -9.606422e-08 -4.37978e-07 -4.2001858e-08 -8.054848e-08 -3.4493402e-07 8.7734506e-08 7.1126976e-08
3.947063e-07 2.1145082e-07 2.7195094e-07 -3.0727045e-09 -9.566553e-07 -1.027856e-06 -4.8993604e-07 3.1816092e-09
3.422137e-07 1.8985817e-07 1.519698e-07 1.2328704e-07 6.975335e-08 2.2059635e-07 1.0501502e-07 1.4612747e-08
1.1475816e-07 -9.4647675e-08 -1.5216099e-08 3.6551363e-08 1.5505177e-07 -2.3707844e-07 -2.8267965e-07 -8.407772e-08
3.045274e-07 2.8103935e-07 2.1159785e-07 1.8221633e-07 2.0966727e-08 3.5351647e-08 -5.0560374e-07 -4.6819494e-07
-1.2762645e-07 -7.848319e-09 -1.6189864e-07 -1.2795872e-08 4.1703615e-08 -1.1127203e-08 -1.018664e-07 6.6568575e-08
-3.5663396e-07 1.2376049e-07 1.3319743e-06 -4.321325e-07 2.9365154e-07 -2.795136e-07 -1.266255e-07 7.4833174e-08
2.132549e-07 4.582847e-07 -9.325356e-09 7.2585914e-07 2.8216598e-07 -1.6243546e-07 -4.198855e-07 -2.4832028e-07
-2.824288e-07 7.0858114e-08 -3.000217e-07 -2.3625176e-07 -1.0056668e-07 -1.1853671e-07 3.6862694e-08 -1.1232836e-08
1.1511295e-07 4.6223425e-07 -1.6268152e-07 -4.129946e-08 -1.8242773e-07 5.47245e-07 -1.2425687e-07 6.369093e-08
-1.6235215e-07 -5.8535814e-08 -3.8840835e-07 9.05095e-08 7.494172e-08 -7.012658e-09 -4.0547937e-07 -2.1797028e-08
-2.8927204e-08 -7.44043e-08 9.613391e-08 -2.2433339e-08 4.822476e-08 9.839008e-08 -2.0603721e-07 1.4285678e-08
00000000: cee1 6b33 817f 1934 4423 0634 b000 b434
00000010: 09ce e134 beb3 bab3 5e4d 44b3 3a32 8cb3
00000020: f29f 1bb4 6f89 8bb4 94c3 dcb5 726c 20b3
00000030: f33f b2b4 6137 8db4 5bb8 e8b2 6854 6b34
00000040: e313 b6b3 c0d7 7a33 eeb1 0934 05f3 3fb4
00000050: 2bbb 2d33 7c43 90b4 ddfd e633 dc7b 50b4
00000060: 77c3 3134 df82 a534 065e 8c34 08a2 9732
00000070: 5806 6134 94bc 1b33 d063 c532 0bac 9734
00000080: b7ee b7b2 21c3 b733 6e6d b0b3 e8e3 1d33
00000090: 821f 17b3 8049 f8b3 f4c2 bbb4 64fe 7633
000000a0: 4abe 1ab4 5888 3d34 9d5e dab1 4ce8 bf34
000000b0: 8582 3eb2 2eed cf32 d62e ec34 e866 57b4
000000c0: a292 9f34 528f bd32 fe93 b733 bb55 c931
000000d0: ba07 1234 52e7 d432 5224 8233 2050 5e31
000000e0: 8139 98b3 8eea 1cb2 2668 0035 9540 8cb3
000000f0: 1322 9bb3 49a9 6c34 83c6 3bb2 46aa 90b4
00000100: 5ee4 4434 9513 8eb0 bd90 7533 2ebf 0bb4
00000110: 9185 9cb3 bc23 afb4 00bb 2835 9f3a 7cb4
00000120: 7379 35b2 5946 9f33 31bb b02f d82e 9634
00000130: 1f33 91b5 6d15 2d34 b505 8b33 3982 98b3
00000140: d574 c4b3 fe3a 17b4 014e f4b4 8725 a5b2
00000150: fdf6 33b4 e597 2cb3 af80 06b4 998f 5334
00000160: 9343 0733 4ca7 92b3 e3c9 90b4 5a52 62b4
00000170: 282d d3b2 17b0 36b4 42f3 3bb2 5731 1134
00000180: 7442 6534 5330 0cb4 130e 74b3 50cc a0b4
00000190: 1b39 3735 8378 c9b3 a61f c734 3386 9f34
000001a0: 999a fc30 aa80 c3b3 c466 dc32 7f55 9f33
000001b0: a1e1 9133 5ab2 e632 f636 c5b3 2c7b a2b4
000001c0: c47c abb4 30d2 9bb3 2e76 73b4 cad9 69b5
000001d0: 8a43 c2b3 b5b0 8234 1c53 6933 afbe 1c34
000001e0: 9f8a 14b5 c12c cfb3 fbe1 cd32 99f4 fc33
000001f0: d266 5c34 1e5a 4e35 202c 9935 36fc 74b3
00000200: 97e4 75b5 ae5e 10b4 7a97 1834 0a6e 2eb4
00000210: 7ed1 7434 ea8d 20b3 6755 1a34 5b8e 7fb2
00000220: c0e9 7ab5 b78e 88b4 99bf 9db4 a7ff cdb2
00000230: 2d20 4b34 263d 5134 4d17 4934 c999 0933
00000240: 0a82 0233 a90b 4bb4 f757 bdb3 eeca 73b3
00000250: 30a0 3ab3 7e45 6d35 8ad3 3c34 2b84 3bb4
00000260: 0617 6b34 94e2 5634 fe31 6bb4 df93 18b5
00000270: a552 a033 7a22 53b4 78d7 b5b3 b82a bab3
00000280: e25c 2935 dd4b ceb3 3d23 ebb4 8865 34b3
00000290: fff9 acb3 5f2f b9b4 8e68 bc33 78be 9833
000002a0: 05e8 d334 290b 6334 a700 9234 9727 53b1
000002b0: 6d66 80b5 ddf4 89b5 2684 03b5 76a3 5a31
000002c0: 7eb9 b734 d1db 4b34 242d 2334 e260 0434
000002d0: 4fcb 9533 10dd 6c34 9e84 e133 8a0b 7b32
000002e0: f770 f633 1c41 cbb3 8eb4 82b2 a6fc 1c33
000002f0: 4e7c 2634 a08f 7eb4 32c3 97b4 378e b4b3
00000300: ed7d a334 c1e1 9634 9333 6334 3ea7 4334
00000310: 521a b432 8cd5 1733 d3b8 07b5 395c fbb4
00000320: b109 09b4 46d5 06b2 5cd6 2db4 d7d4 5bb2
00000330: 9c1d 3333 f529 3fb2 a5c1 dab3 76f4 8e33
00000340: 6677 bfb4 06e3 0434 4ac6 b235 d7ff e7b4
00000350: 29a7 9d34 0f10 96b4 8df6 07b4 f9b3 a033
00000360: 10fb 6434 2b0a f634 5935 20b2 a9d8 4235
00000370: 997c 9734 eb69 2eb4 a06c e1b4 e150 85b4
00000380: b8a0 97b4 a92a 9833 ab12 a1b4 64ac 7db4
00000390: 1ef7 d7b3 3f8e feb3 f652 1e33 89fa 40b2
000003a0: 0334 f733 fe28 f834 8ead 2eb4 3d61 31b3
000003b0: 5ae1 43b4 64e6 1235 786b 05b4 76c6 8833
000003c0: 0553 2eb4 cf68 7bb3 7086 d0b4 205e c233
000003d0: a5ef a033 fef3 f0b1 a9b0 d9b4 2c3c bbb2
000003e0: 987b f8b2 32c8 9fb3 2d72 ce33 6fb3 c0b2
000003f0: af1f 4f33 854a d333 143b 5db4 146d 7532

bn1.weight f4 [256]
0.90068537 0.8872706 0.8330825 0.91987365 0.92782277 0.82833135 0.95850563 0.9027392
0.84698707 0.9062787 0.85580695 0.9246414 0.865974 0.8841165 0.87109673 0.83584166
0.9174943 0.83368766 0.9182724 0.9122381 0.8634125 0.91436946 0.8913119 0.86718166
0.88575447 0.8657949 0.86755705 0.8743471 0.9310551 0.9249956 0.9343657 0.84999937
0.8930788 0.9139731 0.8732375 0.8719907 0.84760135 0.8386472 0.87342775 0.8605384
0.82028925 0.91919535 0.8260586 0.893489 0.8701892 0.82421 0.910421 0.83640385
0.89637876 0.83295894 0.89627 0.82318175 0.92491484 0.86571354 0.8693182 0.82662314
0.8283449 0.8464753 0.94882816 0.86870444 0.9057859 0.87060404 0.874665 0.90709746
0.8826489 0.8518239 0.82391787 0.8495938 0.82891345 0.929308 0.9121116 0.88855827
0.8952416 0.9233158 0.83867013 0.93752426 0.92142385 0.8419557 0.8736612 0.8736814
0.935394 0.8634605 0.869883 0.86478895 0.8820252 0.86144525 0.85460263 0.8486916
0.8664726 0.85298866 0.89498055 0.8494296 0.82818115 0.8727908 0.88614017 0.87325174
0.8622025 0.866826 0.8860157 0.90446854 0.8794129 0.8655362 0.90349245 0.86878425
0.8992629 0.87917024 0.9142365 0.85855204 0.8831261 0.8411491 0.8782232 0.84167933
0.8694694 0.9014316 0.8754707 0.82375616 0.83333474 0.85937834 0.9134147 0.8509091
0.898516 0.8432718 0.84103006 0.8754949 0.87292737 0.89066553 0.923421 0.8742183
0.86420614 0.91114086 0.89129853 0.8846277 0.8991665 0.8527655 0.89407593 0.8834036
0.8658155 0.9023131 0.8495804 0.94430906 0.91582537 0.92134917 0.82812274 0.85835004
0.8508811 0.85000104 0.8502071 0.83288574 0.8045758 0.88590115 0.86820537 0.86300784
0.9435776 0.8745778 0.8800703 0.90389353 0.8505577 0.8440299 0.90244406 0.8494673
0.9406129 0.86152065 0.91947246 0.86874306 0.9443052 0.8939057 0.8666529 0.9204759
0.92231977 0.8362872 0.9223092 0.94321984 0.84046936 0.90848005 0.8807303 0.85288787
0.8787127 0.85917175 0.88033855 0.88644016 0.8375306 0.9236761 0.90514135 0.8406113
0.8348583 0.82976633 0.8737527 0.84864575 0.91943616 0.8711139 0.8733088 0.901174
0.8617227 0.94014657 0.8562743 0.8425145 0.85875577 0.88017344 0.8938803 0.9093901
0.8575342 0.87138855 0.8934144 0.8299376 0.8898741 0.85637593 0.85571206 0.8603603
0.83214545 0.84801155 0.89341354 0.92456645 0.83507687 0.89613676 0.8377951 0.92416126
0.9187757 0.92634135 0.86449844 0.91288555 0.9441572 0.883223 0.8855006 0.9038428
0.92025524 0.84484625 0.92572784 0.8800956 0.8848438 0.8422184 0.8826989 0.88786936
0.9198003 0.9219898 0.9008735 0.8444026 0.9123818 0.921916 0.86405355 0.9202065
0.8896837 0.848933 0.86271363 0.918148 0.85819787 0.8356702 0.9023223 0.889597
0.880667 0.85715497 0.88625604 0.8702734 0.8269989 0.9404804 0.89254004 0.91732717
00000000: 5193 663f 2b24 633f e544 553f d77c 6b3f
00000010: cb85 6d3f 860d 543f a060 753f eb19 673f
00000020: 25d4 583f e201 683f 2a16 5b3f 4cb5 6c3f
00000030: 79b0 5d3f 7555 623f 3200 5f3f b8f9 553f
00000040: e8e0 6a3f 8e6c 553f e613 6b3f 7088 693f
00000050: 9a08 5d3f 1e14 6a3f 042d 643f 9eff 5d3f
00000060: cec0 623f bca4 5d3f 3818 5e3f 36d5 5f3f
00000070: a159 6e3f 83cc 6c3f 9732 6f3f 8f99 593f
00000080: d0a0 643f 24fa 693f 7e8c 5f3f c83a 5f3f
00000090: 67fc 583f 95b1 563f f698 5f3f 3f4c 5c3f
000000a0: 7afe 513f 6350 6b3f 9478 533f b2bb 643f
000000b0: b8c4 5e3f 6dff 523f 5a11 693f 901e 563f
000000c0: 1479 653f cc3c 553f f371 653f 0abc 523f
000000d0: 38c7 6c3f 679f 5d3f a38b 5e3f 939d 533f
000000e0: 690e 543f 9bb2 583f 67e6 723f 6a63 5e3f
000000f0: 96e1 673f e8df 5e3f 0cea 5f3f 8a37 683f
00000100: 47f5 613f 2211 5a3f 48ec 523f fb7e 593f
00000110: ac33 543f 21e7 6d3f 2580 693f 8e78 633f
00000120: 8e2e 653f 6d5e 6c3f 16b3 563f 9701 703f
00000130: 6fe2 6b3f 698a 573f 43a8 5f3f 96a9 5f3f
00000140: fb75 6f3f bf0b 5d3f a7b0 5e3f cf62 5d3f
00000150: 67cc 613f ad87 5c3f 3dc7 5a3f da43 593f
00000160: 26d1 5d3f 775d 5a3f 721d 653f 3874 593f
00000170: ae03 543f 386f 5f3f 15da 623f 6d8d 5f3f
00000180: 4eb9 5c3f 4fe8 5d3f edd1 623f 408b 673f
00000190: 3421 613f c893 5d3f 484b 673f a568 5e3f
000001a0: 1836 663f 4d11 613f 670b 6a3f 11ca 5b3f
000001b0: 8d14 623f 8c55 573f 3cd3 603f 4c78 573f
000001c0: 8c95 5e3f 39c4 663f d91e 603f afe1 523f
000001d0: 6d55 553f 3800 5c3f 8cd5 693f 2ed5 593f
000001e0: 2505 663f a9e0 573f bf4d 573f 6f20 603f
000001f0: 2b78 5f3f a802 643f 5265 6c3f c5cc 5f3f
00000200: 9d3c 5d3f 8740 693f 242c 643f f676 623f
00000210: c72f 663f d74e 5a3f 29e2 643f bd26 623f
00000220: 16a6 5d3f fefd 663f 1a7e 593f 3dbe 713f
00000230: 8873 6a3f 8add 6b3f daff 533f d4bc 5b3f
00000240: 58d3 593f ab99 593f 2ca7 593f 0038 553f
00000250: aef8 4d3f 6bca 623f b542 5e3f 15ee 5c3f
00000260: 4d8e 713f 55e4 5f3f 4a4c 613f 9165 673f
00000270: 26be 593f 5812 583f 9306 673f b076 593f
00000280: 02cc 703f 9e8c 5c3f 8c62 6b3f f265 5e3f
00000290: fcbd 713f 01d7 643f f7dc 5d3f 4fa4 6b3f
000002a0: 261d 6c3f eb16 563f 751c 6c3f db76 713f
000002b0: 0029 573f 2692 683f 8a77 613f dc56 5a3f
000002c0: 51f3 603f aef2 5b3f de5d 613f beed 623f
000002d0: 6868 563f 0976 6c3f 58b7 673f 4d32 573f
000002e0: 46b9 553f 916b 543f 42ae 5f3f d940 593f
000002f0: 2b60 6b3f 5201 5f3f 2a91 5f3f 57b3 663f
00000300: dc99 5c3f 72ad 703f cb34 5b3f 08af 573f
00000310: 6bd7 5b3f 0c53 613f 57d5 643f cacd 683f
00000320: 5d87 5b3f 5213 5f3f ceb6 643f ca76 543f
00000330: cace 633f 743b 5b3f f20f 5b3f 9340 5c3f
00000340: 7c07 553f 4917 593f c0b6 643f 63b0 6c3f
00000350: 99c7 553f 3869 653f bd79 563f d595 6c3f
00000360: e234 6b3f b524 6d3f c54f 5d3f deb2 693f
00000370: 49b4 713f e71a 623f 2bb0 623f 3e62 673f
00000380: d995 6b3f d847 583f 80fc 6c3f f24d 613f
00000390: 2085 623f a09b 573f 8ef8 613f 684b 633f
000003a0: 0878 6b3f 8607 6c3f a59f 663f c52a 583f
000003b0: db91 693f b002 6c3f 9d32 5d3f a792 6b3f
000003c0: 50c2 633f ac53 593f cdda 5c3f bf0b 6b3f
000003d0: dbb2 5b3f 7bee 553f 98fe 663f a1bc 633f
000003e0: 6473 613f 826e 5b3f ade1 623f 3dca 5e3f
000003f0: 33b6 533f 53c3 703f 817d 643f f4d5 6a3f

bn1.bias f4 [256]
0.0064599244 0.001119816 -0.0255123 -0.014882819 0.01595952 -0.021206526 0.0076626586 -0.017129635
-0.005599459 0.009091375 -0.031624854 -0.026772035 -0.004534837 0.004165069 -0.0007381464 -0.016694516
-0.0127210645 -0.0140882265 0.013913163 -0.015162981 -0.019432606 -0.0072324476 0.0018262322 -0.010966619
-0.027407015 -0.018011201 -0.022605432 -0.030466469 0.003827712 -0.01127717 -0.011451291 -0.0049763336
0.004724193 0.02737897 -0.02030732 -0.019547207 -0.017053092 -0.01867719 0.017391197 -0.005835022
-0.022563502 -0.017605973 -0.01396438 0.0032741695 -0.010765383 -0.016114289 -0.011595275 -0.0165568
-0.0016583722 -0.014107097 0.0036165705 -0.0058548427 0.018878777 -0.021908762 -0.0029031802 -0.03145704
-0.02602114 -0.018334663 0.0107780695 0.017074076 0.00058437657 -0.026933823 -0.013307575 0.030674694
-0.023710953 -0.02316005 -0.014929282 0.00075574993 -0.012696729 -0.007514582 -0.0024704838 -0.0012445502
-0.013926274 -0.024444794 -0.01878475 0.014346053 0.01563689 -0.004664694 0.0027284145 -0.01687596
0.009656675 -0.009976387 -0.010932785 0.012393271 -0.020146677 -0.025439635 -0.013223423 -0.0045372653
-0.015381644 -0.020731954 -0.013286831 -0.011150936 -0.03015815 -0.017248493 0.0072288928 -0.0148270875
-0.0023010378 -0.0062270947 -0.017944891 -0.004557957 -0.006323643 -0.021671193 -0.020171799 0.003286766
0.013110471 -0.013804013 -0.003589079 -0.01731285 0.0059901834 -0.04331834 -0.015609503 -0.005381271
-0.01807926 -0.00074471475 -0.011333143 -0.026071982 -0.033232693 -0.01690215 0.0063787177 -0.032456737
-0.0009008104 -0.039123327 -0.019612953 -0.006094418 -0.0033352533 -0.014586957 0.020478299 -0.009250528
-0.0341491 -0.011105811 -0.00502573 -0.019537944 0.0051493263 -0.008681773 -0.007587991 -0.0046168272
0.011798587 0.0048771002 -0.0009833481 0.0003477231 0.0011553606 0.015105239 -0.004948038 -0.034625035
0.009095316 -0.012933669 -0.023744173 -0.004805245 -0.038203176 -0.015173664 -0.007855818 -0.016338447
0.0055622747 -0.008376295 -0.016116297 -0.01535317 -0.02169987 -0.02674874 -0.006213356 -0.011777928
0.024011143 -0.0052182907 0.0038011477 -0.04180107 -0.003472381 -0.0010576529 -0.023525018 -0.022283902
-0.008580185 -0.016570443 0.015224487 -0.017743617 -0.022123981 -0.0059981127 0.0154593745 -0.012076568
0.005323095 -0.015698303 0.00011190832 0.0122118 -0.01339337 0.005180475 -0.025227727 -0.011265897
-0.02008974 -0.01623079 0.008232968 -0.021529201 0.0076549333 -0.008854475 -0.009369178 -0.010669984
-0.0042319377 0.016160097 -0.0043364763 -0.022215022 -0.018255241 -0.018823402 0.01238507 -0.013443329
-0.039642137 -0.025216708 -0.014738858 -0.025031546 0.0006848856 0.010528003 -0.030716557 -0.02334119
-0.021324942 0.007783804 0.010830174 -0.007566308 -0.023121346 -0.02989174 -0.020289488 0.0056568375
0.0050829197 0.008910414 -0.015243441 -0.023553189 0.010429786 -0.0017100405 -0.016214753 -0.012312085
-0.00062578835 -0.021425366 0.0009588157 -0.02205605 -0.01585854 -0.014445705 -0.017550277 -0.019913202
0.0024957594 0.008081128 -0.02021298 -0.03077788 0.007988481 0.02066692 0.0143280905 -0.028206043
0.020466838 -0.008274234 -0.03183549 -0.003820386 -0.01628015 -0.019311117 -0.009160053 0.0022703751
-0.019821646 -0.021673946 -0.016222125 -0.030545551 -0.028946707 0.0078706965 -0.0152320145 0.019509496
00000000: c6ad d33b cac6 923a 2cff d0bc 11d7 73bc
00000010: 8abd 823c 4fb9 adbc 0a17 fb3b 7353 8cbc
00000020: ab7b b7bb fef3 143c 1089 01bd 0751 dbbc
00000030: f898 94bb 227b 883b 2b80 41ba f0c2 88bc
00000040: 036c 50bc 4ed2 66bc 09f4 633c 276e 78bc
00000050: 2131 9fbc 2bfe ecbb 2f5e ef3a 55ad 33bc
00000060: ad84 e0bc 3a8c 93bc 072f b9bc d194 f9bc
00000070: 5ada 7a3b e1c3 38bc 329e 3bbc 8310 a3bb
00000080: 67cd 9a3b dd49 e03c 895b a6bc 7721 a0bc
00000090: edb2 8bbc e800 99bc fc77 8e3c b633 bfbb
000000a0: 18d7 b8bc 673a 90bc dbca 64bc 7393 563b
000000b0: 4a61 30bc 1d02 84bc 1cfa 3dbc 20a2 87bc
000000c0: bd5d d9ba 7421 67bc fc03 6d3b fbd9 bfbb
000000d0: aaa7 9a3c 017a b3bc 4843 3ebb 19d9 00bd
000000e0: 492a d5bc 9332 96bc 8096 303c efde 8b3c
000000f0: d930 193a 52a4 dcbc 0408 5abc 7f49 fb3c
00000100: 793d c2bc 25ba bdbc f299 74bc 851d 463a
00000110: f105 50bc e23c f6bb d7e7 21bb 2d20 a3ba
00000120: 072b 64bc 7340 c8bc 7ae2 99bc b50b 6b3c
00000130: ef18 803c 4ada 98bb 33cf 323b 743f 8abc
00000140: 0837 1e3c 0074 23bc 6d1f 33bc 250d 4b3c
00000150: a50a a5bc c866 d0bc 0ea7 58bc 57ad 94bb
00000160: 4a03 7cbc 0fd6 a9bc 02b1 59bc 6ab2 36bc
00000170: 390e f7bc b64c 8dbc 59e0 ec3b 50ed 72bc
00000180: 02cd 16bb a80c ccbb 2a01 93bc ea5a 95bb
00000190: 9036 cfbb c987 b1bc 543f a5bc c866 573b
000001a0: 4dcd 563c 3a2a 62bc c136 6bbb aed3 8dbc
000001b0: 4d49 c43b 926e 31bd 00bf 7fbc 5f55 b0bb
000001c0: f51a 94bc f638 43ba a6ae 39bc e994 d5bc
000001d0: 011f 08bd 6176 8abc 9004 d13b 5bf1 04bd
000001e0: 5d24 6cba c83f 20bd 58ab a0bc afb3 c7bb
000001f0: 4494 5abb 22fe 6ebc 1bc2 a73c 878f 17bc
00000200: eddf 0bbd 26f5 35bc e1ae a4bb 0a0e a0bc
00000210: aebb a83b ff3d 0ebc afa4 f8bb c148 97bb
00000220: dc4e 413c 15d0 9f3b b0e3 80ba 9b4e b639
00000230: 786f 973a f77b 773c 2723 a2bb fbd2 0dbd
00000240: 8504 153c bde7 53bc 2483 c2bc 5175 9dbb
00000250: ef7a 1cbd f69a 78bc b0b5 00bc 35d8 85bc
00000260: be43 b63b ba3c 09bc 5306 84bc dd8b 7bbc
00000270: edc3 b1bc 2c20 dbbc 6899 cbbb 36f8 40bc
00000280: 04b3 c43c 32fe aabb ad1c 793b 9937 2bbd
00000290: e390 63bb f1a0 8aba 8ab7 c0bc bb8c b6bc
000002a0: e793 0cbc bdbe 87bc 2070 793c 105b 91bc
000002b0: 5a3d b5bc d18b c4bb 5149 7d3c ccdc 45bc
000002c0: 5b6d ae3b ba99 80bc 52b0 ea38 0014 483c
000002d0: de6f 5bbc f9c0 a93b 61aa cebc 9994 38bc
000002e0: 3d93 a4bc 6ff6 84bc 92e3 063c 025e b0bc
000002f0: 3cd6 fa3b 5c12 11bc 2e81 19bc 28d1 2ebc
00000300: 11ac 8abb 2e62 843c 0019 8ebb 47fc b5bc
00000310: 048c 95bc 8933 9abc c0ea 4a3c 6941 5cbc
00000320: cb5f 22bd 4593 cebc 407b 71bc f50e cdbc
00000330: e589 333a a57d 2c3c 4aa1 fbbc 0636 bfbc
00000340: a5b1 aebc 480f ff3b 0b71 313c cbee f7bb
00000350: fa68 bdbc 86df f4bc 2436 a6bc fe5c b93b
00000360: 9f8e a63b fcfc 113c a0bf 79bc 9ef2 c0bc
00000370: b1e1 2a3c 7023 e0ba cdd4 84bc a1b8 49bc
00000380: f20b 24ba 4084 afbc 0859 7b3a e4ae b4bc
00000390: c5e9 81bc aead 6cbc 99c5 8fbc 0321 a3bc
000003a0: e58f 233b b566 043c b195 a5bc e521 fcbc
000003b0: 1ee2 023c ac4d a93c 5ec0 6a3c 5c10 e7bc
000003c0: 12aa a73c a790 07bc ee65 02bd 715f 7abb
000003d0: f35d 85bc 5932 9ebc 0c14 16bc 93ca 143b
000003e0: 0161 a2bc 8f8d b1bc 43e4 84bc aa3a fabc
000003f0: a521 edbc 18f4 003c b38f 79bc 61d2 9f3c

bn1.running_mean f4 [256]
0.16993827 0.4594938 -0.08782456 -0.21232235 0.15333186 0.05830196 0.16310109 0.08161758
-0.1286006 0.09698392 -0.114123024 0.021873234 -0.15416862 -0.13149765 0.050096102 0.197075
-0.051517602 -0.02717283 0.20218244 0.21359172 -0.08038041 0.01748058 -0.26623073 0.10789314
-0.15858716 -0.06784342 0.025787931 0.017110126 0.30167595 0.2944306 -0.1413813 -0.017713483
0.10422904 0.0674961 -0.04068187 0.06983079 -0.06513632 0.3125941 0.1693055 0.40927097
-0.19919224 0.19207302 -0.029024463 0.04595952 -0.3302598 0.084706396 -0.038663376 -0.18359302
-0.32364452 0.11793188 -0.18010613 -0.15361808 0.34863925 -0.16856869 0.13647512 -0.07659998
0.08699183 0.3851456 0.078370035 0.03436805 0.0041970112 -0.03491043 0.10312558 0.00836291
0.28518462 0.06397221 -0.22214946 -0.45757738 0.057175554 -0.0031334432 -0.15140767 -0.19747895
-0.31848982 -0.083623596 -0.0007374195 0.17000082 0.063856795 0.27757788 0.05719161 0.074113004
-0.15545516 0.33368486 -0.014192034 0.22852543 -0.030344294 0.12082377 -0.10422361 -0.07852892
-0.27087605 0.09372605 0.06654428 -0.15818514 -0.091374315 0.4960084 -0.13019969 0.24115719
-0.12936862 -0.090379715 0.13292375 0.087142885 -0.051346764 0.20389624 0.30091247 -0.18449438
0.03030951 0.028500369 -0.18563801 -0.08711102 0.26628256 0.07358546 0.117078274 -0.0014873294
0.06688975 -0.1883629 0.12006805 -0.055854727 -0.0014845196 -0.032340243 0.08666267 0.3611954
-0.08447164 0.21398272 -0.053200133 0.41673067 0.33589742 0.16903172 0.26490256 -0.20033646
0.031333543 0.025830543 0.24467002 0.11637248 -0.11335524 0.03405189 -0.28505313 -0.17542316
-0.0039626225 0.029053051 0.22494306 0.15545397 -0.1671425 0.05183574 -0.15052816 0.14763762
0.07285341 0.051029935 0.08059395 0.24016188 0.28595147 -0.24314505 -0.019895978 -0.34049127
0.112992845 0.1765417 0.14585045 0.3098613 0.02764047 -0.030744601 0.12701781 -0.06643135
0.21223466 -0.16984421 -0.2432843 0.12759422 0.013117832 -0.054685723 0.14414808 -0.042459022
-0.36382285 -0.15369745 -0.25610837 0.1355374 0.2963245 0.18808874 -0.1294723 0.08001009
0.087549366 -0.08096995 0.0071385032 -0.22738445 0.09608496 0.31951407 -0.04254352 0.27923873
0.025753377 -0.0324731 -0.1161783 0.008273914 0.22183171 0.1665571 -0.17071229 0.32321265
0.2986729 -0.17435433 0.048251316 0.38001895 -0.05073944 0.023747144 0.4074214 0.1852356
0.026507823 0.08051688 0.3715629 -0.022248391 -0.1129919 0.34195206 0.042793814 0.040767323
0.14558634 0.059098314 -0.052233897 -0.26610386 0.17800303 0.10338864 0.26940146 -0.08957144
0.20053938 -0.18217002 -0.10502145 -0.110520594 0.022524936 0.008306196 0.081702165 -0.08049665
0.13532156 -0.116660476 0.07797214 -0.30396104 -0.06468767 -0.18420236 -0.14192459 0.16430746
0.060390133 0.15400903 -0.27222446 -0.039318237 0.45449492 -0.0941595 -0.12366488 -0.40683576
0.18750012 0.042043515 0.09944996 -0.13936292 0.18089601 -0.081581615 0.116469614 0.26294157
0.48018026 -0.3152022 0.225077 0.0076988395 0.2114237 -0.11386323 -0.26241142 0.18294531
00000000: 4c04 2e3e c542 eb3e 5ddd b3bd 086b 59be
00000010: 0703 1d3e 09ce 6e3d f903 273e 1e27 a73d
00000020: e0af 03be 819f c63d 55b9 e9bd 7f2f b33c
00000030: 61de 1dbe 52a7 06be 9231 4d3d 07ce 493e
00000040: 1f04 53bd 8e99 debc ea08 4f3e cab7 5a3e
00000050: 7c9e a4bd 6f33 8f3c 654f 88be 14f7 dc3d
00000060: ac64 22be 7ef1 8abd 3641 d33c 892a 8c3c
00000070: 4575 9a3e 9cbf 963e 42c6 10be de1b 91bc
00000080: 0976 d53d 653b 8a3d 08a2 26bd 7203 8f3d
00000090: 3166 85bd 550c a03e 6c5e 2d3e f78b d13e
000000a0: 0df9 4bbe caae 443e b6c4 edbc 0d40 3c3d
000000b0: d017 a9be 8c7a ad3d 7d5d 1ebd cfff 3bbe
000000c0: bcb4 a5be 4586 f13d be6d 38be 0f4e 1dbe
000000d0: d880 b23e 459d 2cbe 22c0 0b3e 73e0 9cbd
000000e0: c628 b23d ce31 c53e 7880 a03d 83c5 0c3d
000000f0: 1587 893b 3dfe 0ebd 8133 d33d 9604 093c
00000100: b803 923e dd03 833d 267b 63be 9547 eabe
00000110: ea30 6a3d 745a 4dbb 9d0a 1bbe ec37 4abe
00000120: 1911 a3be d942 abbd 634f 41ba b214 2e3e
00000130: 5ac7 823d b01e 8e3e c041 6a3d 8fc8 973d
00000140: a32f 1fbe bed8 aa3e b485 68bc 9202 6a3e
00000150: 9994 f8bc 7472 f73d 3073 d5bd c5d3 a0bd
00000160: 44b0 8abe 71f3 bf3d 5e48 883d 49fb 21be
00000170: 7522 bbbd d0f4 fd3e 1153 05be e9f1 763e
00000180: 3579 04be 0019 b9bd 2a1d 083e f877 b23d
00000190: fc50 52bd 2dca 503e 3311 9a3e 18ec 3cbe
000001a0: a64b f83c 9b79 e93c e417 3ebe 4367 b2bd
000001b0: 3056 883e f9b3 963d bcc6 ef3d 7ef2 c2ba
000001c0: 7efd 883d 34e2 40be 3de6 f53d edc7 64bd
000001d0: 3694 c2ba 3477 04bd 337c b13d 9aee b83e
000001e0: 78ff acbd 491e 5b3e 62e8 59bd b95d d53e
000001f0: bffa ab3e a716 2d3e 4fa1 873e 0025 4dbe
00000200: 9a57 003d 939a d33c c78a 7a3e b254 ee3d
00000210: cb26 e8bd ff79 0b3d 7cf2 91be 21a2 33be
00000220: e3d8 81bb aa00 ee3c 7957 663e 532f 1f3e
00000230: 6727 2bbe b751 543d 0e24 1abe 512e 173e
00000240: 2b34 953d c404 513d 710e a53d ffec 753e
00000250: 3b68 923e 04fb 78be e4fc a2bc df54 aebe
00000260: cb68 e73d 59c7 343e d259 153e 24a6 9e3e
00000270: 446e e23c 1adc fbbc f510 023e 290d 88bd
00000280: 0b54 593e a4eb 2dbe 851f 79be 0fa8 023e
00000290: 2dec 563c 23fe 5fbd 8e9b 133e 83e9 2dbd
000002a0: fd46 babe dd62 1dbe a320 83be 51ca 0a3e
000002b0: d8b7 973e 569a 403e 6394 04be 54dc a33d
000002c0: 154d b33d 93d3 a5bd 1bea e93b 78d7 68be
000002d0: 31c8 c43d 5997 a33e 1d42 2ebd 61f8 8e3e
000002e0: bff8 d23c 8302 05bd e3ee edbd 508f 073c
000002f0: da27 633e f28d 2a3e 34cf 2ebe 217c a53e
00000300: a8eb 983e f189 32be 2ca3 453d d891 c23e
00000310: 29d4 4fbd 5f89 c23c 8a99 d03e 67ae 3d3e
00000320: ef26 d93c 09e6 a43d 7e3d be3e 4242 b6bc
00000330: 4c68 e7bd 5714 af3e 9148 2f3d a3fb 263d
00000340: 9614 153e 1311 723d 36f3 55bd c43e 88be
00000350: 6d46 363e 6cbd d33d fdee 893e 3b71 b7bd
00000360: 325a 4d3e c78a 3abe 7c15 d7bd 9f58 e2bd
00000370: 3786 b83c b616 083c 7753 a73d 6ddb a4bd
00000380: bc91 0a3e b0eb eebd dbaf 9f3d c8a0 9bbe
00000390: f87a 84bd 8b9f 3cbe ae54 11be 3740 283e
000003a0: a55b 773d 8bb4 1d3e 0161 8bbe 290c 21bd
000003b0: 8fb3 e83e b2d6 c0bd 0344 fdbd c74c d0be
000003c0: 0800 403e d235 2c3d 6cac cb3d 27b5 0ebe
000003d0: ce3c 393e 4314 a7bd 9f87 ee3d 47a0 863e
000003e0: 30da f53e 2f62 a1be 967a 663e 8c46 fc3b
000003f0: 747f 583e 2031 e9bd ca5a 86be 0456 3b3e

bn1.running_var f4 [256]
0.20405915 0.26120117 0.3425857 0.27410978 0.15476035 0.35841733 0.17549057 0.23776619
0.227371 0.27013817 0.27926195 0.19978963 0.18689157 0.27893117 0.23493007 0.54596835
0.1638043 0.34928647 0.17081891 0.22609952 0.32187617 0.22503787 0.25350538 0.23596686
0.3182634 0.25218073 0.23080333 0.2273269 0.20836738 0.2122051 0.2790739 0.3786684
0.2949222 0.24000022 0.35831794 0.235616 0.257229 0.29338324 0.23529667 0.36540714
0.4038218 0.19882962 0.3425906 0.20788419 0.27884388 0.43609732 0.19997244 0.6370491
0.2264448 0.29844427 0.25240445 0.2680348 0.1683533 0.35695368 0.30378556 0.34314016
0.29620978 0.3535595 0.14310385 0.4235357 0.22682798 0.2659416 0.27165803 0.23775357
0.26904708 0.48210752 0.35508123 0.29987204 0.44124767 0.19005182 0.261561 0.25185248
0.28855675 0.23677054 0.30882517 0.19414471 0.24474083 0.3616998 0.31508854 0.27521372
0.1938221 0.33698314 0.22825 0.21822701 0.21547072 0.20584933 0.33267152 0.48211494
0.3832834 0.23406881 0.17766044 0.5169102 0.44043434 0.19636963 0.28296226 0.34291548
0.26920703 0.24858046 0.22314702 0.25702158 0.27177534 0.27608857 0.22631712 0.23515764
0.32695088 0.19353211 0.17456247 0.24638152 0.2927879 0.2596325 0.25164565 0.4358692
0.2606162 0.2533011 0.37947726 0.45636618 0.30286658 0.24873543 0.18932153 0.3426885
0.19673756 0.3053885 0.50133497 0.24362223 0.2397334 0.25320458 0.16091076 0.25418985
0.27608797 0.20443657 0.31489518 0.22619057 0.19016683 0.31582245 0.23407798 0.22148937
0.27077064 0.20635602 0.24151786 0.16003373 0.19753645 0.22652689 0.40026802 0.25585806
0.2868797 0.29244536 0.312803 0.25572756 0.2394799 0.27441075 0.3163413 0.29329616
0.18962699 0.31339142 0.36624992 0.17090236 0.25790507 0.39362213 0.22843416 0.34715283
0.15813525 0.354305 0.22364318 0.3230522 0.19084065 0.23796998 0.28608483 0.32160196
0.19812255 0.3590057 0.18365248 0.21519859 0.2089535 0.25094444 0.2606743 0.32679868
0.21807773 0.34071484 0.3505016 0.2839177 0.33904222 0.22123963 0.20569316 0.31484735
0.523286 0.27369812 0.46668714 0.2831135 0.22337535 0.30708218 0.251339 0.22938454
0.2031234 0.124267235 0.39003828 0.26504913 0.40915024 0.23047924 0.21018335 0.2692861
0.23834127 0.256714 0.21294816 0.26323396 0.2137329 0.3234361 0.21474993 0.4267107
0.35492224 0.38089472 0.2916669 0.17055734 0.294679 0.22830734 0.50906104 0.23646098
0.24472408 0.16773047 0.21834022 0.2055065 0.17634198 0.20213977 0.19581026 0.20599298
0.16801028 0.35943595 0.19905351 0.22536033 0.2948917 0.34350166 0.26579127 0.19406955
0.16048093 0.19336566 0.24772193 0.34470594 0.19150689 0.21031785 0.25564402 0.23236091
0.2229217 0.39651364 0.2634517 0.1709764 0.5180468 0.3800578 0.20873177 0.22916383
0.20777424 0.33534446 0.21445437 0.2426672 0.3787041 0.20536536 0.22435689 0.21387304
00000000: e2f4 503e 29bc 853e 6567 af3e 1e58 8c3e
00000010: 7f79 1e3e 7a82 b73e cdb3 333e fb78 733e
00000020: f2d3 683e 8d4f 8a3e 6cfb 8e3e a795 4c3e
00000030: 8160 3f3e 11d0 8e3e 8291 703e 95c4 0b3f
00000040: 50bc 273e add5 b23e 27eb 2e3e a286 673e
00000050: f4cc a43e 5470 663e 75cb 813e 4ca1 713e
00000060: 6cf3 a23e d51d 813e b557 6c3e 62c8 683e
00000070: 425e 553e 4b4c 593e c6e2 8e3e d3e0 c13e
00000080: 0b00 973e 9ec2 753e 7375 b73e 5245 713e
00000090: 85b3 833e 5436 963e 9cf1 703e a516 bb3e
000000a0: bbc1 ce3e fe99 4b3e 0968 af3e 98df 543e
000000b0: a0c4 8e3e 2648 df3e 93c5 4c3e a615 233f
000000c0: 25e1 673e b0cd 983e 283b 813e db3b 893e
000000d0: cf64 2c3e a2c2 b63e c889 9b3e 11b0 af3e
000000e0: cfa8 973e c005 b53e d189 123e acd9 d83e
000000f0: 9845 683e 7f29 883e c316 8b3e ac75 733e
00000100: 8ac0 893e ccd6 f63e 35cd b53e d488 993e
00000110: 37eb e13e f29c 423e 53eb 853e cff2 803e
00000120: b6bd 933e fa73 723e 551e 9e3e dfcd 463e
00000130: 579d 7a3e b730 b93e 4953 a13e d0e8 8c3e
00000140: 4d79 463e 0e89 ac3e 5eba 693e e776 5f3e
00000150: 5ba4 5c3e 2bca 523e ec53 aa3e c5d7 f63e
00000160: b93d c43e bcaf 6f3e 9eec 353e 3a54 043f
00000170: 9c80 e13e 1f15 493e 6ee0 903e 9e92 af3e
00000180: 81d5 893e e08b 7e3e a780 643e 5598 833e
00000190: 2326 8b3e 7b5b 8d3e adbf 673e 2acd 703e
000001a0: 1b66 a73e 482d 463e 81c0 323e 704b 7c3e
000001b0: 4ce8 953e 8dee 843e b3d7 803e 3f2a df3e
000001c0: 7d6f 853e afb0 813e d84a c23e d4a8 e93e
000001d0: 5411 9b3e 80b4 7e3e 81dd 413e de74 af3e
000001e0: 9275 493e e25b 9c3e 7d57 003f 1b78 793e
000001f0: ac7c 753e 08a4 813e cac5 243e 2c25 823e
00000200: 675b 8d3e d257 513e f139 a13e 809e 673e
00000210: 18bb 423e 7bb3 a13e 23b2 6f3e 1cce 623e
00000220: 73a2 8a3e fe4e 533e 7550 773e e2df 233e
00000230: ff46 4a3e aaf6 673e eeef cc3e d4ff 823e
00000240: e5e1 923e 66bb 953e b727 a03e b9ee 823e
00000250: 383a 753e 917f 8c3e 7df7 a13e ea2a 963e
00000260: 942d 423e d774 a03e 1c85 bb3e 0701 2f3e
00000270: 220c 843e d788 c93e a5ea 693e 04be b13e
00000280: 35ee 213e 7767 b53e b802 653e 1967 a53e
00000290: bb6b 433e 67ae 733e b679 923e 03a9 a43e
000002a0: a3e0 4a3e 98cf b73e 650f 3c3e 055d 5c3e
000002b0: e8f7 553e ca7b 803e 1a77 853e 2852 a73e
000002c0: c54f 5f3e 2d72 ae3e f274 b33e a95d 913e
000002d0: f196 ad3e a48c 623e 3aa1 523e ac33 a13e
000002e0: 12f6 053f 2922 8c3e 9ef1 ee3e 41f4 903e
000002f0: 82bc 643e e039 9d3e 81af 803e c8e3 6a3e
00000300: 95ff 4f3e d27f fe3d 19b3 c73e 85b4 873e
00000310: 247c d13e c002 6c3e 4e3a 573e dedf 893e
00000320: bc0f 743e 0470 833e 150f 5a3e 9ac6 863e
00000330: ccdc 5a3e 6b99 a53e 68e7 5b3e d379 da3e
00000340: 5eb8 b53e a204 c33e 5d55 953e 95a6 2e3e
00000350: 2ae0 963e 66c9 693e d351 023f d422 723e
00000360: f398 7a3e 89c1 2b3e 9494 5f3e 4c70 523e
00000370: fe92 343e bafd 4e3e 7c82 483e d3ef 523e
00000380: e30a 2c3e fd07 b83e afd4 4b3e dcc4 663e
00000390: 0bfc 963e 73df af3e cb15 883e 2bba 463e
000003a0: 1d55 243e a601 463e d1aa 7d3e 4c7d b03e
000003b0: 621a 443e 905d 573e c6e3 823e 05f0 6d3e
000003c0: 9645 643e d603 cb3e 24e3 863e 7014 2f3e
000003d0: b79e 043f f096 c23e c8bd 553e eca9 6a3e
000003e0: c5c2 543e 45b2 ab3e ed99 5b3e c07d 783e
000003f0: 81e5 c13e 4c4b 523e d0bd 653e 8901 5b3e
