Models/lol_model_best.pth (torch, 902111 bytes, 24 tensors)

champ_embedding.weight f4 [1000, 32]
-0.8830965 0.93812495 0.34262207 -1.309016 -0.6189317 -0.5275489 -0.0013495235 0.10724815
-0.5595777 1.7244519 4.9835515e-05 -0.9328283 0.059607193 -0.008237979 0.33695903 0.78972137
0.026468268 0.72274935 -0.185449 0.5236769 7.173349e-22 -0.011605194 0.044822577 -1.1488539
-0.008969611 -0.06688315 0.12715326 -0.6631009 -0.19965298 -0.08101214 0.08461509 -0.022842472
-0.1803172 -0.06343842 0.7432748 -0.108387 0.019403761 0.08490572 -0.18431284 0.36767128
0.01396647 1.5558251 -0.2469508 0.4229227 -1.3820997 -0.10602508 1.6110246 1.4277718
-0.05646554 -0.005107257 0.0048899846 1.6428621 -0.011348042 -0.105400585 -0.12230681 -0.03814831
0.57542723 -0.05783874 -0.08105656 0.22311558 -0.019978877 0.0052946527 0.29289052 -0.049636986
-0.052688003 -0.90970385 0.029929291 -0.058381733 -0.8824012 -0.38955405 -0.15529223 0.036860533
-0.07254299 1.2159204 0.04379709 -0.9385506 -0.27003238 -0.1417983 -0.03486913 0.41744235
0.06096624 -0.02854715 -0.014748722 0.4461939 -0.11598538 -0.05238301 1.3846558 0.09000649
-0.23780024 -0.025816178 -0.060721654 -0.07542005 0.2744909 -0.016618632 0.34582922 0.016982535
-1.1143444 0.804778 -0.2927317 -1.3009396 -1.2467681 -0.14455718 -0.23490058 -0.080222264
0.20849219 -0.16239566 0.0367502 -1.0037575 1.2359995 -0.024327703 -0.49583897 1.0290271
0.035128374 0.09016409 -0.2711144 0.03924606 -0.0635368 -0.16602328 -1.4584 0.54123014
-0.41298428 0.051464908 -0.9603627 1.0998871 -0.95665485 0.98654145 -0.37144148 0.9576019
-0.39531878 0.044893984 0.13592206 0.019103944 0.22670682 0.0814323 -0.8711688 -1.4293159
-0.03145738 0.7189362 0.41547072 1.2116331 -0.49099806 -1.0615469 0.14989154 0.05387944
-0.096634984 -0.40214422 1.8619086 0.0168069 0.24948084 0.93258446 -0.36359087 0.26313296
0.44444284 -0.07645982 1.0620826 -0.8544227 1.1924618 0.52283996 -0.7671921 -0.09115154
0.1654767 1.1274351 -0.71369094 0.04638187 -0.054680288 0.43212074 1.1748954 -0.35071447
-0.02122761 -0.33841112 0.280819 -0.00051811786 -0.7635016 -0.522991 -0.35638693 0.75663674
-2.1694431 0.088280775 -0.027597614 1.019812 -0.062021073 -0.7047774 -0.037559353 0.10815263
-0.25840348 1.4016212 -0.645292 0.9095299 0.25796694 0.19394073 0.12549531 0.21217191
0.04098639 -0.06861054 -0.8972856 -0.23919111 -0.49544585 0.052655928 1.4423317 0.39223665
-0.09765338 0.034312397 0.25111565 -0.2576856 0.102792695 -0.5349267 -0.029053474 -0.02188319
0.025099756 0.23656149 0.05145448 1.3916304 -0.018968096 -1.8055879 -0.12883183 0.08128563
-1.3628159 -1.2269037 -0.5434731 0.04924189 0.1334333 0.20420568 0.10086109 0.34466708
-0.18365364 0.6227245 0.17379525 0.407377 -0.17727378 0.03941325 -0.03000677 0.3721094
-1.0014534 -0.08340426 -0.070444 0.3781727 0.4381378 -0.5039982 0.13813646 -0.65779054
-0.1092455 -0.45935073 -1.2762552 -0.03236274 0.9232209 -0.07399262 0.14760636 0.03356504
0.026930058 -0.1985178 0.11341788 -0.09628683 -0.3734177 0.4349794 -0.13325353 -0.6883865
00000000: 9d12 62bf f528 703f 296c af3e d68d a7bf
00000010: 4f72 1ebf 720d 07bf 7fe2 b0ba eba4 db3d
00000020: 7c40 0fbf d7ba dc3f 7a06 5138 d6cd 6ebf
00000030: ac26 743d 97f8 06bc e585 ac3e 2e2b 4a3f
00000040: fbd3 d83c 1a06 393f 58e6 3dbe b00f 063f
00000050: 1acd 581c b623 3ebc e197 373d a50d 93bf
00000060: 46f5 12bc 08fa 88bd 7734 023e fbc0 29bf
00000070: d571 4cbe b1e9 a5bd ad4a ad3d 2320 bbbc
00000080: 12a5 38be 01ec 81bd 4247 3e3f 01fa ddbd
00000090: a3f4 9e3c 0de3 ad3d 81bc 3cbe 693f bc3e
000000a0: 9fd3 643c 4725 c73f ace0 7cbe 5389 d83e
000000b0: a5e8 b0bf ad23 d9bd 0e36 ce3f 3ac1 b63f
000000c0: 6948 67bd c75a a7bb 2a3c a03b 4e49 d23f
000000d0: 23ed 39bc 43dc d7bd fe7b fabd 6741 1cbd
000000e0: 334f 133f 51e8 6cbd fb00 a6bd 6978 643e
000000f0: beaa a3bc c47e ad3b bff5 953e 2750 4bbd
00000100: 60cf 57bd 5ae2 68bf 462e f53c af21 6fbd
00000110: 0ce5 61bf a173 c7be ed04 1fbe 12fb 163d
00000120: 6b91 94bd 48a3 9b3f 9464 333d da44 70bf
00000130: af41 8abe 9333 11be efd2 0ebd 01bb d53e
00000140: bcb7 793d b6db e9bc a0a4 71bc 8773 e43e
00000150: be89 edbd 918f 56bd 673c b13f 5355 b83d
00000160: e881 73be 737c d3bc 45b7 78bd d475 9abd
00000170: 128a 8c3e cc23 88bc 8710 b13e f51e 8b3c
00000180: d6a2 8ebf ee05 4e3f eee0 95be 3085 a6bf
00000190: 1996 9fbf cc06 14be c789 70be 924b a4bd
000001a0: fa7e 553e 0c4b 26be 6187 163d 207b 80bf
000001b0: 3b35 9e3f e44a c7bc 9bde fdbe 29b7 833f
000001c0: c5e2 0f3d f3a7 b83d 82cf 8abe 7ac0 203d
000001d0: 951f 82bd 0202 2abe daac babf 0f8e 0a3f
000001e0: ad72 d3be decc 523d 54da 75bf 1ac9 8c3f
000001f0: 55e7 74bf fb8d 7c3f 942d bebe 6625 753f
00000200: 3967 cabe c1e2 373d 272f 0b3e e07f 9c3c
00000210: d525 683e fac5 a63d eb04 5fbf d3f3 b6bf
00000220: 74d9 00bd 340c 383f 94b8 d43e cb16 9b3f
00000230: 1964 fbbe c5e0 87bf 2b7d 193e b0b0 5c3d
00000240: 90e8 c5bd d9e5 cdbe 0553 ee3f a0ae 893c
00000250: e877 7f3e dbbd 6e3f 9528 babe 5db9 863e
00000260: 038e e33e f796 9cbd 53f2 873f 72bb 5abf
00000270: 97a2 983f d7d8 053f b466 44bf a9ad babd
00000280: b972 293e cb4f 903f 73b4 36bf eafa 3d3d
00000290: 70f8 5fbd ee3e dd3e f962 963f d990 b3be
000002a0: 86e5 adbc 3944 adbe 82c7 8f3e 4dd2 07ba
000002b0: d774 43bf bde2 05bf 5978 b6be f2b2 413f
000002c0: 28d8 0ac0 8dcc b43d 6414 e2bc 3389 823f
000002d0: cf09 7ebd 4b6c 34bf d6d7 19bd 207f dd3d
000002e0: 764d 84be 5368 b33f db31 25bf f4d6 683f
000002f0: 3e14 843e 6698 463e d881 003e 9843 593e
00000300: 58e1 273d af83 8cbd 82b4 65bf 84ee 74be
00000310: 14ab fdbe bead 573d 539e b83f 3ed3 c83e
00000320: 7ffe c7bd 288b 0c3d 3b92 803e 5eef 83be
00000330: fa84 d23d f5f0 08bf 8d01 eebc 6044 b3bc
00000340: 019e cd3c 2d3d 723e efc1 523d f220 b23f
00000350: fb62 9bbc 811d e7bf 7eec 03be 1579 a63d
00000360: c070 aebf 2e0b 9dbf 0e21 0bbf ddb1 493d
00000370: bda2 083e 4b1b 513e 4290 ce3d 3478 b03e
00000380: b30f 3cbe df6a 1f3f 62f7 313e b893 d03e
00000390: 4287 35be ca6f 213d c2d0 f5bc 2085 be3e
000003a0: a02f 80bf dacf aabd f244 90bd da9f c13e
000003b0: 9953 e03e 0706 01bf a573 0d3e f664 28bf
000003c0: 1bbc dfbd 0530 ebbe 555c a3bf cb8e 04bd
000003d0: 3458 6c3f 7189 97bd 1f26 173e 7f7b 093d
000003e0: 6d9c dc3c 4048 4bbe a247 e83d 0832 c5bd
000003f0: 9b30 bfbe 9fb5 de3e 9d73 08be 193a 30bf

role_embedding.weight f4 [5, 8]
-1.8887944 -0.52635217 -1.0258803 -0.32486597 0.26533556 1.108139 0.992758 -0.3217162
-0.33070898 0.4171091 -0.3177984 0.1831163 -0.77525103 0.26385534 0.49691465 2.55711
-0.29690304 0.026937537 0.42199042 0.054151453 0.0062989243 0.026171263 0.5564778 0.45270735
-0.14205244 0.4116167 -1.7450284 -0.36948234 0.22414139 1.2435874 -0.13218364 1.667807
0.5132951 -1.3002105 0.35536367 -0.23743457 0.22895594 0.82080084 0.6813181 0.6362197
00000000: 04c4 f1bf 04bf 06bf 0c50 83bf d554 a6be
00000010: 10da 873e 80d7 8d3f 6325 7e3f fcb7 a4be
00000020: b052 a9be 538f d53e 79b6 a2be d782 3b3e
00000030: da76 46bf 0c18 873e 996b fe3e b1a7 2340
00000040: ad03 98be 1cac dc3c 210f d83e eacd 5d3d
00000050: 3567 ce3b 1e65 d63c 5475 0e3f 42c9 e73e
00000060: 3276 11be 6dbf d23e 175d dfbf ca2c bdbe
00000070: 5285 653e df2d 9f3f 265b 07be b37a d53f
00000080: 4f67 033f 4c6d a6bf 3af2 b53e 0c22 73be
00000090: 6d73 6a3e 0120 523f dd6a 2e3f 4bdf 223f

fc1.weight f4 [256, 341]
-0.048068337 -0.027030328 -0.023880132 0.05479896 0.028008452 0.05229353 0.027949715 0.00843377
-0.0033319984 0.033315647 0.018056583 -0.005232671 -0.038178515 -0.011054303 0.031867243 -0.039674748
0.001495632 -0.02904308 -0.022615883 0.037073918 0.05233181 -0.043875914 -0.018212637 0.014242613
0.0070323683 -0.013330578 0.03925456 0.052364167 -0.045388803 0.014715287 -0.012472641 -0.023186544
-0.041349124 -0.042016074 -0.014785408 0.0431073 0.04143931 0.024452409 0.0058453064 0.003817186
-0.020569988 -0.022273416 -0.042387515 -0.002661725 -0.03009763 0.033356234 0.023987625 -0.007780337
0.041193854 0.032430843 0.00051332836 0.0046466514 -0.021787046 0.025985109 0.011858945 0.029027471
-0.018367045 -0.0029460294 0.037429605 -0.0004481814 0.014135925 -0.015432352 0.02749555 0.01706028
0.015862279 -0.031933233 0.048796415 -0.0070560398 0.035227638 0.032145735 0.067955896 0.01744013
-0.03941858 0.036371496 -0.0007051827 -0.04814316 -0.045852266 -0.028386312 -0.05822452 0.018393138
-0.001262174 -0.05255219 0.0006673957 0.039131805 -0.021785926 -0.019955702 -0.061016243 -0.035855953
-0.041880395 -0.017437924 0.05453927 0.0625963 -0.045372065 -0.037869606 -0.012943528 0.017901668
0.00923791 0.015352255 -0.009714661 0.012466891 0.033391137 0.016422765 -0.012284001 0.004615903
-0.0339701 0.04225591 -0.013486866 0.00030331712 -0.018486593 -0.03611622 0.023355296 -0.0081192665
0.027407551 0.032951783 0.034537703 -0.04609272 0.0013301893 -0.020890629 0.008487256 -0.0014456328
0.0019909204 -0.03257 -0.013150148 -0.050174527 -0.0005025284 0.021131154 -0.01034158 0.0052104997
-0.018955434 -0.018174576 -0.039701875 0.016914308 0.0459134 -0.011880779 0.06271798 -0.027617011
-0.026158258 0.009830446 -0.020746294 -0.029217308 -0.017074 -0.01790141 0.029249927 -0.018539771
0.039947305 0.012404023 0.019552192 -0.034636404 0.008542525 0.012324655 -0.013414689 0.03955143
0.006605768 -0.0078007854 0.018212749 -0.0218318 -0.014508022 -0.0012272929 0.04857186 0.055166494
-0.0296079 0.001263264 0.012666708 0.008516091 -0.018549563 -0.017439308 -0.03677742 -0.029070316
0.009403677 0.033797674 0.031077027 0.050839074 -0.021175848 0.018778248 0.008041826 0.04472274
0.023266071 -0.019724004 0.07273612 0.032197088 -0.0018220189 0.0020477886 0.0065847645 -0.008161267
-0.026438117 0.012566256 0.030590698 0.03048415 -0.0012879922 0.01085158 0.04407367 0.030746588
0.0003811247 -0.03012731 0.0061865654 0.0039780526 -0.022482855 0.03389965 0.0067493296 0.024067737
0.025412273 -0.06878859 -0.013219168 0.0057102167 -0.009303066 0.014384975 -0.03873847 -0.010897471
-0.03741731 0.02399452 0.0030720052 0.004039339 -0.0035501134 0.00235328 0.026779372 -0.018523188
0.020147419 0.016799282 0.027114775 -0.05274813 -0.047314007 -0.008610439 0.033006515 -0.014421179
-0.006460473 -0.04250681 0.034108724 -0.005824973 -0.018157925 0.020007482 0.026663536 0.028268602
-0.053780172 -0.0003827825 -0.021618847 0.0105227 0.04911881 -0.009938136 -0.016733672 -0.030409576
0.019925367 -0.056828137 -0.024348123 -0.025655298 -0.019422738 0.023445548 0.0148456795 -0.029954547
0.008388388 0.015806986 0.022104472 -0.025148839 -0.032648608 0.022227533 -0.004456128 0.0018667069
00000000: 4ee3 44bd b56e ddbc 44a0 c3bc e074 603d
00000010: fb71 e53c be31 563d cdf6 e43c cc2d 0a3c
00000020: a85d 5abb fd75 083d 66eb 933c d376 abbb
00000030: 1361 1cbd 1b1d 35bc 3a87 023d fd81 22bd
00000040: 1509 c43a c1eb edbc f244 b9bc d2da 173d
00000050: e159 563d 3bb7 33bd ab32 95bc d959 693c
00000060: c86f e63b 7f68 5abc 64c9 203d cf7b 563d
00000070: 9ce9 39bd 6318 713c 0c5a 4cbc b5f1 bdbc
00000080: b35d 29bd 0c19 2cbd 7f3e 72bc 4891 303d
00000090: 44bc 293d 6b50 c83c fc89 bf3b c129 7a3b
000000a0: 6482 a8bc bd76 b6bc 889e 2dbd 5670 2ebb
000000b0: 4e8f f6bc 8ca0 083d b281 c43c 32f2 febb
000000c0: e3ba 283d 34d6 043d e290 063a f042 983b
000000d0: bf7a b2bc b9de d43c 054c 423c 05cb ed3c
000000e0: 7c76 96bc 2c12 41bb c94f 193d e4f9 eab9
000000f0: 5e9a 673c fad7 7cbc 593e e13c 00c2 8b3c
00000100: 9cf1 813c 6ccc 02bd c0de 473d 5a36 e7bb
00000110: db4a 103d 3fab 033d 762c 8b3d 9ade 8e3c
00000120: 6075 21bd 47fa 143d 03dc 38ba c331 45bd
00000130: 96cf 3bbd 698a e8bc d67c 6ebd 35ad 963c
00000140: 886f a5ba f740 57bd 2bf4 2e3a ac48 203d
00000150: 6678 b2bc 247a a3bc 2bec 79bd b1dd 12bd
00000160: c78a 2bbd fad9 8ebc 9264 5f3d 7d32 803d
00000170: 0fd8 39bd 291d 1bbd 1711 54bc 85a6 923c
00000180: 9a5a 173c 0688 7b3c 3e2a 1fbc ee41 4c3c
00000190: 25c5 083d 0989 863c d642 49bc 0041 973b
000001a0: 3b24 0bbd 8814 2d3d 04f8 5cbc 8906 9f39
000001b0: 3271 97bc 9aee 13bd 9b53 bf3c ac06 05bc
000001c0: cd85 e03c 73f8 063d 6877 0d3d b8cb 3cbd
000001d0: bf59 ae3a d322 abbc 220e 0b3c 637b bdba
000001e0: 1a7a 023b 1f68 05bd b873 57bc ce83 4dbd
000001f0: 1cbc 03ba 3e1b ad3c bb6f 29bc d7bc aa3b
00000200: 6d48 9bbc d9e2 94bc 6f9e 22bd e08f 8a3c
00000210: b00f 3c3d 99a7 42bc 4972 803d 123d e2bc
00000220: d849 d6bc e10f 213c 22f4 a9bc 2359 efbc
00000230: c6de 8bbc faa5 92bc 8b9d ef3c b8e0 97bc
00000240: c99f 233d 3e3a 4b3c eb2b a03c e7de 0dbd
00000250: f2f5 0b3c 5aed 493c 49c9 5bbc ae00 223d
00000260: 3375 d83b bb9d ffbb e732 953c 9ad8 b2bc
00000270: 0eb3 6dbc 1edd a0ba 49f3 463d 43f6 613d
00000280: 448c f2bc 1b94 a53a 0688 4f3c 1387 0b3c
00000290: 41f5 97bc e1dc 8ebc eca3 16bd df24 eebc
000002a0: e111 1a3c 6e6f 0a3d 4095 fe3c a23c 503d
000002b0: f978 adbc d7d4 993c ddc1 033c 312f 373d
000002c0: 7d98 be3c 3c94 a1bc adf6 943d 18e1 033d
000002d0: cfd0 eeba 3134 063b 02c5 d73b d6b6 05bc
000002e0: c094 d8bc b3e2 4d3c 5899 fa3c e5b9 f93c
000002f0: d9d1 a8ba d3ca 313c 9886 343d 45e0 fb3c
00000300: b1d1 c739 8ccd f6bc acb8 ca3b 535a 823b
00000310: f72d b8bc 5cda 0a3d 7b29 dd3b b429 c53c
00000320: 662d d03c 08e1 8cbd 3695 58bc c51c bb3b
00000330: e36b 18bc f5ae 6b3c 3bac 1ebd 4e8b 32bc
00000340: e542 19bd 2890 c43c b253 493b 6e5c 843b
00000350: 05a9 68bb 7d39 1a3b 6a60 db3c f1bd 97bc
00000360: 330c a53c a69e 893c ce1f de3c 6c0e 58bd
00000370: 55cc 41bd cc12 0dbc d731 073d cf46 6cbc
00000380: 60b2 d3bb 9f1b 2ebd 97b5 0b3d 6adf bebb
00000390: eebf 94bc bbe6 a33c 7d6d da3c 8e93 e73c
000003a0: 9948 5cbd 33b0 c8b9 021a b1bc 6767 2c3c
000003b0: ce30 493d 90d3 22bc 0e15 89bc 811d f9bc
000003c0: 863a a33c 9fc4 68bd b775 c7bc 0f2b d2bc
000003d0: 6f1c 9fbc e110 c03c 4b3b 733c 3d63 f5bc
000003e0: 736f 093c a77d 813c 7014 b53c f004 cebc
000003f0: 8cba 05bd 8416 b63c b604 92bb 4aac f43a

fc1.bias f4 [256]
1.1959679e-07 -6.950283e-08 -7.297042e-08 -3.461175e-08 9.6691814e-08 1.15457496e-07 5.4615494e-08 3.9555758e-07
1.503067e-07 3.610926e-07 -4.184483e-07 9.82403e-08 1.8218208e-06 -7.0279754e-08 7.2691995e-09 2.4150456e-08
-2.7109446e-09 -2.0396307e-07 -2.1136768e-07 1.9682561e-08 -7.365143e-07 7.0129865e-08 3.0478648e-07 9.395723e-08
-6.5767374e-08 6.628821e-07 4.4467419e-07 -4.5822975e-07 2.7039556e-08 2.1572273e-08 2.2745213e-07 -2.3777778e-07
5.954211e-07 -8.1869274e-08 8.423652e-08 -3.0635707e-08 -7.0056615e-07 9.71336e-07 -3.4958386e-08 -2.2770575e-07
-5.4221914e-08 4.116915e-07 3.858137e-08 1.6370116e-07 -9.72223e-08 -5.2338214e-07 3.4149568e-07 6.049508e-07
-8.6503527e-10 1.0620695e-07 2.1328619e-07 1.7025593e-07 1.2001375e-07 -2.4412768e-07 -4.534007e-08 4.2552872e-09
-8.2924636e-08 2.918517e-08 -5.5672583e-08 4.7883617e-07 6.6022426e-07 1.6622387e-07 2.7807116e-06 1.4582466e-07
-3.9008987e-07 3.8906048e-08 2.3409673e-07 -1.1384028e-08 4.1579653e-07 1.2893065e-06 2.3963125e-07 -1.15863145e-07
-6.249743e-08 3.9042575e-08 -8.617594e-09 1.5577751e-07 1.80845e-07 7.8266345e-07 -5.713546e-07 -2.6509008e-07
1.3345146e-07 8.884217e-09 5.3701603e-09 -1.8775055e-09 1.061733e-07 -1.9755012e-07 -1.16719484e-07 -4.0298224e-07
-2.925386e-07 1.0728905e-06 -5.819414e-08 -3.3922143e-07 -3.952138e-09 -3.939999e-07 -3.364427e-07 6.0796474e-08
5.427214e-08 1.6521609e-09 1.6580049e-07 -3.928603e-08 -1.7225455e-08 -5.5247295e-08 -2.948435e-08 4.2712958e-07
9.981115e-09 4.0688968e-07 1.1158151e-07 -5.420738e-08 3.8544786e-07 -7.622302e-07 1.8874303e-07 -1.3708798e-07
5.6202893e-08 -3.521452e-07 -1.9755448e-07 -1.3746039e-07 -9.9343374e-08 -3.2767182e-09 6.7832246e-07 2.1446881e-07
-7.559641e-08 -1.3146558e-07 -3.6144794e-08 -3.373841e-08 -8.570417e-07 6.921105e-07 -3.285873e-08 1.57532e-07
2.2750338e-07 6.8257975e-07 7.699943e-08 2.3217132e-07 -6.3978075e-07 3.1484873e-07 5.4038427e-08 1.2573784e-07
2.9383207e-07 4.4203443e-07 -2.7901874e-07 -1.1116053e-06 1.869522e-08 8.577352e-07 1.4057738e-07 -8.5883286e-08
3.6864904e-08 3.9390525e-07 2.3281197e-07 -5.0969356e-07 9.148594e-07 4.4332724e-09 -3.8336307e-08 2.5155995e-07
-1.271786e-07 2.760685e-07 1.9049352e-07 1.1367601e-08 -6.2998744e-08 3.6185106e-08 1.2727656e-07 2.708674e-07
2.004733e-07 2.2042339e-07 4.0995832e-07 1.631539e-07 -7.3300875e-08 -3.0426068e-07 9.582841e-07 1.1617786e-07
2.2925333e-07 -1.6063586e-07 2.5643208e-08 -1.0531943e-07 -1.596714e-07 1.5760533e-06 1.6050316e-07 9.1695966e-07
-3.1696257e-07 2.728987e-07 -2.1521873e-07 1.0279507e-06 -1.6442037e-07 1.0013655e-06 1.5652503e-07 -9.762647e-08
1.8169196e-08 -1.1391069e-07 5.758931e-07 -7.927166e-07 -3.7074763e-08 1.0890781e-06 9.3712245e-08 9.4195876e-08
1.02972436e-07 -1.5015016e-07 6.0635756e-08 3.4930721e-07 -2.4671778e-07 -2.0059248e-07 -6.066281e-08 9.181869e-07
-7.514916e-08 1.8021095e-07 5.820992e-07 9.524676e-08 -1.0921121e-07 1.225741e-08 -3.6448606e-07 1.07450894e-07
2.4865435e-07 3.849242e-07 3.1808717e-08 3.0177299e-07 1.6999692e-07 -1.4202746e-07 3.629415e-07 -9.077218e-08
-2.0601823e-07 -3.0648047e-07 1.0133712e-08 7.1304065e-08 4.6480714e-08 -1.4592494e-08 -4.3642572e-08 5.941261e-07
-3.7573315e-07 1.0290248e-07 -2.8754439e-09 -4.3946645e-07 4.6848834e-07 7.5193455e-08 -3.0701074e-08 -4.663041e-08
-7.120497e-08 -3.6349758e-07 -1.3579589e-07 -2.5956595e-07 -9.389644e-08 -6.448515e-07 -1.2882471e-07 1.6235658e-06
1.3049794e-07 -1.0449301e-06 -2.907414e-08 -7.937366e-08 9.460962e-08 -4.2235266e-07 6.165768e-08 -6.2288334e-09
1.1352024e-07 -1.880542e-07 -1.934426e-07 -7.3227386e-07 -3.7061955e-07 2.9554286e-07 -4.683232e-08 -1.5230907e-07
00000000: 846a 0034 9641 95b3 eab3 9cb3 06a8 14b3
00000010: e3a4 cf33 6ef1 f733 5f92 6a33 055d d434
00000020: fe63 2134 30dc c134 19a7 e0b4 2df8 d233
00000030: 4985 f435 b4ec 96b3 8ec4 f931 6a73 cf32
00000040: 714b 3ab1 f100 5bb4 4ef4 62b4 6912 a932
00000050: e1b4 45b5 4d9a 9633 89a1 a334 89c5 c933
00000060: ff3b 8db3 e9f0 3135 8ebb ee34 9e02 f6b4
00000070: 9d44 e832 ee4d b932 9139 7434 dc4f 7fb4
00000080: 07d5 1f35 1cd0 afb3 84e5 b433 5194 03b3
00000090: 8a0e 3cb5 da5e 8235 2725 16b3 487f 74b4
000000a0: a0e1 68b3 7306 dd34 aab4 2533 d5c5 2f34
000000b0: 86c8 d0b3 8c7e 0cb5 cf56 b734 e763 2235
000000c0: 72c7 6db0 e313 e433 a903 6534 98cf 3634
000000d0: 21dd 0034 a710 83b4 efbb 42b3 e735 9231
000000e0: 4d14 b2b3 deb2 fa32 a71c 6fb3 5f89 0035
000000f0: 443a 3135 457b 3234 439c 3a36 fa93 1c34
00000100: 8b6d d1b4 a719 2733 055c 7b34 7c93 43b2
00000110: a43a df34 3c0c ad35 aba6 8034 70d0 f8b3
00000120: 5336 86b3 c4af 2733 940c 14b2 cc43 2734
00000130: 4c2e 4234 3918 5235 305f 19b5 b451 8eb4
00000140: dc4a 0f34 33a1 1832 6e84 b831 6d05 01b1
00000150: 6401 e433 2a1e 54b4 37a7 fab3 7559 d8b4
00000160: 330e 9db4 3d00 9035 22f1 79b3 3d1e b6b4
00000170: 60cb 87b1 ef86 d3b4 55a0 b4b4 378f 8233
00000180: d918 6933 3e12 e330 e406 3234 72bb 28b3
00000190: 2df7 93b2 0b49 6db3 c544 fdb2 3e50 e534
000001a0: 6879 2b32 7e72 da34 959e ef33 a5d1 68b3
000001b0: 8def ce34 0f9c 4cb5 4aa9 4a34 7532 13b4
000001c0: bc63 7133 780e bdb4 5d1f 54b4 d398 13b4
000001d0: 9956 d5b3 a32c 61b1 f715 3635 bd48 6634
000001e0: 9157 a2b3 fc28 0db4 9f3d 1bb3 c6e7 10b3
000001f0: 750f 66b5 79c9 3935 8e20 0db3 1126 2934
00000200: a747 7434 863a 3735 e25a a533 c44a 7934
00000210: 66bd 2bb5 7b08 a934 e117 6833 8e02 0734
00000220: f9bf 9d34 c050 ed34 0bcc 95b4 7832 95b5
00000230: 3997 a032 1d3f 6635 9ef1 1634 d66e b8b3
00000240: 6455 1e33 ed79 d334 defa 7934 e0d1 08b5
00000250: a994 7535 7a53 9831 37a7 24b3 230e 8734
00000260: 968e 08b4 9136 9434 768a 4c34 3d4b 4332
00000270: ed49 87b3 f269 1b33 84a9 0834 bb6b 9134
00000280: ae41 5734 85ad 6c34 3e18 dc34 672f 2f34
00000290: 9569 9db3 4559 a3b4 649e 8035 747d f933
000002a0: ad28 7634 407b 2cb4 0346 dc32 f82b e2b3
000002b0: 2472 2bb4 c788 d335 c656 2c34 fd24 7635
000002c0: 012b aab4 e982 9234 e016 67b4 1ef8 8935
000002d0: 878b 30b4 a866 8635 4611 2834 b8a6 d1b3
000002e0: 7c12 9c32 109f f4b3 1397 1a35 12cb 54b5
000002f0: 223c 1fb3 702c 9235 da3e c933 bb48 ca33
00000300: b221 dd33 f638 21b4 dc36 8233 6b88 bb34
00000310: a274 84b4 7162 57b4 bc45 82b3 5379 7635
00000320: b061 a1b3 0280 4134 8d41 1c35 768a cc33
00000330: 7f87 eab3 a994 5232 95ae c3b4 c1bf e633
00000340: cb7e 8534 94a7 ce34 0e9e 0833 5d03 a234
00000350: 6688 3634 3680 18b4 4dda c234 89ee c2b3
00000360: dc35 5db4 5b8a a4b4 8918 2e32 d31f 9933
00000370: 16a2 4733 78b2 7ab2 8471 3bb3 097c 1f35
00000380: 5fb8 c9b4 3dfb dc33 5899 45b1 cfef ebb4
00000390: 8c84 fb34 0a7a a133 30dc 03b3 ae46 48b3
000003a0: 59e9 98b3 ba26 c3b4 4acf 11b4 795a 8bb4
000003b0: 1da4 c9b3 dc19 2db5 1153 0ab4 4ce9 d935
000003c0: 001f 0c34 863f 8cb5 b6be f9b2 2274 aab3
000003d0: 302c cb33 b5bf e2b4 ab68 8433 6605 d6b1
000003e0: 69c8 f333 f2eb 49b4 19b5 4fb4 7a91 44b5
000003f0: 90f9 c6b4 1aab 9e34 ae24 49b3 668a 23b4

bn1.weight f4 [256]
0.75469553 0.868244 0.86032665 0.716611 0.8726029 0.7580901 0.87714887 0.837341
0.89530385 0.7811188 0.8847458 0.753095 0.84589094 0.7683178 0.78088295 0.8285733
0.7632881 0.8822542 0.8364669 0.7171258 0.8593737 0.80257213 0.7945697 0.82501173
0.8198471 0.870393 0.84242064 0.8959684 0.80458367 0.77286005 0.76982397 0.8699011
0.82705295 0.7441743 0.7583644 0.7432447 0.8981381 0.82749724 0.83209056 0.8004454
0.7410903 0.84543073 0.8271444 0.79410744 0.9009539 0.7763146 0.80115163 0.85945183
0.75860393 0.81320363 0.8566238 0.8066128 0.86721903 0.82432866 0.8739062 0.7262647
0.84718055 0.7843713 0.83016646 0.8261326 0.8437473 0.7742978 0.89642465 0.85469425
0.7610499 0.821552 0.7846901 0.8571108 0.84835935 0.88387406 0.7998418 0.8148249
0.750908 0.76505333 0.7816875 0.8663529 0.7795526 0.7990357 0.8153467 0.887509
0.79197955 0.7574913 0.85497624 0.8123319 0.7748783 0.816653 0.7877267 0.8010732
0.8210848 0.81060314 0.7507648 0.8134368 0.79579973 0.78550774 0.8251681 0.8221362
0.78230864 0.78197646 0.80858916 0.8301909 0.8650272 0.73869294 0.8305673 0.86548764
0.7478933 0.7992504 0.741616 0.8111792 0.8371027 0.865846 0.8379527 0.8137809
0.86931884 0.8029376 0.7886401 0.7770857 0.74756104 0.8545938 0.75274366 0.8253128
0.83073 0.7768632 0.719543 0.79724205 0.8098156 0.81906396 0.78739524 0.7703196
0.75811255 0.8418306 0.82332504 0.8622 0.8385954 0.85967726 0.76477 0.784599
0.7862862 0.78720987 0.82882816 0.81371725 0.8007891 0.8586299 0.80722415 0.82643485
0.8085932 0.8302649 0.8070166 0.803973 0.7890349 0.76311487 0.76761985 0.75505996
0.7746215 0.83446074 0.72611296 0.83259976 0.8133263 0.80008787 0.8424192 0.76114416
0.73081666 0.76235336 0.80399525 0.7619471 0.7929532 0.9221947 0.84073615 0.77452374
0.8476422 0.7348668 0.7879858 0.7942031 0.77887416 0.8195372 0.77763593 0.87874687
0.818518 0.8811066 0.78793675 0.8596263 0.815931 0.8709908 0.760723 0.91198146
0.8454794 0.79493 0.8319373 0.8829574 0.723962 0.82601994 0.83221805 0.8254583
0.8459193 0.75384897 0.831973 0.7518738 0.8533804 0.814538 0.74551374 0.85463315
0.75244063 0.7650192 0.75115895 0.81479466 0.7561313 0.8030307 0.8423458 0.7743282
0.7375263 0.85491323 0.81669515 0.8192042 0.7342578 0.8304188 0.8688212 0.8587212
0.8410413 0.82651997 0.773706 0.8356814 0.7177034 0.78165525 0.77284837 0.8432192
0.8754815 0.8287867 0.7514201 0.8946269 0.87120074 0.8717953 0.769398 0.74930304
0.75478613 0.77174526 0.75696903 0.8487778 0.77499175 0.88360643 0.8369371 0.82388765
0.7780069 0.8653115 0.77721065 0.7759589 0.81024873 0.8033663 0.8235384 0.7605756
0.84981394 0.8056659 0.7819127 0.81785786 0.8449398 0.85336614 0.76943684 0.8367735
00000000: ba33 413f 3d45 5e3f 5e3e 5c3f d273 373f
00000010: e762 5f3f 3112 423f d48c 603f fb5b 563f
00000020: a232 653f 67f7 473f b37e 623f d5ca 403f
00000030: 4f8c 583f 7ab0 443f f2e7 473f 611d 543f
00000040: d966 433f 69db 613f b222 563f 8e95 373f
00000050: eaff 5b3f 5e75 4d3f eb68 4b3f f833 533f
00000060: 80e1 513f 13d2 5e3f e1a8 573f 2f5e 653f
00000070: 32f9 4d3f 28da 453f 2f13 453f d7b1 5e3f
00000080: beb9 533f 3582 3e3f 2b24 423f 4945 3e3f
00000090: 61ec 653f dcd6 533f e303 553f fde9 4c3f
000000a0: 18b8 3d3f 266e 583f bcbf 533f a04a 4b3f
000000b0: eaa4 663f 8ebc 463f 4618 4d3f 0905 5c3f
000000c0: de33 423f 1d2e 503f b34b 5b3f 2d7e 4e3f
000000d0: 1102 5e3f 3407 533f 51b8 5f3f 7cec 393f
000000e0: d3e0 583f 8fcc 483f ca85 543f 6d7d 533f
000000f0: d3ff 573f 6138 463f 167c 653f 3ecd 5a3f
00000100: 2bd4 423f 3b51 523f 73e1 483f 9d6b 5b3f
00000110: 142e 593f 9245 623f 6fc2 4c3f 5d98 503f
00000120: 823b 403f 89da 433f ac1c 483f 4ec9 5d3f
00000130: c290 473f 9b8d 4c3f 90ba 503f ca33 633f
00000140: 2cbf 4a3f f3ea 413f b9df 5a3f fcf4 4f3f
00000150: 6d5e 463f 2c10 513f 75a8 493f 2213 4d3f
00000160: 9d32 523f b083 4f3f 1f32 403f 653d 503f
00000170: 88b9 4b3f 0917 493f 373e 533f 8577 523f
00000180: 6145 483f 9c2f 483f b3ff 4e3f 6487 543f
00000190: 6c72 5d3f fb1a 3d3f 0fa0 543f 9990 5d3f
000001a0: ef75 3f3f ad9b 4c3f 8cda 3d3f 71a9 4f3f
000001b0: 5d4c 563f 15a8 5d3f 1184 563f f253 503f
000001c0: ae8b 5e3f 528d 4d3f 51e4 493f 17ef 463f
000001d0: 2960 3f3f a9c6 5a3f cfb3 403f b347 533f
000001e0: b9aa 543f 82e0 463f f833 383f 0e18 4c3f
000001f0: 1350 4f3f 2dae 513f bc92 493f aa33 453f
00000200: aa13 423f 3682 573f 6ec5 523f 24b9 5c3f
00000210: 30ae 563f cf13 5c3f f7c7 433f 7bdb 483f
00000220: 0d4a 493f 9686 493f 152e 543f c64f 503f
00000230: 8400 4d3f 2bcf 5b3f 3ea6 4e3f 3c91 533f
00000240: f7ff 4e3f 3e8c 543f a498 4e3f 2dd1 4d3f
00000250: 31fe 493f 7f5b 433f bc82 443f 9c4b 413f
00000260: 984d 463f 389f 553f 8ae2 393f 4225 553f
00000270: 2736 503f 8fd2 4c3f c9a8 573f 58da 423f
00000280: cd16 3b3f 9729 433f a2d2 4d3f f70e 433f
00000290: fbfe 4a3f f414 6c3f 7c3a 573f 3047 463f
000002a0: 14ff 583f 3b20 3c3f 70b9 493f e550 4b3f
000002b0: 4c64 473f 31cd 513f 2613 473f 8ef5 603f
000002c0: 658a 513f 3490 613f 39b6 493f 7810 5c3f
000002d0: dbe0 503f 41f9 5e3f bebe 423f 9e77 693f
000002e0: 5771 583f 8880 4b3f d8f9 543f 7f09 623f
000002f0: 9355 393f 0b76 533f 3e0c 553f 3c51 533f
00000300: 2b8e 583f 3ffc 403f 2ffc 543f cd7a 403f
00000310: 2377 5a3f 9085 503f fdd9 3e3f 3dc9 5a3f
00000320: f39f 403f 4cd8 433f f44b 403f 6296 503f
00000330: d291 413f 6c93 4d3f f9a3 573f 5f3a 463f
00000340: 86ce 3c3f 98db 5a3f ef12 513f 5eb7 513f
00000350: 52f8 3b3f 5496 543f 116b 5e3f 27d5 5b3f
00000360: 7c4e 573f d096 533f 9911 463f 37ef 553f
00000370: 69bb 373f 8f1a 483f 64d9 453f 37dd 573f
00000380: 8e1f 603f 5d2b 543f 115d 403f 4506 653f
00000390: 0307 5f3f fa2d 5f3f 44f7 443f 53d2 3f3f
000003a0: aa39 413f 1991 453f b9c8 413f 8049 593f
000003b0: dc65 463f 0834 623f 8341 563f 4dea 523f
000003c0: 762b 473f 0e85 5d3f 47f7 463f 3ea5 463f
000003d0: 766c 4f3f 6aa9 4d3f 6ad3 523f 15b5 423f
000003e0: 688d 593f 1f40 4e3f 6e2b 483f 225f 513f
000003f0: fa4d 583f 3476 5a3f d0f9 443f ca36 563f

bn1.bias f4 [256]
-0.038695607 -0.034882326 -0.02197383 -0.036275435 -0.018529603 -0.049320824 -0.046240702 -0.04283584
0.0034850708 -0.051802713 -0.040009342 0.008603941 0.010351226 -0.02493152 -0.07234528 -0.024476698
-0.019451892 -0.033584695 -0.04520675 -0.031968266 -0.02361578 -0.034171972 -0.0405923 -0.032389
-0.033620697 -0.021704594 -0.028556043 -0.07511516 -0.07325416 -0.06341921 -0.004005558 -0.010749913
-0.042962804 -0.039187945 -0.040281985 -0.028413996 -0.01752552 -0.025264448 -0.0044575254 -0.024765125
-0.022089144 -0.05045031 -0.047631536 -0.043687962 -0.037425064 -0.019078687 -0.03939206 -0.0005206109
-0.0049505536 -0.004418795 -0.052822348 -0.0218263 -0.018468421 -0.045639813 -0.05417469 -0.022401549
-0.013895119 -0.04356654 -0.045012005 -0.05039694 -0.014907323 -0.035780936 -0.026805475 -0.025401162
-0.0356412 -0.008737612 -0.024541501 -0.018191088 -0.010701057 -0.06696412 -0.038218383 -0.056269545
-0.020220093 -0.02849231 -0.036618434 -0.015029913 -0.047192656 -0.012440746 -0.035490494 -0.0039834953
-0.03681476 -0.017475542 -0.011076607 0.006190522 -0.017123058 -0.049048405 -0.005561366 -0.025764426
-0.06740951 -0.039089095 -0.02575123 -0.021833649 -0.04430531 -0.019296162 -0.052600015 -0.031524874
-0.051632967 -0.028435986 -0.046750266 0.017410312 -0.01625345 -0.01973884 -0.046067014 -0.009729176
0.0014218744 -0.035712775 -0.033354193 -0.02847854 -0.028568326 -0.029816965 -0.05026056 -0.03832246
0.017211556 -0.019286606 -0.018635731 -0.029529812 -0.030511294 0.0061612558 -0.04020252 -0.041945547
-0.05491155 -0.033038616 -0.03636202 -0.022280278 -0.039615244 -0.049647845 -0.03194365 -0.033659786
-0.036157668 -0.019309008 -0.099459514 -0.03039708 -0.020461183 -0.037219226 -0.016966188 -0.01716161
-0.011718192 -0.0140943965 -0.021636056 -0.030202173 -0.0012353847 -0.06074292 -0.049091186 -0.035596613
-0.0634103 -0.051074926 -0.040391717 -0.040813394 -0.027394405 -0.028446233 0.007332372 -0.019458447
-0.031496868 -0.037668303 -0.029387588 -0.03522875 -0.049321745 -0.018687125 -0.038096987 -0.029836074
-0.042397995 -0.048369914 -0.044609163 0.0023435182 -0.042637244 -0.004715474 -0.06897771 -0.008865049
-0.0014911165 -0.024296578 -0.061034847 -0.02062738 -0.038995966 -0.047153324 -0.054396387 -0.03099653
-0.018181914 -0.01724924 -0.018152514 -0.0324951 -0.008049299 0.02031733 -0.035856273 -0.008059535
-0.03322543 -0.020580169 -0.049551778 -0.023740744 -0.012665332 -0.05029207 -0.065637 -0.037933286
-0.03100787 -0.02829849 -0.054958146 -0.058201373 -0.037203934 -0.041045945 -0.055936128 -0.019152977
-0.021706339 -0.013513877 -0.007277908 -0.04747395 -0.025054118 -0.030357849 -0.046716493 -0.016375039
-0.020865068 -0.038201157 -0.068621285 -0.032272864 -0.04075304 -0.05596113 -0.010550897 -0.032133885
-0.005943947 -0.053882323 -0.024803793 -0.037176803 -0.043187164 -0.021824127 -0.043698337 -0.08550537
0.013835844 -0.029313466 -0.025424542 -0.069118984 -0.0142496405 -0.032353204 -0.015189185 -0.02962136
-0.022637734 -0.04423537 -0.0278486 -0.061213028 0.0054628407 -0.038617413 0.0051286113 -0.045549925
-0.032983646 -0.0070915036 -0.036828764 -0.042895567 -0.02131212 0.0062753162 -0.038862385 -0.013775576
-0.06357748 -0.016812718 -0.022240164 -0.02622139 -0.042550404 0.0074897734 0.009361968 -0.03677554
00000000: 497f 1ebd c5e0 0ebd 7602 b4bc 8d95 14bd
00000010: 65cb 97bc a204 4abd e466 3dbd a274 2fbd
00000020: c965 643b 152f 54bd d6e0 23bd 8bf7 0c3c
00000030: 3098 293c 303d ccbc c329 94bd 5b83 c8bc
00000040: 9359 9fbc 1b90 09bd b72a 39bd 28f1 02bd
00000050: e175 c1bc e9f7 0bbd 1d44 26bd 54aa 04bd
00000060: dbb5 09bd d5cd b1bc 5dee e9bc fad5 99bd
00000070: 4706 96bd eee1 81bd 0e41 83bb 6720 30bc
00000080: c4f9 2fbd 8a83 20bd b9fe 24bd 78c4 e8bc
00000090: ae91 8fbc 63f7 cebc 6f10 92bb 3be0 cabc
000000a0: 4bf4 b4bc fca4 4ebd 4919 43bd 26f2 32bd
000000b0: 064b 19bd e84a 9cbc 9259 21bd 9b79 08ba
000000c0: 4138 a2bb 8acb 90bb 3f5c 58bd 12cd b2bc
000000d0: 164b 97bc d0f0 3abd 48e6 5dbd 7483 b7bc
000000e0: 5aa8 63bc d472 32bd 825e 38bd 066d 4ebd
000000f0: d83d 74bc 088f 12bd 2897 dbbc 1916 d0bc
00000100: 82fc 11bd 3328 0fbc 420b c9bc 7a05 95bc
00000110: 7c53 2fbc 7c24 89bd e18a 1cbd e57a 66bd
00000120: 9ca4 a5bc b468 e9bc 36fd 15bd 0640 76bc
00000130: 164d 41bd 45d4 4bbc 7b5e 11bd fb87 82bb
00000140: 13cb 16bd de28 8fbc a87a 35bc ddd9 ca3b
00000150: a845 8cbc fbe6 48bd 1f3c b6bb eb0f d3bc
00000160: ff0d 8abd e31b 20bd 3ef4 d2bc 7bdc b2bc
00000170: 7c79 35bd fc12 9ebc 1d73 57bd 3a20 01bd
00000180: 177d 53bd 96f2 e8bc 357d 3fbd 12a0 8e3c
00000190: f525 85bc 59b3 a1bc c4b0 3cbd 1f67 1fbc
000001a0: 305e ba3a 8f47 12bd 689e 08bd d44b e9bc
000001b0: 1f08 eabc b542 f4bc 04de 4dbd 03f8 1cbd
000001c0: 40ff 8c3c f2fe 9dbc f6a9 98bc 81e8 f1bc
000001d0: d2f2 f9bc 5ce4 c93b 66ab 24bd 18cf 2bbd
000001e0: efea 60bd 8053 07bd 57f0 14bd 2185 b6bc
000001f0: 9843 22bd 8a5b 4bbd 58d7 02bd d8de 09bd
00000200: 101a 14bd ed2d 9ebc 6eb1 cbbd 4c03 f9bc
00000210: 369e a7bc 3073 18bd adfc 8abc 8196 8cbc
00000220: a9fd 3fbc 2fec 66bc 193e b1bc 8c6a f7bc
00000230: a2ec a1ba 91cd 78bd d713 49bd c1cd 11bd
00000240: 42dd 81bd f133 51bd c971 25bd f22b 27bd
00000250: 3b6a e0bc 1308 e9bc 6544 f03b 5267 9fbc
00000260: dc02 01bd 144a 1abd 3dbe f0bc 064c 10bd
00000270: 9905 4abd be15 99bc 960b 1cbd c86a f4bc
00000280: 85a9 2dbd 881f 46bd 19b8 36bd b695 193b
00000290: 64a4 2ebd 4384 9abb 3044 8dbd b63e 11bc
000002a0: 9171 c3ba 9e09 c7bc adff 79bd c0fa a8bc
000002b0: 3cba 1fbd d823 41bd bfce 5ebd 6fec fdbc
000002c0: 3df2 94bc 474e 8dbc 95b4 94bc 9519 05bd
000002d0: 35e1 03bc 8770 a63c 07de 12bd 240c 04bc
000002e0: 6317 08bd be97 a8bc cef6 4abd f37b c2bc
000002f0: 4182 4fbc 0fff 4dbd b16c 86bd ef5f 1bbd
00000300: 3704 febc 3cd2 e7bc cb1b 61bd 9064 6ebd
00000310: 2763 18bd cb1f 28bd 481d 65bd b4e6 9cbc
00000320: 7ed1 b1bc 4f69 5dbc 847b eebb 0b74 42bd
00000330: 4b3e cdbc 06b1 f8bc cb59 3fbd f224 86bc
00000340: 38ed aabc d178 1cbd 5189 8cbd 8d30 04bd
00000350: a9ec 26bd 7f37 65bd abdd 2cbc d29e 03bd
00000360: 71c5 c2bb b6b3 5cbd 5331 cbbc b446 18bd
00000370: 06e5 30bd 83c8 b2bc 07fd 32bd 701d afbd
00000380: bcaf 623c cb22 f0bc 2147 d0bc 418e 8dbd
00000390: 5377 69bc cb84 04bd 0fdc 78bc 7fa8 f2bc
000003a0: c572 b9bc 2630 35bd bf22 e4bc 83ba 7abd
000003b0: a101 b33b 4b2d 1ebd e90d a83b 8f92 3abd
000003c0: dc19 07bd d85f e8bb c2d9 16bd 43b3 2fbd
000003d0: c196 aebc 2ba1 cd3b 2a2e 1fbd f4b2 61bc
000003e0: e934 82bd d3ba 89bc 0131 b6bc 3ece d6bc
000003f0: 5549 2ebd c66c f53b f162 193c f3a1 16bd

bn1.running_mean f4 [256]
-0.060323894 -0.13647754 0.2111214 0.026208157 -0.05921977 0.0056573073 0.29046464 -0.10670149
-0.009923575 -0.0158998 -0.07543076 -0.1282243 -0.18130286 -0.2856328 -0.32999817 -0.0028954784
-0.01869581 -0.2499751 -0.10708626 -0.36553937 -0.34053984 0.05497125 0.24451208 0.013602193
0.1959429 -0.0043079224 0.22098465 0.08617168 -0.1729135 0.09740187 -0.11658245 -0.16702613
0.15586571 -0.0032245694 0.15624906 0.08606735 0.114175335 -0.10604781 0.23026772 0.16636121
-0.28064826 0.018010838 -0.08848878 0.26846808 -0.020910941 0.019284064 0.014186438 0.14742257
0.1407079 0.038126074 -0.061828196 -0.26661897 -0.004985844 0.08230881 0.20045169 -0.24655639
-0.3578145 0.09663784 -0.24396351 -0.1429244 0.19135496 -0.16945614 -0.17773148 0.0717185
0.049755782 -0.092604145 -0.06252712 0.07318802 0.10836449 0.046761815 -0.07650219 -0.05785347
0.029283356 0.2035909 -0.024171261 0.24647793 0.22704303 0.21529809 0.25929743 0.22716063
-0.110032566 -0.076118216 0.043546155 0.09682014 -0.47802725 0.097691946 0.07388161 -0.17526092
0.06057 9.2195514e-05 0.22356987 0.41101867 -0.24583453 -0.11049773 -0.45182756 0.0692869
-0.4510958 0.12307927 -0.17536464 -0.34523547 -0.11703234 -0.19333887 -0.06594214 0.46827874
-0.28111282 0.30474672 0.22178441 0.07516421 0.1926767 0.15416533 0.19067203 0.12923142
0.011317108 -0.021196157 0.07999334 0.11616854 0.065369405 -0.16106734 -0.06882565 -0.015747162
0.17315969 -0.20289409 0.35151228 -0.0013970251 0.027895195 -0.03416521 0.33320513 -0.119662285
0.0014051386 -0.053847708 -0.23339704 0.3296372 0.1683925 -0.06420034 -0.07102771 -0.118699156
0.1966438 0.062636085 -0.38211563 0.31115657 -0.09156912 0.056176398 0.20885277 -0.29511964
-0.066309124 0.059999794 -0.118805565 0.107254736 -0.19684172 -0.1925285 -0.102450795 0.23879394
-0.14352155 -0.019455582 -0.01263924 -0.25006294 -0.05283622 0.14006236 0.090838164 -0.19430406
0.1770088 -0.042956695 -0.1409098 -0.057494264 -0.12089056 0.0024317396 -0.16150053 -0.3912853
-0.39920598 -0.052585933 -0.15356031 -0.2051627 -0.009218961 -0.35925522 0.049716424 -0.041023545
0.051518843 -0.35961288 -0.2565169 -0.18983056 0.02296711 0.19243737 0.17931497 0.13877459
-0.014843647 0.037089765 -0.03544208 0.23538765 0.16164386 -0.121961124 0.14179339 -0.14458391
-0.034353785 -0.2795687 0.21795212 -0.14231345 -0.011533792 0.11618537 -0.023013067 0.1354912
0.088123836 -0.16356355 -0.024935385 0.10088938 -0.34077018 -0.1659492 -0.07547881 -0.30710438
0.053603757 -0.15253255 0.062567286 0.14223076 0.03816852 0.09517336 0.09639509 -0.024777135
-0.019186523 -0.44908938 -0.11631785 0.20321162 0.28132716 0.036097065 -0.08413424 0.18952681
0.25143048 0.14777157 -0.14592361 -0.119918235 0.14299624 -0.06346536 -0.08148716 -0.34392092
-0.05595663 -0.030466776 0.23601757 -0.09593167 0.31248876 0.14717044 0.0043010553 -0.3918174
-0.12092725 0.018663773 0.0536878 -0.18968794 -0.29166564 0.23364276 0.20015353 -0.093550056
-0.18741716 -0.22710258 -0.22395675 -0.021104528 -0.15259987 -0.120158814 0.25649855 0.2772954
00000000: 3016 77bd c5c0 0bbe 3530 583e 7db2 d63c
00000010: 6e90 72bd ef60 b93b c8b7 943e 5086 dabd
00000020: 7e96 22bc 4c40 82bc 717b 9abd 3b4d 03be
00000030: 75a7 39be 763e 92be 85f5 a8be 11c2 3dbb
00000040: f527 99bc 79f9 7fbe 0b50 dbbd fa27 bbbe
00000050: 3d5b aebe 8929 613d 6061 7a3e bcdb 5e3c
00000060: 41a5 483e 7929 8dbb cd49 623e c77a b03d
00000070: 3d10 31be a27a c73d c8c2 eebd e608 2bbe
00000080: 439b 1f3e 4c53 53bb c1ff 1f3e 1444 b03d
00000090: c2d4 e93d 982f d9bd 4dcb 6b3e 985a 2a3e
000000a0: 21b1 8fbe 778b 933c 9b39 b5bd a674 893e
000000b0: 6c4d abbc 9df9 9d3c 3c6e 683c f1f5 163e
000000c0: bb15 103e 162a 1c3d 903f 7dbd 4882 88be
000000d0: 4a60 a3bb 8591 a83d 3543 4d3e 4779 7cbe
000000e0: 7633 b7be 0fea c53d 92d1 79be c65a 12be
000000f0: 8ef2 433e e985 2dbe 3eff 35be 26e1 923d
00000100: b8cc 4b3d 3ea7 bdbd 380e 80bd 9ae3 953d
00000110: 34ee dd3d 5189 3f3d 2ead 9cbd c3f7 6cbd
00000120: a6e3 ef3c 227a 503e cf02 c6bc b664 7c3e
00000130: f87d 683e 1a77 5c3e a2c2 843e cc9c 683e
00000140: c158 e1bd dee3 9bbd 745d 323d a349 c63d
00000150: fdbf f4be b712 c83d 3e4f 973d 9977 33be
00000160: 4018 783d 1759 c138 80ef 643e 0a71 d23e
00000170: 0cbc 7bbe a24c e2bd f155 e7be 4ae6 8d3d
00000180: 07f6 e6be fc10 fc3d ca92 33be b4c2 b0be
00000190: a7ae efbd a0fa 45be ac0c 87bd 3bc2 ef3e
000001a0: 05ee 8fbe c307 9c3e 741b 633e b1ef 993d
000001b0: 0a4d 453e 84dd 1d3e 873f 433e 3e55 043e
000001c0: 646b 393c 90a3 adbc 8cd3 a33d c6e9 ed3d
000001d0: 65e0 853d d6ee 24be 76f4 8cbd 3100 81bc
000001e0: c650 313e 78c3 4fbe 6bf9 b33e 621c b7ba
000001f0: 7784 e43c d2f0 0bbd dd99 aa3e 8011 f5bd
00000200: a12c b83a 6a8f 5cbd a2ff 6ebe 35c6 a83e
00000210: 156f 2c3e 787b 83bd fa76 91bd 8b18 f3bd
00000220: fe5c 493e 5947 803d a9a4 c3be ea4f 9f3e
00000230: 9788 bbbd 3919 663d 80dd 553e ec19 97be
00000240: 14cd 87bd 58c2 753d 5550 f3bd 5fa8 db3d
00000250: e090 49be 3126 45be b9d1 d1bd 6686 743e
00000260: 50f7 12be 5061 9fbc d114 4fbc 4008 80be
00000270: cb6a 58bd 826c 0f3e 5c09 ba3d a5f7 46be
00000280: cb41 353e 5cf3 2fbd a94a 10be 1b7f 6bbd
00000290: 7895 f7bd d25d 1f3b 6560 25be 8c56 c8be
000002a0: ba64 ccbe 5964 57bd ea3e 1dbe 2c16 52be
000002b0: 200b 17bc 4df0 b7be 73a3 4b3d 4e08 28bd
000002c0: 6c05 533d 2e1f b8be 2f56 83be f162 42be
000002d0: 8525 bc3c 4d0e 453e 589e 373e ed1a 0e3e
000002e0: c532 73bc 70eb 173d b72b 11bd 7609 713e
000002f0: f885 253e c1c6 f9bd 4932 113e ce0d 14be
00000300: 8eb6 0cbd a123 8fbe d72e 5f3e 9eba 11be
00000310: 3bf8 3cbc 98f2 ed3d e685 bcbc 35be 0a3e
00000320: 457a b43d 347d 27be 4b45 ccbc 179f ce3d
00000330: 6e79 aebe 96ee 29be a294 9abd c93c 9dbe
00000340: 9d8f 5b3d 7e31 1cbe 4723 803d f1a4 113e
00000350: 9856 1c3d 40ea c23d ca6a c53d 6bf9 cabc
00000360: 0e2d 9dbc 0bef e5be 0e38 eebd b516 503e
00000370: 1d0a 903e 84da 133d 934e acbd 5113 423e
00000380: 7fbb 803e 6e51 173e 006d 15be b197 f5bd
00000390: 9b6d 123e 20fa 81bd bde2 a6bd 6716 b0be
000003a0: c732 65bd 7695 f9bc 97ae 713e d377 c4bd
000003b0: 87fe 9f3e d9b3 163e deef 8c3b 4a9c c8be
000003c0: b5a8 f7bd c5e4 983c bde7 5b3d 8e3d 42be
000003d0: 3355 95be 0c40 6f3e 0cf5 4c3e 2c97 bfbd
000003e0: 49ea 3fbe 948d 68be eb54 65be 67e3 acbc
000003f0: 2443 1cbe d315 f6bd c753 833e aaf9 8d3e

bn1.running_var f4 [256]
0.2729512 0.15327395 0.17594355 0.38123456 0.16302074 0.33835647 0.18123671 0.17812848
0.1240533 0.20895568 0.14529869 0.181447 0.15908633 0.30312532 0.27979216 0.15958911
0.24511005 0.18167779 0.17497174 0.37742847 0.18103059 0.21851236 0.2429013 0.20315473
0.18086176 0.17799324 0.16602573 0.14180352 0.36136732 0.2512918 0.2468513 0.124097355
0.15838091 0.520947 0.2502533 0.24796848 0.121008575 0.20561522 0.1683038 0.24603052
0.36536333 0.17146704 0.26775554 0.15652117 0.14004256 0.23240058 0.21050327 0.16250384
0.27110487 0.16719428 0.16303287 0.16466762 0.15462531 0.18636854 0.17086385 0.2707901
0.1898405 0.18893096 0.1681666 0.1598571 0.20305085 0.25187132 0.12756747 0.19808672
0.21098149 0.16458799 0.13725314 0.13734746 0.18770765 0.13784583 0.25274572 0.2635828
0.30653843 0.22209379 0.15431367 0.12306777 0.27182427 0.21369556 0.19343443 0.15849741
0.25401127 0.27511862 0.19152111 0.2209583 0.314198 0.19149081 0.23629251 0.2937889
0.22281712 0.19705355 0.26747164 0.16679108 0.2609931 0.26336938 0.20511755 0.15938082
0.17335822 0.2261245 0.18273239 0.21554512 0.15833126 0.33783096 0.23638347 0.16277985
0.28166115 0.17603306 0.17947635 0.23973662 0.14518923 0.16430052 0.16363558 0.16324478
0.25410262 0.15608524 0.22648855 0.17606305 0.32868165 0.23877895 0.1894789 0.24664761
0.20027563 0.16940875 0.23330057 0.23580606 0.1956388 0.22090778 0.2680801 0.1883615
0.24392399 0.15823944 0.21012017 0.15730932 0.20287146 0.18568365 0.28319567 0.18332145
0.32748488 0.20269085 0.21135895 0.22751868 0.19049782 0.1576846 0.17378362 0.17951514
0.17891589 0.20004399 0.16981462 0.20897956 0.20065475 0.24997231 0.2332541 0.20398971
0.3837299 0.20334044 0.22238633 0.14731258 0.24564886 0.3615608 0.25412825 0.26148742
0.22136465 0.27261063 0.23887873 0.26736918 0.23971628 0.14893432 0.16839701 0.20144388
0.21657689 0.21562424 0.20790727 0.18892816 0.21943575 0.20427266 0.18003003 0.1744051
0.16294672 0.1500362 0.2365385 0.13471176 0.26858184 0.1834803 0.21388307 0.14076787
0.20869988 0.2177487 0.1879678 0.1404765 0.42801872 0.18847819 0.27061522 0.15951844
0.13951163 0.168727 0.14617068 0.19628136 0.15077604 0.1908684 0.47872242 0.20510289
0.24566066 0.5073572 0.30538023 0.20825708 0.24474657 0.23644829 0.18537053 0.19335693
0.2611506 0.17944229 0.23192383 0.22081082 0.22451949 0.23655182 0.19079101 0.16102286
0.15702753 0.18108262 0.21762359 0.20425019 0.15038837 0.2910273 0.28182262 0.20276077
0.16958202 0.16433719 0.1772022 0.13855661 0.21812685 0.121360414 0.26600772 0.30331534
0.4554983 0.31430095 0.3829035 0.18368727 0.2984403 0.1762474 0.15206134 0.23676029
0.25315174 0.19297986 0.17415291 0.19242549 0.31002867 0.19276273 0.1703377 0.21590005
0.17606209 0.19050695 0.2804954 0.3194283 0.14926267 0.15575328 0.29953256 0.19382283
00000000: 42c0 8b3e d9f3 1c3e 8c2a 343e 2d31 c33e
00000010: e9ee 263e 0f3d ad3e 1e96 393e 5067 363e
00000020: a80f fe3d 7af8 553e 2ec9 143e 3ecd 393e
00000030: 87e7 223e 3e33 9b3e eb40 8f3e 546b 233e
00000040: 21fe 7a3e be09 3a3e cb2b 333e 4e3e c13e
00000050: 1560 393e b4c1 5f3e 1ebb 783e cb07 503e
00000060: d333 393e dc43 363e a602 2a3e f134 113e
00000070: 2305 b93e 52a9 803e 96c6 7c3e c126 fe3d
00000080: 9b2e 223e c85c 053f 3321 803e 73eb 7d3e
00000090: 58d3 f73d cc8c 523e d557 2c3e 6def 7b3e
000000a0: e710 bb3e 0e95 2f3e 4117 893e 1647 203e
000000b0: 5167 0f3e 6bfa 6d3e 2b8e 573e 6867 263e
000000c0: 42ce 8a3e fa34 2b3e 17f2 263e a19e 283e
000000d0: 1956 1e3e 65d7 3e3e eff6 2e3e 00a5 8a3e
000000e0: 8c65 423e 1e77 413e dd33 2c3e 94b1 233e
000000f0: 90ec 4f3e 47f5 803e 0ca1 023e 3fd7 4a3e
00000100: 880b 583e c189 283e 168c 0c3e d0a4 0c3e
00000110: 6f36 403e 7527 0d3e e367 813e 53f4 863e
00000120: 9bf2 9c3e 8e6c 633e 6704 1e3e f40a fc3d
00000130: 8d2c 8b3e 02d3 5a3e ad13 463e 254d 223e
00000140: c40d 823e 59dc 8c3e 1c1e 443e e542 623e
00000150: 8fde a03e 2b16 443e aaf6 713e 806b 963e
00000160: 2c2a 643e 68c8 493e 0bf2 883e 48cb 2a3e
00000170: e3a0 853e 5ad8 863e 560a 523e ba34 233e
00000180: d184 313e 2e8d 673e 331e 3b3e dcb7 5c3e
00000190: 9721 223e 2ef8 ac3e 820e 723e c3af 263e
000001a0: e435 903e 0342 343e a6c8 373e 847d 753e
000001b0: 7cac 143e 653e 283e 1690 273e a429 273e
000001c0: bd19 823e cfd4 1f3e 9dec 673e df49 343e
000001d0: f648 a83e 7882 743e c206 423e 3191 7c3e
000001e0: 0e15 4d3e 7d79 2d3e 58e6 6e3e 2577 713e
000001f0: 8a55 483e a635 623e cb41 893e d6e1 403e
00000200: 36c7 793e 8509 223e be29 573e b215 213e
00000210: 89bd 4f3e db23 3e3e 06ff 903e 9eb8 3b3e
00000220: 19ac a73e 318e 4f3e 7b6e 583e a8fa 683e
00000230: dc11 433e 1278 213e 55f4 313e d1d2 373e
00000240: ba35 373e 55d8 4c3e e2e3 2d3e bdfe 553e
00000250: 7078 4d3e bef8 7f3e 2ada 6e3e aee2 503e
00000260: 3f78 c43e 7a38 503e 3eb9 633e 1cd9 163e
00000270: 608b 7b3e 7f1e b93e 191d 823e aee1 853e
00000280: 6aad 623e 9f93 8b3e a09c 743e 9de4 883e
00000290: 2f78 753e 3d82 183e 4470 2c3e 4e47 4e3e
000002a0: 55c6 5d3e 9acc 5c3e a5e5 543e 6276 413e
000002b0: c4b3 603e da2c 513e cb59 383e 4097 323e
000002c0: 81db 263e 17a3 193e 2637 723e e1f1 093e
000002d0: 8f83 893e 42e2 3b3e 2a04 5b3e 7425 103e
000002e0: 6cb5 553e 84f9 5e3e a27a 403e 12d9 0f3e
000002f0: 4525 db3e 6d00 413e 148e 8a3e cd58 233e
00000300: 23dc 0e3e c5c6 2c3e c4ad 153e fbfd 483e
00000310: 0965 1a3e 0173 433e 1b1b f53e 7e06 523e
00000320: 788e 7b3e 29e2 013f cc5a 9c3e 5841 553e
00000330: d89e 7a3e 801f 723e c6d1 3d3e 5cff 453e
00000340: 88b5 853e b8bf 373e 717d 6d3e 3b1c 623e
00000350: 70e8 653e a43a 723e b85e 433e 2de3 243e
00000360: d3cb 203e b96d 393e b8d8 5e3e f626 513e
00000370: 69ff 193e 8801 953e 0e4b 903e 85a0 4f3e
00000380: e9a6 2d3e 0248 283e 7e74 353e c9e1 0d3e
00000390: a55c 5f3e cf8b f83d 2a32 883e 264c 9b3e
000003a0: 1337 e93e 0eec a03e ed0b c43e 8418 3c3e
000003b0: 2bcd 983e 337a 343e f8b5 1b3e 4a71 723e
000003c0: 1b9d 813e 839c 453e 2455 323e 300b 453e
000003d0: 14bc 9e3e 9863 453e 026d 2e3e e714 5d3e
000003e0: 9f49 343e 4114 433e 189d 8f3e 1b8c a33e
000003f0: 50d8 183e ca7d 1f3e 555c 993e 7e79 463e
